res/best_gcn_task2_seed_1.pt (torch, 308065 bytes, 28 tensors)

conv1.bias f4 [32]
0	0xb9c7b8d4	-0.00038093945
1	0xba868425	-0.0010262771
2	0xbb27e7ab	-0.0025620263
3	0x39ce81dc	0.00039388135
4	0xba8b5c22	-0.0010632316
5	0xba0ac9fe	-0.00052943814
6	0xbb5cb029	-0.0033674336
7	0x3a69787e	0.00089061994
8	0x3c08301c	0.008312251
9	0x3ad4c588	0.0016233185
10	0xb95cfdc0	-0.00021075364
11	0xbb263c1b	-0.0025365415
12	0xbb0e4cde	-0.0021713297
13	0xbbd3a983	-0.0064594164
14	0x3b0c1bf7	0.0021378973
15	0x398d748b	0.00026980447
16	0xbb63a60c	-0.0034736423
17	0xba979f1a	-0.0011567802
18	0x3d02d568	0.0319418
19	0x3a54abd4	0.00081127626
20	0xbb7170cd	-0.0036840916
21	0x3af86a2f	0.0018952544
22	0x3af4da80	0.0018680841
23	0x3b10d430	0.002209913
24	0x383f11c3	4.555449e-05
25	0x390ac205	0.00013232983
26	0xbb10bcc0	-0.002208516
27	0x3a538faf	0.0008070422
28	0x3a688a6a	0.0008870723
29	0x3ae9044f	0.0017777773
30	0xba1977fe	-0.0005854367
31	0x3b6257e4	0.003453725

conv1.lin.weight f4 [32, 11]
0	0xbe509949	-0.20370974
1	0x3eba52dc	0.36391342
2	0xbe579bfe	-0.210556
3	0x3eceddb9	0.40403536
4	0x3e16210d	0.14661045
5	0x3e835a2c	0.25654733
6	0xbea9e840	-0.33185005
7	0x3ebf2964	0.37336266
8	0xbe2da638	-0.16957939
9	0xbbc39329	-0.0059684706
10	0xbda04ada	-0.07826777
11	0x3e010ade	0.12601802
12	0x3e94059f	0.2891054
13	0x3c447e8f	0.011993065
14	0xbe8311ed	-0.25599614
15	0xbe255739	-0.16146554
16	0x3e87513c	0.26429164
17	0x3d472a86	0.048624538
18	0xbe60499e	-0.21903083
19	0x3e7b3289	0.24530996
20	0x3e42af2a	0.19012132
21	0x3ea25738	0.31707168
22	0x3d7d60b7	0.061859813
23	0x3e45f5ac	0.19331998
24	0xbea65c81	-0.3249245
25	0xbe354baf	-0.17704652
26	0x3d54c0f1	0.051941816
27	0x3911194f	0.00013837706
28	0xbe0739c2	-0.13205627
29	0xbdd1c9a3	-0.10243537
30	0xbd09f1c0	-0.033677816
31	0x3e9b162b	0.3029035
32	0xbdce5c50	-0.10076201
33	0x3e9a9e1f	0.30198762
34	0xbe8240a7	-0.2543995
35	0x3dfc6cb7	0.12325423
36	0xbe8b72dc	-0.27236068
37	0x3e13024b	0.14356343
38	0xbe1d8ab2	-0.1538494
39	0x3e830be0	0.25594997
40	0xbe9bfe6c	-0.30467546
41	0x3eb83e60	0.35985088
42	0x3eb72b0e	0.35775036
43	0x3e2a6708	0.16640866
44	0x3ed80631	0.42192224
45	0xbebf7210	-0.3739171
46	0xbc96dc40	-0.01841557
47	0xbea84266	-0.32863158
48	0x3e7f3200	0.24921417
49	0x3c63feca	0.013915727
50	0x3e38b341	0.1803713
51	0xbdc162bb	-0.094426595
52	0x3da025f2	0.078197375
53	0x3ddbb218	0.10727328
54	0xbe50c18c	-0.20386332
55	0x3ea46b9b	0.32113346
56	0xbed09c74	-0.40744364
57	0xbcc3faf3	-0.023923373
58	0xbdf54970	-0.11976898
59	0xbe054938	-0.13016212
60	0x3eca2eff	0.3948898
61	0xbe59085e	-0.21194598
62	0xbbd837f4	-0.006598467
63	0xbd4b0cf8	-0.049572915
64	0x3e1c9ed0	0.15294957
65	0xbd9140d1	-0.07092441
66	0x3eac1171	0.33607057
67	0x3edd1b8c	0.4318508
68	0xbe2d83b7	-0.16944776
69	0xbc2620e5	-0.010139679
70	0xbe62de06	-0.22155008
71	0x3e2ca93d	0.16861434
72	0xbeadbf3b	-0.3393496
73	0xbdb79857	-0.089646034
74	0xbd951a7b	-0.072804414
75	0x3d42311c	0.047410116
76	0xbda27a3c	-0.079334706
77	0x3e8039ba	0.25044042
78	0x3dede57a	0.11616035
79	0x3d9a6d8f	0.07540428
80	0x3e6041dd	0.21900125
81	0xbd5f4f39	-0.054518912
82	0x3dd6fddd	0.10497639
83	0xbe4abcab	-0.19798534
84	0x3e10a92d	0.14127035
85	0xbe07aeab	-0.13250224
86	0x3ea95d8d	0.33079186
87	0xbe35422f	-0.17701028
88	0xbdcdcb8a	-0.100485876
89	0xbe95ec83	-0.29282007
90	0x3e7809fd	0.2422256
91	0xbe632c91	-0.2218497
92	0x3eadb679	0.33928278
93	0x3d7e0e1b	0.06202517
94	0xbd16cf0b	-0.036818545
95	0xbe2dbedf	-0.16967343
96	0xbdd6a71e	-0.10481094
97	0xbe8ee7d8	-0.27911258
98	0x3e1c9fb3	0.15295295
99	0xbeb0d813	-0.34539852
100	0xbe396a8a	-0.18107048
101	0xbe954d18	-0.2916038
102	0x3ddbc1e5	0.10730342
103	0x3dc89eed	0.09795938
104	0x3eaf797c	0.34272373
105	0xbd320175	-0.04345842
106	0x3e9ed99a	0.31025392
107	0xbe8eb553	-0.27872714
108	0xbed82091	-0.42212346
109	0xbe7b8f8e	-0.2456648
110	0x3d22367b	0.039602738
111	0xbeb2579a	-0.3483246
112	0x3e846084	0.25854886
113	0xbeb191c0	-0.3468151
114	0x3e2d91d6	0.16950163
115	0xbdde7228	-0.10861617
116	0x3bb818e6	0.0056182025
117	0xbe08752d	-0.13325949
118	0x3e5df4f6	0.21675476
119	0x3ea57270	0.3231387
120	0xbec06652	-0.37578064
121	0xbebb1986	-0.3654291
122	0xbd19a0a8	-0.03750673
123	0xbc59636f	-0.013268336
124	0x3ea6485b	0.32477078
125	0x3df53969	0.11973841
126	0x3d4018f8	0.046898812
127	0xbe8cea98	-0.2752273
128	0x3e08339a	0.13300934
129	0xbde70ded	-0.11281953
130	0x3e94a258	0.29030108
131	0xbe25af2c	-0.16180104
132	0xbb6b6527	-0.0035918446
133	0x3ea36fc8	0.3192122
134	0x3eb0fc38	0.34567428
135	0xbe9c0f75	-0.30480543
136	0xbe5c960e	-0.21541616
137	0xbe03116c	-0.12799615
138	0xbbf8a717	-0.007588278
139	0x3e9685d1	0.2939897
140	0x3eae2bfc	0.34017932
141	0xbdfe7d9d	-0.124263026
142	0xbe3f58a5	-0.18686159
143	0x3eb3fc34	0.35153353
144	0xbdba1174	-0.0908536
145	0xbe243c93	-0.16038732
146	0x3e4737e3	0.19454913
147	0x3e4c1909	0.19931425
148	0x3dfa28da	0.12214823
149	0xbd9ccc51	-0.07656158
150	0xbe5a31d3	-0.21308069
151	0xbdf9a8b3	-0.1219038
152	0x3e975a95	0.29561296
153	0x3e3e5714	0.18587905
154	0x3e3bfeb0	0.18358874
155	0xbbc369ce	-0.0059635406
156	0x3e532020	0.20617723
157	0x3d1850b9	0.037186358
158	0xbdea3bff	-0.114372246
159	0xbe049358	-0.12946832
160	0x3e190bc9	0.14945902
161	0xbd0da710	-0.03458315
162	0x3e7652cd	0.24055023
163	0x3e4818e1	0.1954074
164	0x3e7866d5	0.24257977
165	0xbe97e3a1	-0.29665855
166	0xbecb2353	-0.39675388
167	0x3d8c8f8d	0.06863318
168	0xbd6536a8	-0.055960327
169	0xbec5bced	-0.386207
170	0xbe0c51a5	-0.1370302
171	0xbe3c8021	-0.18408252
172	0xbe7ebf6a	-0.24877706
173	0x3dc0d772	0.09416093
174	0x3d717d09	0.058957133
175	0xbe27b19e	-0.1637635
176	0xbeab14f1	-0.33414415
177	0x3e1211e1	0.14264633
178	0x3e50afe0	0.20379591
179	0x3cb87795	0.022517959
180	0x3dfc31a4	0.12314156
181	0x3c59b1ee	0.013287051
182	0x3c073494	0.008252282
183	0xbd189024	-0.03724684
184	0xbe0944bd	-0.13405128
185	0xbeef8f4a	-0.46789008
186	0x3e83573f	0.256525
187	0xbddd5dfc	-0.10808942
188	0xbce18139	-0.027527438
189	0xbeb95cc2	-0.3620358
190	0xbc805a12	-0.015667949
191	0xbd4a7ce9	-0.04943553
192	0xbe75e338	-0.24012458
193	0xbe996a3e	-0.2996387
194	0xbe971ab5	-0.29512563
195	0xbeba8efa	-0.36437207
196	0x3df1d114	0.118074566
197	0xbe302af5	-0.17203887
198	0xbda2a743	-0.07942059
199	0x3e738cbf	0.23784159
200	0x3dc8ff51	0.09814323
201	0x3ba5cbd7	0.0050597
202	0xbcb1d840	-0.021709561
203	0x3d953f83	0.072875045
204	0x3d207465	0.039173502
205	0xbdc124bc	-0.09430835
206	0x3daaa621	0.08332468
207	0x3e489ffe	0.19592282
208	0xbe5afeb3	-0.21386223
209	0x3e85ad03	0.2610856
210	0x3ddb4112	0.107057706
211	0xbde75bfa	-0.1129684
212	0x3e289b67	0.16465531
213	0x3e068311	0.13135935
214	0x3e266616	0.1624988
215	0xbdd6882f	-0.10475194
216	0x3e4affea	0.19824186
217	0xbd4d38b4	-0.050102904
218	0x3e171b06	0.14756402
219	0xbe19886e	-0.1499345
220	0xbe1e819b	-0.15479128
221	0x3df2fe5b	0.11864921
222	0x3d09edbd	0.03367399
223	0x3d8e19c4	0.06938508
224	0xbe6b4a69	-0.22977604
225	0x3d27cf3b	0.040969115
226	0x3ebbcc11	0.36679128
227	0xbe21c323	-0.15797095
228	0x3e59c9d2	0.21268395
229	0xbea6a0d1	-0.32544568
230	0x3e393f4b	0.1809055
231	0x3e94b401	0.29043582
232	0xbcdd8246	-0.027039658
233	0xbd988f44	-0.07449201
234	0x3dfe67d4	0.124221474
235	0x3d97d20e	0.074131116
236	0x3e3bf1ab	0.18353908
237	0x3d98cc2d	0.074608184
238	0xbe9bdb93	-0.3044096
239	0xbebacab3	-0.36482772
240	0x3dfc568a	0.123211935
241	0xbb02f89a	-0.0019984604
242	0x3e86d97c	0.26337802
243	0x3e6b1fa3	0.22961287
244	0xbe5a09e9	-0.21292843
245	0xbe746bb4	-0.2386921
246	0x3e86e852	0.2634912
247	0xbdfedde3	-0.12444665
248	0x3e4ed1ee	0.2019727
249	0xbe61437c	-0.219984
250	0xbd6a1223	-0.057146203
251	0xbcff31d8	-0.031151697
252	0x3c0da5ab	0.008645455
253	0x3e800cf7	0.2500989
254	0x3c062cf6	0.00818943
255	0x3d50b368	0.050952345

bn1.module.weight f4 [32]
0	0x3f80e14d	1.0068756
1	0x3f7f16bf	0.9964408
2	0x3f81115a	1.008342
3	0x3f7c38d5	0.9852422
4	0x3f80363f	1.0016555
5	0x3f7b4b8c	0.9816215
6	0x3f7eb6c6	0.9949764
7	0x3f82568e	1.0182664
8	0x3f7ee559	0.99568707
9	0x3f83b8bb	1.029075
10	0x3f80b58e	1.0055406
11	0x3f84d74c	1.0378203
12	0x3f8197de	1.0124471
13	0x3f7d791a	0.9901291
14	0x3f7c5bae	0.9857739
15	0x3f7d71ad	0.9900158
16	0x3f841467	1.0318726
17	0x3f830cfa	1.0238335
18	0x3f868f5a	1.0512497
19	0x3f80bacd	1.0057007
20	0x3f81c33f	1.0137709
21	0x3f7984e3	0.97468394
22	0x3f7acc4d	0.9796799
23	0x3f7df6ad	0.9920452
24	0x3f83a812	1.0285666
25	0x3f7b2684	0.98105645
26	0x3f81eb0e	1.0149858
27	0x3f80176f	1.0007151
28	0x3f82338c	1.0171981
29	0x3f7fb095	0.9987882
30	0x3f7d69bc	0.9898946
31	0x3f7a02ce	0.9766053

bn1.module.bias f4 [32]
0	0x3d9cffce	0.07665978
1	0x3cfd3cab	0.030912718
2	0xbd681723	-0.05666269
3	0x3d0d2151	0.0344556
4	0xbd889f0e	-0.06670962
5	0x3c0fa6dd	0.008767811
6	0x3d0b041d	0.03393947
7	0x3b6d65a8	0.0036223922
8	0x3b869d15	0.004108081
9	0x3d44975e	0.047995917
10	0xbb9b952d	-0.0047480077
11	0x3cbe69a5	0.023243735
12	0xbd04c975	-0.032418687
13	0x3c1af11f	0.009456902
14	0xbd4bbed9	-0.049742553
15	0xbd5dda65	-0.054163355
16	0xbd0efc46	-0.034908555
17	0x3aa6ecfa	0.001273542
18	0x3ca505c9	0.02014436
19	0x3cd069fe	0.025441166
20	0xbd090c80	-0.033459187
21	0xbd40d64e	-0.047079377
22	0xbcd5a542	-0.026079778
23	0x3d1a74ae	0.03770893
24	0x3d3b41c8	0.04571703
25	0xbcd8255e	-0.026385006
26	0xbd13188e	-0.03591209
27	0x3d25acec	0.040448114
28	0xbbdc07f7	-0.0067148167
29	0xbc97e4d9	-0.01854174
30	0x3d132efa	0.035933472
31	0xbd0184ba	-0.03162072

bn1.module.running_mean f4 [32]
0	0x3ee16b8d	0.44027367
1	0x3f198b53	0.59978217
2	0xbeae9b7d	-0.34103003
3	0x3f738133	0.9511902
4	0x3f5f5d6a	0.87251914
5	0xbe3dbcf4	-0.18529111
6	0x3fb92485	1.446427
7	0x3fdfab42	1.7474139
8	0x3dd21610	0.10258114
9	0xc0154226	-2.3321624
10	0xbe15cad3	-0.14628153
11	0xbf67624f	-0.9038438
12	0x3f37f3bb	0.7185628
13	0x3fd279f9	1.6443473
14	0x3f932bec	1.1497779
15	0xc04af700	-3.1713257
16	0xbdac5ab3	-0.08415737
17	0xbfe5e690	-1.7960987
18	0x3f01242f	0.50445837
19	0x3fd032f3	1.6265548
20	0xbf30b7d1	-0.6903048
21	0x3fae75d0	1.3629704
22	0x3fae6fb3	1.3627838
23	0x3f436193	0.7632076
24	0x3f8b0e7b	1.0863794
25	0x3fea3f59	1.8300582
26	0x3f707857	0.93933624
27	0x403b538f	2.926975
28	0xbef2c2e2	-0.4741431
29	0xbf5122ef	-0.8169393
30	0x3fe65abd	1.7996441
31	0xbfac45f0	-1.3458843

bn1.module.running_var f4 [32]
0	0x3d6edec9	0.058317933
1	0x3e3099b6	0.17246136
2	0x3d17f613	0.03709991
3	0x3f387f79	0.7206951
4	0x3fa4d307	1.28769
5	0x3ef9250b	0.48661074
6	0x3ebea78f	0.37237212
7	0x3f13c215	0.5771802
8	0x3e449dfa	0.19200888
9	0x3f63c2eb	0.88969296
10	0x3e091759	0.13387813
11	0x3f084567	0.532309
12	0x3d037259	0.032091472
13	0x3f8c6b68	1.0970278
14	0x3e85b71b	0.2611626
15	0x4013358c	2.3001432
16	0x3e45788f	0.1928427
17	0x3f6c2879	0.92249256
18	0x3c378517	0.011201165
19	0x3f410241	0.75394064
20	0x3e8d576c	0.2760576
21	0x3f43ee88	0.76535845
22	0x3f15fcfd	0.58589154
23	0x3e358cb9	0.17729463
24	0x3e19714f	0.1498463
25	0x3f59ea2c	0.8512294
26	0x3f13e1ca	0.577664
27	0x4003bc17	2.058355
28	0x3cee120c	0.02906134
29	0x3da5743a	0.08078809
30	0x3f18c850	0.5968065
31	0x3eb05fa6	0.34447974

conv2.bias f4 [64]
0	0xb9000919	-0.0001221042
1	0x39b0c76b	0.00033717914
2	0xbb26c2f9	-0.0025445803
3	0x3a07d29c	0.00051812246
4	0x3a429b8c	0.0007423691
5	0x3b24aad0	0.0025126226
6	0x3902e0b6	0.00012481477
7	0x3925e8d0	0.00015822356
8	0x394d390b	0.00019571574
9	0xba07f178	-0.0005185823
10	0xb856aca6	-5.1182367e-05
11	0x3a4e1f02	0.0007862897
12	0xba261ac4	-0.0006336386
13	0xb97b8e20	-0.00023990171
14	0xb98a5ff9	-0.00026392916
15	0x3994f704	0.000284128
16	0xb990fdb4	-0.00027654844
17	0x3a35a44a	0.0006929083
18	0x387f0202	6.0798608e-05
19	0xba0412e3	-0.0005038215
20	0x3b594e0b	0.003315809
21	0xba725195	-0.0009243724
22	0xba0440b5	-0.00050450425
23	0x3b477765	0.0030436155
24	0xba4a4446	-0.0007715862
25	0x397f8977	0.00024369905
26	0xba90ba39	-0.0011041827
27	0xba1b8b20	-0.0005933512
28	0xba16bbcf	-0.00057500316
29	0x3adc7f82	0.0016822668
30	0xbb08bf3d	-0.002086594
31	0xb9703815	-0.00022909076
32	0xb99150af	-0.0002771667
33	0xb9aebca6	-0.0003332842
34	0xba2d445a	-0.00066096114
35	0x38d78bd7	0.00010278046
36	0xb9d548b8	-0.00040680706
37	0xba4fe9c9	-0.000793126
38	0xb75f3544	-1.3304238e-05
39	0xba854cf2	-0.0010170026
40	0x3bd2f351	0.006437697
41	0xb9fc6884	-0.00048143056
42	0xb98b6de4	-0.0002659402
43	0xb8923480	-6.9716014e-05
44	0x39638ac4	0.00021700101
45	0xb8cb6c27	-9.699939e-05
46	0xb9d73e58	-0.00041054445
47	0xbafde09f	-0.001936931
48	0xbb6212e8	-0.0034496132
49	0xb7b90434	-2.2055676e-05
50	0xba05695c	-0.0005089247
51	0x3ae9fd2a	0.0017851938
52	0x397a788f	0.0002388677
53	0xbb412d03	-0.0029476292
54	0x3b990a70	0.0046704337
55	0x3b2b7204	0.0026160488
56	0x3ac49f08	0.0015001008
57	0xb9085bd2	-0.00013004176
58	0xb7eff2a5	-2.860401e-05
59	0x393a18bf	0.00017747561
60	0xb7f89784	-2.9634459e-05
61	0xb7a34b07	-1.9466052e-05
62	0xb8bbc7b6	-8.954054e-05
63	0x394b1e61	0.00019370906

conv2.lin.weight f4 [64, 32]
0	0xbe09aa8c	-0.13443965
1	0x3e122ece	0.14275667
2	0x3e158ffb	0.14605705
3	0x3e4d7d1d	0.20067258
4	0xbe2d1b59	-0.16904964
5	0xbe567d7e	-0.20946309
6	0x3c9ac570	0.018892974
7	0xbd6e2419	-0.058139894
8	0xbd126362	-0.03573931
9	0x3decc561	0.115610845
10	0xbeaeefa2	-0.341672
11	0xbe88360b	-0.26603732
12	0x3dbf3473	0.09336176
13	0xbbc6e8fa	-0.0060702534
14	0x3e3af600	0.18257904
15	0xbe39bc52	-0.18138245
16	0xbe6ffe00	-0.23436737
17	0x3e61aad1	0.22037818
18	0xba3c66af	-0.0007186932
19	0x3cc74a6c	0.02432748
20	0xbe150d4e	-0.14555857
21	0xbdd1282f	-0.102127425
22	0x3e30828c	0.172373
23	0x3e6c79c9	0.23093332
24	0xbe528de1	-0.20561935
25	0xbd7e8e8f	-0.062147673
26	0xbd9b8d20	-0.07595277
27	0xbdb6a3b2	-0.08917941
28	0x3d974479	0.07386107
29	0x3dd211e4	0.102573186
30	0x3e337dc9	0.17528452
31	0x3d7a2575	0.061070878
32	0xbe01799b	-0.12644045
33	0xbe367b96	-0.17820582
34	0xbe09116a	-0.13385549
35	0xbe291ca5	-0.16514833
36	0xbe6663b2	-0.22498968
37	0x3d67a653	0.056555104
38	0xbe196b55	-0.1498235
39	0xbe26d3ae	-0.16291687
40	0xbdbd35ce	-0.09238778
41	0xbd8ce830	-0.06880224
42	0xbdc864ce	-0.09784852
43	0xbd9fedf0	-0.07809055
44	0xbe8a5817	-0.27020332
45	0xbd09a93b	-0.033608656
46	0x3dcdb7d3	0.10044827
47	0xbe721b4a	-0.23643222
48	0x3a791ea5	0.00095031626
49	0xbe9f4d68	-0.31113744
50	0x3ce8933a	0.028390516
51	0xbe42bb69	-0.19016804
52	0xbdc59c65	-0.096489705
53	0x3e6c5aea	0.23081556
54	0xbe3bd7a6	-0.18343982
55	0x3def4837	0.11683696
56	0xbe1fefb9	-0.1561879
57	0x3e10c844	0.14138895
58	0x3e6d8e4b	0.23198812
59	0x3e34daaf	0.17661546
60	0x3e37be08	0.17943585
61	0x3e22f637	0.15914236
62	0x3decae62	0.115566984
63	0xbc21c14d	-0.009872747
64	0xbe29458c	-0.16530436
65	0xbded8d36	-0.115991995
66	0xbea5681e	-0.32305998
67	0xbe4216fa	-0.18954077
68	0xbdf5980b	-0.119918905
69	0x3d663bf7	0.05620953
70	0xbe298922	-0.16556218
71	0x3e086701	0.13320543
72	0x3e654bd5	0.22392209
73	0xbc318c83	-0.010836723
74	0x3e280603	0.16408543
75	0xbdd0153f	-0.10160302
76	0xbd1aad11	-0.037762705
77	0xbe182433	-0.14857559
78	0x3e16da5c	0.14731735
79	0xbe2235b5	-0.158408
80	0x3d38b93c	0.04509853
81	0x3c8131de	0.015770849
82	0xbe38b80d	-0.1803896
83	0xbe66f1f7	-0.2255324
84	0x3e49265e	0.19643542
85	0xbdc742c5	-0.09729532
86	0x3e31c27f	0.1735935
87	0x3d4e3ba9	0.050349865
88	0xbdaaef79	-0.08346457
89	0x3d21a892	0.0394674
90	0x3e16fc44	0.14744669
91	0xbe0840d0	-0.13305974
92	0x3e449a9c	0.19199604
93	0xbe82c7c8	-0.25543046
94	0xbdeca681	-0.115551956
95	0xbd2c7bc1	-0.04211021
96	0xbe07c616	-0.13259158
97	0x3e339cc4	0.1754027
98	0xbe562315	-0.2091182
99	0x3d2197f1	0.039451543
100	0xbe13a1f9	-0.14417256
101	0xbdd0e014	-0.101989895
102	0x3d5ff28a	0.054674663
103	0xbdeb5c1e	-0.11492179
104	0x3e734fc5	0.23760898
105	0x3e23c522	0.15993169
106	0xbc465c5a	-0.012106979
107	0xbd8fb2ca	-0.07016523
108	0xbe569c65	-0.20958097
109	0xbe66320d	-0.2248003
110	0x3e80cabf	0.25154683
111	0x3e166064	0.14685208
112	0x3d81eb00	0.06343651
113	0x3e775ac7	0.24155723
114	0xbe51d9ed	-0.20493288
115	0x3e6b9c54	0.23008853
116	0xbe09cd5b	-0.13457243
117	0x3e4bbce8	0.19896281
118	0x3d4c1d9a	0.049832918
119	0x3e534cd0	0.2063477
120	0x3e4621c5	0.1934882
121	0x3db191ea	0.08670409
122	0x3d1de027	0.038543846
123	0x3bc5adc1	0.006032676
124	0xbd24abc2	-0.040202864
125	0x3dc63e9a	0.09679909
126	0x3e490334	0.19630128
127	0xbbdd1466	-0.0067468164
128	0xbd4818d2	-0.048851795
129	0xbe6c14b9	-0.2305478
130	0x3e60a46f	0.21937726
131	0xbe2ee98d	-0.1708128
132	0x3e6b707d	0.2299213
133	0x3e3190c5	0.17340381
134	0x3de422e0	0.111394644
135	0xbd271218	-0.04078874
136	0xbe3ef18e	-0.18646833
137	0x3d492f92	0.049117632
138	0x3cb33d01	0.021879675
139	0x3e94b087	0.2904093
140	0x3e2df1ee	0.1698682
141	0x3db0371d	0.08604262
142	0x3e535447	0.20637618
143	0x3dab80b4	0.083741575
144	0x3dc8bd10	0.09801686
145	0x3e5aaf9e	0.21356055
146	0x3e89e76c	0.26934373
147	0x3d9054ca	0.07047422
148	0xbd3b7e66	-0.04577484
149	0xbdd51faf	-0.10406434
150	0x3dbfb781	0.093611725
151	0xbe51fb39	-0.2050599
152	0x3e5dac82	0.21647838
153	0xbe242cca	-0.1603271
154	0x3e792378	0.24329937
155	0xbe28e334	-0.16492921
156	0xbb81f9e2	-0.003966556
157	0xbdde8b57	-0.10866421
158	0x3de6400d	0.112426855
159	0x3e376349	0.17908968
160	0x3d346697	0.04404315
161	0xbe16046a	-0.14650121
162	0xbb8b6885	-0.004254403
163	0x3da41253	0.080113076
164	0x3e74897b	0.2388057
165	0xbdf96f58	-0.1217944
166	0x3d8b1fe1	0.0679319
167	0x3de8e687	0.113720946
168	0xbe1a5157	-0.15070091
169	0xbe7ae217	-0.24500309
170	0xbd913287	-0.070897155
171	0xbdb45cc5	-0.08806757
172	0x3d1ed007	0.03877261
173	0x3e6b7fcb	0.22997968
174	0x3df95a27	0.12175398
175	0x3d8be187	0.06830125
176	0xbe0f79cf	-0.1401131
177	0xbe1d93b4	-0.15388376
178	0x3c827cb4	0.015928604
179	0xbd47e62b	-0.04880349
180	0xbe88f685	-0.2675058
181	0xbb9cbbf0	-0.004783146
182	0xbe42b64c	-0.19014853
183	0x3e1413d9	0.14460696
184	0xbacd9659	-0.0015685066
185	0xbd550287	-0.052004363
186	0xbd26d800	-0.040733337
187	0x3e3430d1	0.17596747
188	0xbe496343	-0.19666772
189	0x3dccb291	0.09994996
190	0xbe1131e8	-0.14179194
191	0xbe38e411	-0.1805575
192	0x3e411901	0.18857194
193	0x3e6e74f6	0.23286805
194	0xbe3167ab	-0.17324702
195	0x3e1460b8	0.1449002
196	0x3d589848	0.0528796
197	0x3e39f0f1	0.18158318
198	0xbe40896a	-0.1880242
199	0x3e8b3d90	0.27195406
200	0x3dba5236	0.09097712
201	0xbd14af83	-0.036300194
202	0x3df2aa1a	0.118488505
203	0xbdeb69a6	-0.1149476
204	0x3e1a35d0	0.1505959
205	0xbe53fe67	-0.20702516
206	0x3db8f900	0.09031868
207	0x3e5edd9d	0.21764226
208	0x3c8bd136	0.017067533
209	0x3de1139d	0.10990069
210	0xbe32e2bc	-0.17469305
211	0x3c358ed6	0.011081418
212	0x3e0179e1	0.1264415
213	0x3e6e7fd4	0.2329095
214	0xbe20a7a1	-0.15688945
215	0x3e5a54c2	0.21321395
216	0xbdd12a2f	-0.10213124
217	0x3e08258e	0.13295576
218	0x3e08906e	0.13336346
219	0x3d653c40	0.055965662
220	0x3d815c92	0.063164845
221	0xbd501303	-0.05079938
222	0x3e8c83f0	0.2744441
223	0xbe92b2df	-0.28652093
224	0x3e844b11	0.2583852
225	0x3e4f1bc2	0.20225433
226	0xbe80410f	-0.25049636
227	0xbd67d85e	-0.05660283
228	0xbe0ce1e0	-0.1375804
229	0x3e1bf02a	0.15228334
230	0x3ddbd2c3	0.10733559
231	0x3e044f62	0.12920907
232	0x3e8e83e2	0.27834994
233	0x3c01b08f	0.00791563
234	0x3e041eb6	0.1290234
235	0x3e7e4eb4	0.2483471
236	0xbb99bde5	-0.0046918266
237	0x3d92d073	0.07168665
238	0x3e933a8e	0.2875561
239	0xbd87dc00	-0.066337585
240	0x3d95f488	0.07322031
241	0xbe2c00ef	-0.16797231
242	0x3e36d7b6	0.17855725
243	0xbe456a9e	-0.19278952
244	0x3e20d0b2	0.15704611
245	0xbdf84a5b	-0.12123557
246	0xbdc3d6e4	-0.095624715
247	0x3d530f37	0.051528182
248	0x3e181093	0.14850073
249	0x3ddd9894	0.108201176
250	0x3c01c75c	0.007921066
251	0x3e7e69a8	0.24844992
252	0x3dfb2aee	0.122640476
253	0x3d4d449e	0.050114267
254	0xbe10b09a	-0.14129868
255	0xbd915ad7	-0.070974045

bn2.module.weight f4 [64]
0	0x3f74f4dc	0.95686126
1	0x3f7d56df	0.9896068
2	0x3f828083	1.0195469
3	0x3f8205d7	1.0158032
4	0x3f80377e	1.0016935
5	0x3f8763a2	1.057728
6	0x3f7fce37	0.99924034
7	0x3f835395	1.0259882
8	0x3f823fb3	1.017569
9	0x3f809baa	1.0047505
10	0x3f75749e	0.9588107
11	0x3f821444	1.0162435
12	0x3f7bcf23	0.9836294
13	0x3f81addd	1.0131184
14	0x3f7fa2b6	0.9985765
15	0x3f85f05a	1.0463974
16	0x3f82e9ad	1.0227562
17	0x3f833bfe	1.0252683
18	0x3f799ec9	0.9750791
19	0x3f822452	1.0167334
20	0x3f84fdcc	1.0389953
21	0x3f82f606	1.023133
22	0x3f7dced7	0.9914374
23	0x3f85af04	1.0444036
24	0x3f8296a1	1.0202218
25	0x3f843e34	1.0331483
26	0x3f81fb01	1.0154725
27	0x3f7c0211	0.98440653
28	0x3f88b63c	1.0680614
29	0x3f818087	1.0117348
30	0x3f7ae86d	0.98010904
31	0x3f75b804	0.9598391
32	0x3f8114d0	1.0084476
33	0x3f81e8df	1.0149192
34	0x3f867bb2	1.0506499
35	0x3f7ccf88	0.9875417
36	0x3f7c6ec1	0.986065
37	0x3f818256	1.01179
38	0x3f7fa699	0.9986358
39	0x3f822318	1.016696
40	0x3f7cc78b	0.9874198
41	0x3f77feb8	0.96873045
42	0x3f8102c7	1.0078973
43	0x3f80c209	1.0059215
44	0x3f7f4b7a	0.99724543
45	0x3f774864	0.96594834
46	0x3f811452	1.0084326
47	0x3f815526	1.010411
48	0x3f7deec1	0.99192435
49	0x3f7f1f85	0.9965747
50	0x3f81260c	1.0089736
51	0x3f89156f	1.0709666
52	0x3f849de8	1.0360689
53	0x3f80382f	1.0017146
54	0x3f812a47	1.0091027
55	0x3f7c6f8a	0.98607695
56	0x3f843e1a	1.0331452
57	0x3f7e1779	0.99254566
58	0x3f7886bd	0.97080594
59	0x3f7d78ae	0.9901227
60	0x3f763245	0.96170455
61	0x3f804f4a	1.0024197
62	0x3f7cd83f	0.98767465
63	0x3f80809f	1.0039252

bn2.module.bias f4 [64]
0	0xbc3bcea7	-0.011462844
1	0xbc4d4247	-0.012528009
2	0x3d889ca9	0.066705056
3	0xbc079085	-0.008274202
4	0xbc4643ea	-0.012101153
5	0x3c8ed34c	0.017434739
6	0x3d38357a	0.044972874
7	0x3c625e77	0.0138164675
8	0xbc8ed456	-0.017435234
9	0xbd1b8d94	-0.037976816
10	0x3d6582f3	0.056033086
11	0xbbb7cd99	-0.005609226
12	0xbd4dc2c9	-0.05023459
13	0xbbe839dd	-0.007086976
14	0x3d5078b2	0.050896354
15	0x3d3ed6aa	0.04659144
16	0x3d17747c	0.036976323
17	0x3c0acc59	0.008471572
18	0xbcfac085	-0.030609379
19	0xbc3d0a6a	-0.011538127
20	0xbcc32160	-0.023819625
21	0xbc59adc0	-0.013286054
22	0x3c596ff9	0.013271325
23	0x3c3a14d4	0.011357505
24	0x3d3d43f8	0.0462074
25	0x3c93015b	0.017944982
26	0xbd37b9b7	-0.044854846
27	0xbd647048	-0.055771142
28	0x3d113ee6	0.035460375
29	0xba4f4eb8	-0.00079081533
30	0xbc2f786a	-0.010709861
31	0xbded5948	-0.11589295
32	0xbd390f41	-0.045180563
33	0xbd2dac12	-0.042400427
34	0x3dd2d20a	0.10293968
35	0x3c0cfd98	0.008605383
36	0xbd3e5310	-0.046465933
37	0x3d6df027	0.058090355
38	0xbb8d93da	-0.004320604
39	0x3cc1d13b	0.02365934
40	0xbd6b0632	-0.057378955
41	0x3d104881	0.035225395
42	0x3d21d6d2	0.03951151
43	0x3d3dc026	0.046325825
44	0xbdb35f1a	-0.087583736
45	0x3d10e7fb	0.035377484
46	0x3d59d46b	0.053181093
47	0x3c7fc18f	0.015610113
48	0xbd016e95	-0.0315996
49	0x3c5171e8	0.012783505
50	0x3cf5fb3b	0.030027023
51	0x3d4f1914	0.050561026
52	0x3c1b2b0a	0.0094707105
53	0xbb8d2003	-0.0043067946
54	0x3d0fc419	0.035099123
55	0xbba15b7c	-0.004924236
56	0x3d22e1c0	0.039766073
57	0x3dbc3826	0.09190397
58	0xbca93d23	-0.020659035
59	0xbc23e721	-0.010003836
60	0xbd80666b	-0.06269535
61	0xbcdfb20c	-0.027306579
62	0x3d39ddd5	0.04537757
63	0x3ca875b1	0.020563932

bn2.module.running_mean f4 [64]
0	0xbd8c636b	-0.068549
1	0xbf04a697	-0.51816696
2	0xbeda72b4	-0.42665637
3	0x3eb1dd05	0.34738937
4	0x3f1cd0dc	0.61256194
5	0xbe59cad5	-0.2126878
6	0x3f06461d	0.52450734
7	0x3f239c3c	0.6391027
8	0xbd850cb4	-0.064965636
9	0x3ee85753	0.45379123
10	0x3dd0f1ef	0.10202395
11	0x3bc7f378	0.006102022
12	0x3ef133dd	0.4710988
13	0xbe51d2c7	-0.20490561
14	0x3e546c27	0.20744382
15	0xbf0a7400	-0.5408325
16	0x3cf977c4	0.030452617
17	0xbf1eca7b	-0.6202771
18	0x3e84c6de	0.25932974
19	0xbe547884	-0.20749098
20	0xbe13d0c7	-0.14435111
21	0xbf211584	-0.62923455
22	0x3e8681f2	0.26271015
23	0xbc95e480	-0.018297434
24	0x3e4a5bc1	0.19761564
25	0x3d9538a5	0.07286195
26	0xbe842be3	-0.25814733
27	0xbdc708ef	-0.09718501
28	0xbe8102b3	-0.25197372
29	0xbf2b0b8f	-0.6681451
30	0xbe8a9147	-0.27063963
31	0xbe13ab2f	-0.1442077
32	0x3efd6636	0.49492043
33	0xbe3284a0	-0.17433405
34	0xbeddbaad	-0.43306485
35	0x3e517c16	0.20457491
36	0x3ebe9524	0.3722316
37	0x3ee05925	0.43818012
38	0x3ed60ceb	0.4180673
39	0xbe5c3e58	-0.21508157
40	0x3db0c4b1	0.08631266
41	0x3eabf758	0.33587146
42	0x3eb59897	0.3546798
43	0xbd83aa8e	-0.06429015
44	0xbea7cdc7	-0.32774183
45	0x3ec4f2f7	0.38466617
46	0x3e5ace01	0.21367647
47	0xbede833f	-0.43459508
48	0xbd4f088b	-0.050545257
49	0x3e9c0960	0.30475903
50	0xbd541d86	-0.05178597
51	0x3d5e3d93	0.05425794
52	0xbf3a7e77	-0.7284922
53	0x3e889982	0.26679617
54	0xbddbf237	-0.10739558
55	0x3e7be525	0.2459913
56	0x3ca0ee05	0.019644747
57	0xbf1b04a1	-0.6055394
58	0x3e9600e4	0.29297554
59	0x3d8f7f19	0.07006664
60	0x3d5bf5ff	0.053701397
61	0x3f0160ed	0.5053852
62	0x3ebacc37	0.3648393
63	0x3e4814c3	0.1953917

bn2.module.running_var f4 [64]
0	0x3dc4287d	0.09578035
1	0x3d680324	0.05664362
2	0x3e2a842b	0.1665198
3	0x3f061c64	0.5238707
4	0x3e070f78	0.13189495
5	0x3d21b446	0.039478563
6	0x3f758ad8	0.95914984
7	0x3eddfbf3	0.43356284
8	0x3cbb7a34	0.02288542
9	0x3e8dd730	0.27703238
10	0x3f818c24	1.0120893
11	0x3c62c0d3	0.013839918
12	0x3e871e51	0.26390317
13	0x3d171db0	0.036893547
14	0x3d055230	0.032549083
15	0x3de5a120	0.11212373
16	0x3e89bf27	0.2690365
17	0x3ef05761	0.46941665
18	0x3dc456fb	0.09586903
19	0x3e2414da	0.16023579
20	0x3d2ea945	0.042641897
21	0x3ea55de4	0.32298195
22	0x3e36f01e	0.17865035
23	0x3c44d1d9	0.012012922
24	0x3e2dd8ca	0.1697723
25	0x3c4f71ef	0.012661441
26	0x3d0b66ae	0.03403347
27	0x3e583d0f	0.21117042
28	0x3d93474c	0.07191333
29	0x3f132509	0.57478386
30	0x3e555359	0.20832576
31	0x3e00a676	0.125635
32	0x3f32fd4b	0.69917744
33	0x3e264414	0.16236907
34	0x3eda3cbf	0.4262447
35	0x3e04de10	0.12975335
36	0x3d2e87e1	0.042610053
37	0x3dbf35db	0.09336444
38	0x3e0e9545	0.1392413
39	0x3e4f3add	0.20237298
40	0x3d21aef0	0.039473474
41	0x3ec72631	0.38896325
42	0x3ed0263c	0.4065417
43	0x3de56af7	0.112020425
44	0x3d9e0da0	0.077174425
45	0x3ebb3584	0.36564267
46	0x3e0654ab	0.13118236
47	0x3d52133f	0.051287886
48	0x3c68ce13	0.014209288
49	0x3ed7c161	0.42139724
50	0x3e52b749	0.2057773
51	0x3d59759c	0.053090677
52	0x3f93b6b6	1.1540134
53	0x3ca2db37	0.01987992
54	0x3ce7eef5	0.028312186
55	0x3cbc328c	0.022973321
56	0x3d98be7c	0.07458207
57	0x3f84a4fe	1.0362852
58	0x3f112f09	0.56712395
59	0x3ceab233	0.028649425
60	0x3e0f2400	0.13978577
61	0x3f0df4dd	0.55451757
62	0x3ea59670	0.32341337
63	0x3e412276	0.18860802

conv3.bias f4 [128]
0	0x388b651b	6.646869e-05
1	0x38ff034d	0.00012159962
2	0xbaa7a927	-0.00127915
3	0xb7d1c9ee	-2.5008772e-05
4	0x3afa36ff	0.0019089876
5	0x392e52b7	0.00016624747
6	0x3839df0b	4.4315162e-05
7	0x374e903c	1.2312139e-05
8	0x37e327fc	2.7079128e-05
9	0xb8b86c64	-8.793993e-05
10	0x386f8b6a	5.711188e-05
11	0xb999a897	-0.00029308043
12	0xb84726ac	-4.7481313e-05
13	0x383b0617	4.4589946e-05
14	0xb66217d8	-3.3690503e-06
15	0x37dbaa90	2.6186259e-05
16	0xb88e221c	-6.777441e-05
17	0x386c5ce9	5.6353314e-05
18	0x3a19668c	0.00058517675
19	0x39052655	0.00012698148
20	0x36cffc30	6.198439e-06
21	0xb98fc62b	-0.00027422732
22	0x38858803	6.367268e-05
23	0xba23eeb7	-0.0006253528
24	0x394831bd	0.00019092015
25	0x3963c378	0.00021721225
26	0xb77eb5b4	-1.5181886e-05
27	0x36d6e78d	6.404653e-06
28	0x388359cf	6.263295e-05
29	0xb9fba21a	-0.00047995226
30	0xbac8b759	-0.0015313431
31	0x39477187	0.00019020411
32	0xb9201bea	-0.00015269188
33	0xb917167d	-0.0001440886
34	0x39505f3e	0.00019871906
35	0x36927564	4.364805e-06
36	0xba28688d	-0.00064242707
37	0xb8d1efb0	-0.00010010542
38	0xb8d83609	-0.000103097474
39	0xb6d6f1ad	-6.4058318e-06
40	0xb98c41b9	-0.00026751848
41	0xb7a7f565	-2.0022222e-05
42	0xb8290e95	-4.030632e-05
43	0x3751c415	1.2503025e-05
44	0x38d0034e	9.9188284e-05
45	0x3b04f172	0.0020285514
46	0x3abf6b89	0.0014604192
47	0x3924fc37	0.00015734216
48	0xb9b9f4c4	-0.00035468314
49	0xb874e4d1	-5.8387235e-05
50	0x3a890925	0.0010454996
51	0xb8f29f09	-0.00011569082
52	0x389ba734	7.42212e-05
53	0xb926ec88	-0.00015919108
54	0x390f7092	0.00013679478
55	0xb9954294	-0.000284691
56	0xb830026d	-4.196393e-05
57	0x381a3f45	3.6775386e-05
58	0xb9b29490	-0.00034061493
59	0x39ae5b3d	0.00033255844
60	0x38977700	7.2224066e-05
61	0xba14e5f8	-0.000568002
62	0x3a5c1eb7	0.0008396911
63	0xb92edea8	-0.00016676879
64	0xb8a8e639	-8.0537466e-05
65	0xb905519b	-0.00012714269
66	0x3952a652	0.0002008912
67	0xb805debf	-3.191712e-05
68	0xb8c2729a	-9.271987e-05
69	0xb7cf57ea	-2.4717261e-05
70	0xba0bdb04	-0.0005335065
71	0xb895cacf	-7.14265e-05
72	0x3923a488	0.00015606184
73	0xb9744924	-0.000232969
74	0xb856a02c	-5.1170748e-05
75	0xb72d360f	-1.032419e-05
76	0x3a1ffa3a	0.00061026553
77	0x3892e2cc	7.004067e-05
78	0x37217097	9.622562e-06
79	0xb825c75b	-3.952473e-05
80	0x38f809e3	0.00011827403
81	0xb923d29c	-0.0001562335
82	0x3810c7ba	3.4518285e-05
83	0x378eb778	1.7013153e-05
84	0x37bcfd6c	2.2529355e-05
85	0xb863b7a2	-5.429204e-05
86	0x38a0a16a	7.65946e-05
87	0x3a157f2b	0.00057028484
88	0x3a0d0c6f	0.0005380576
89	0x38eb5100	0.00011220761
90	0x34056994	1.2425e-07
91	0xb94745b1	-0.00019004081
92	0x37cdd1be	2.4535573e-05
93	0x39e5b6cf	0.00043814487
94	0xb83b6bac	-4.468455e-05
95	0x3a277d26	0.0006389193
96	0xb9415f2b	-0.00018441367
97	0x39150be8	0.00014214183
98	0xb972bafb	-0.00023148574
99	0xb901cfcd	-0.0001237981
100	0xb9294efb	-0.00016146518
101	0xba02c7d0	-0.0004988881
102	0xb91d8753	-0.00015023099
103	0xb71048c0	-8.600007e-06
104	0xb7914b68	-1.732046e-05
105	0x37fa2289	2.9818404e-05
106	0xb89de072	-7.5281496e-05
107	0x39a22401	0.00030925873
108	0xb7ba2df8	-2.2194334e-05
109	0xb5c5180c	-1.4684642e-06
110	0xb927f08a	-0.00016015969
111	0xb7bb93f3	-2.2361031e-05
112	0x3845b93c	4.7140973e-05
113	0xb9ca65b1	-0.00038604208
114	0xb8ade5d8	-8.2920946e-05
115	0x35addfb8	1.2954615e-06
116	0x387fe56a	6.1010396e-05
117	0x380ae53a	3.3115248e-05
118	0xb6c255e0	-5.7916477e-06
119	0xb7434b66	-1.1640461e-05
120	0x389b6063	7.4089294e-05
121	0xb7cd98aa	-2.4508994e-05
122	0xb8f1d072	-0.000115306015
123	0x37a4a1fd	1.9625755e-05
124	0xbb0e6314	-0.0021726536
125	0xb8ec5c4f	-0.00011270551
126	0xb8d3d0c8	-0.000101001526
127	0xb99b6a56	-0.0002964313

conv3.lin.weight f4 [128, 64]
0	0x3e406ce3	0.18791537
1	0xbd361607	-0.0444546
2	0x3baeb9a4	0.0053321887
3	0x3ce9b4c4	0.028528579
4	0x3d322a36	0.043497287
5	0xbdd84623	-0.105602525
6	0xbd909d2a	-0.07061227
7	0xbc2190c5	-0.009861176
8	0x3e7475b8	0.23873031
9	0x3e6ff8fb	0.23434822
10	0x3ccedac5	0.025250802
11	0xbd9ba281	-0.075993545
12	0x3df95c94	0.12175861
13	0xbe1f9857	-0.15585457
14	0xbdf3cd47	-0.11904388
15	0xbda9acd4	-0.082849175
16	0x3e17dd9c	0.14830631
17	0x3d1e9d3d	0.038724173
18	0x3d6e92ee	0.05824559
19	0x3e819136	0.253061
20	0xbe0f02a8	-0.13965857
21	0x3df1c186	0.1180449
22	0xbd21bd25	-0.039487023
23	0x3d2dbe0d	0.042417575
24	0x3d654a69	0.055979166
25	0x3daf1947	0.08549743
26	0xbe01f963	-0.1269279
27	0x3df10f35	0.11770479
28	0xbe131023	-0.14361624
29	0x3e487d5a	0.19579068
30	0x3c200f51	0.009769277
31	0x3dd92600	0.10602951
32	0xbc345d81	-0.011008621
33	0xbd4791f9	-0.048723195
34	0xbdcdff9f	-0.100585215
35	0x3de8e889	0.113724776
36	0xbe106f4e	-0.1410496
37	0xbdf3c081	-0.119019516
38	0x3b60c9c6	0.0034299954
39	0xbbc798b4	-0.0060912017
40	0xbd91044d	-0.070808984
41	0xbe15467a	-0.14577666
42	0x3e2e70b6	0.17035183
43	0xbd8fc927	-0.07020789
44	0x3e012aad	0.12613936
45	0xbd937842	-0.07200672
46	0x3bb80c1c	0.005616678
47	0xbba13af1	-0.0049203564
48	0xbd55ca4e	-0.052194886
49	0xbdc55a7b	-0.096363984
50	0x3c4b2db0	0.0124010295
51	0x3df48dec	0.11941132
52	0x3c90b907	0.017666353
53	0xbab6a34a	-0.0013934162
54	0xbd07d482	-0.033161648
55	0x3d5b1b4b	0.053492825
56	0xbda30616	-0.07960145
57	0x3d55c1df	0.052186843
58	0x3ce40d98	0.027838513
59	0x3ce7d0f8	0.028297886
60	0x3c8d058c	0.017214559
61	0x3e12cf28	0.14336836
62	0xbd2ead7b	-0.042645913
63	0x3daf3336	0.085546896
64	0x3e045cf8	0.1292609
65	0xbd60eaa8	-0.054911286
66	0x3d3995d2	0.045308895
67	0x3d2d1b9b	0.042262655
68	0xbe3ccbe8	-0.18437159
69	0xbb625734	-0.003453684
70	0xbc51ab50	-0.012797192
71	0x3dc937fa	0.0982513
72	0x3d59fb29	0.05321804
73	0x3d81d651	0.06339706
74	0x3dc4a200	0.096012115
75	0xbd9fd047	-0.078033976
76	0xbe1f62ba	-0.15565005
77	0xbd064a4f	-0.03278571
78	0xbd29465c	-0.041326866
79	0xbd4a432c	-0.049380466
80	0xbd56b6c0	-0.052420378
81	0x3e0a8fbd	0.13531394
82	0x3ca17a25	0.019711563
83	0xbe53d380	-0.2068615
84	0xbd77465b	-0.06036983
85	0xbd9edc25	-0.07756833
86	0x3d2f0965	0.04273357
87	0xbdd25f51	-0.102720864
88	0xbe043f27	-0.12914716
89	0xbe15a12d	-0.14612265
90	0x3db87804	0.09007266
91	0x3c1449c1	0.009050787
92	0xbbe50ad4	-0.006989816
93	0xbdc7ae4f	-0.097500436
94	0x3e1b7af7	0.15183626
95	0x3daeca29	0.08534653
96	0xbdcd86ac	-0.10035452
97	0x3dabe357	0.08392971
98	0x3d9254ec	0.07145104
99	0x3d873e70	0.06603706
100	0xbda7a8a1	-0.0818646
101	0x3d0121ec	0.03152649
102	0x3e07e948	0.13272583
103	0x3d5f01d7	0.054445114
104	0xbd508d7c	-0.05091618
105	0x3c22d98c	0.0099395625
106	0x3e3886fa	0.1802024
107	0x3cf1488b	0.029453536
108	0xbd92401c	-0.07141134
109	0x3d5ea3f7	0.054355588
110	0xba0f9dc8	-0.00054785283
111	0x3e3a51e9	0.18195309
112	0xbd7726e7	-0.060339835
113	0x3db27c0c	0.08715066
114	0x3ddca2f2	0.10773267
115	0xbdefb153	-0.11703744
116	0x3d0846b9	0.03327057
117	0x3d0bf31c	0.034167394
118	0x3df1d173	0.118075274
119	0x3c4ca3f2	0.0124902595
120	0x3dc58032	0.09643592
121	0xbe2636e3	-0.16231875
122	0xbe1c7804	-0.15280157
123	0x3e14219a	0.14465943
124	0x3e234e24	0.15947777
125	0x3bee0208	0.0072634257
126	0xbdb96265	-0.090519704
127	0xbd347be2	-0.044063456
128	0x3db9c4d6	0.090707466
129	0x3d79a473	0.060947847
130	0x3e25d87a	0.1619586
131	0xbdfc1fe7	-0.123107724
132	0x3e163e00	0.14672089
133	0xbd8ea020	-0.06964135
134	0xbd9598ca	-0.07304533
135	0xbd2e8895	-0.042610724
136	0xbe1397df	-0.14413403
137	0xbdad746e	-0.08469473
138	0x3e16574b	0.14681737
139	0x3e36c57c	0.17848772
140	0xbd9835a1	-0.07432104
141	0xbe1fd71e	-0.15609404
142	0x3e10a7f3	0.14126568
143	0xbd0a0122	-0.033692487
144	0xbdb6122c	-0.08890185
145	0xbe177ce9	-0.14793743
146	0x3d376280	0.04477167
147	0xbc9c273e	-0.01906168
148	0xbcde9f10	-0.027175456
149	0x3dca4c94	0.09877887
150	0x3e1a946a	0.15095678
151	0xbded7faa	-0.115966156
152	0xbdd4dbad	-0.10393462
153	0x3d55b9bd	0.052179087
154	0xbcef12e9	-0.029183822
155	0x3d4f7da1	0.05065692
156	0x3e03e5e5	0.12880667
157	0x3dd17504	0.10227397
158	0xbdcce790	-0.100051045
159	0x3d8ef2ab	0.06979879
160	0xbdbafac9	-0.09129865
161	0xbd9a5fbf	-0.07537793
162	0xbe130fff	-0.14361571
163	0xbdf037ce	-0.11729394
164	0x3db6f357	0.08933132
165	0xbd0f6f32	-0.035018153
166	0x3af0ed85	0.0018381333
167	0x3e2176e1	0.15768005
168	0x3e0538dd	0.13009973
169	0x3e2639bb	0.1623296
170	0xbd9cda37	-0.07658809
171	0x3e3bc74c	0.18337744
172	0x3ba8ce35	0.005151535
173	0x3d7e6524	0.062108174
174	0x3e0da585	0.13832672
175	0x3d15f0cb	0.03660659
176	0xbe1230da	-0.14276448
177	0xbd713191	-0.05888516
178	0xbdaebb58	-0.08531827
179	0xbda615bb	-0.081096135
180	0x3c231356	0.0099533405
181	0x3d8cda08	0.06877524
182	0x3d689eb9	0.056791995
183	0x3dd5e907	0.10444837
184	0x3dd8f359	0.1059329
185	0xbd5c41ca	-0.05377368
186	0xbe0c5c27	-0.13707028
187	0x3dcd8053	0.100342415
188	0xbe1b2860	-0.1515212
189	0x3dcbb114	0.09945884
190	0xbe39ad7a	-0.18132582
191	0xbe256c7b	-0.16154663
192	0xbb92b0a0	-0.0044766217
193	0xbe017302	-0.12641528
194	0xbdace9d6	-0.08443038
195	0xbd5ff1fc	-0.054674134
196	0xbd1a7f05	-0.03771879
197	0x3dfc08b8	0.123063505
198	0x3dd724bd	0.10505054
199	0x3e51491d	0.20438047
200	0x3dd2e9e9	0.10298521
201	0x3dfabb80	0.12242794
202	0x3db2d8b7	0.08732741
203	0x3d1cc5e0	0.038274646
204	0xbc838305	-0.016053686
205	0xbdeee6d2	-0.11665119
206	0x3d6b4d44	0.057446733
207	0x3da776ad	0.081769325
208	0xbe073f93	-0.13207845
209	0xbd68cdf3	-0.056837033
210	0xbd3553ad	-0.044269253
211	0xbd800409	-0.0625077
212	0x3cb5b904	0.022182949
213	0xbd9b78ea	-0.07591422
214	0xbe07a229	-0.13245453
215	0xbdd9ed89	-0.10641009
216	0x3e0f6acb	0.14005582
217	0x3dba4cd5	0.09096686
218	0x3bdab2fe	0.0066741696
219	0x3e03bebe	0.12865731
220	0x3e43fb69	0.19138874
221	0x3d5e642c	0.05429475
222	0xbc6d0951	-0.014467553
223	0x3d0d9503	0.034565937
224	0x3ded17b0	0.11576784
225	0xbc653057	-0.013988576
226	0x3e4ab645	0.19796093
227	0xbd22052f	-0.039555725
228	0xbc85c19d	-0.016327674
229	0xbc567da0	-0.013091475
230	0xbe0cce69	-0.13750614
231	0x3c9b7677	0.018977387
232	0x3dba8139	0.091066785
233	0x3e1e7b89	0.15476812
234	0xbdeb5e4e	-0.114925966
235	0x3e2efd50	0.17088819
236	0x3cbed4b2	0.02329478
237	0xbdd0483a	-0.10170026
238	0x3dbcc346	0.09216933
239	0xbdbd1f08	-0.09234434
240	0x3e0e56eb	0.13900344
241	0x3de7e5a9	0.11323101
242	0xbe239d67	-0.15978013
243	0xbd7f2494	-0.062290743
244	0xbd527022	-0.05137647
245	0x3e08a6e1	0.13344909
246	0xbd15f2e6	-0.0366086
247	0x3daed7ff	0.08537292
248	0x3ddbcf56	0.107329056
249	0xbe10f9c6	-0.14157781
250	0x3d276f91	0.040877882
251	0x3d18dc6a	0.03731958
252	0x3e0ccf5c	0.13750976
253	0xbdcd53e3	-0.10025766
254	0x3e03e911	0.12881877
255	0x3ca111dc	0.019661836

bn3.module.weight f4 [128]
0	0x3f7673b1	0.9627028
1	0x3f73f17b	0.95290345
2	0x3f864a82	1.0491488
3	0x3f6961e8	0.9116502
4	0x3f8ce277	1.1006612
5	0x3f721d07	0.9457554
6	0x3f83853a	1.0275033
7	0x3f72178c	0.9456718
8	0x3f8138f1	1.0095502
9	0x3f741660	0.9534664
10	0x3f70b016	0.94018686
11	0x3f741130	0.95338726
12	0x3f6ff39b	0.9373109
13	0x3f7d31e8	0.98904276
14	0x3f7a5613	0.9778759
15	0x3f7db344	0.9910166
16	0x3f7110c3	0.941662
17	0x3f78fbd8	0.97259283
18	0x3f7889d9	0.9708534
19	0x3f864315	1.0489222
20	0x3f72ee12	0.94894516
21	0x3f7c9f4c	0.9868057
22	0x3f7a6bb9	0.9782062
23	0x3f8d89cc	1.1057677
24	0x3f7ef2f1	0.9958945
25	0x3f8e358a	1.1110089
26	0x3f82594a	1.0183499
27	0x3f796520	0.9741993
28	0x3f8262f7	1.0186452
29	0x3f897163	1.0737728
30	0x3f8d9423	1.1060833
31	0x3f7a8602	0.9786073
32	0x3f7c43f0	0.98541164
33	0x3f851876	1.039809
34	0x3f815d52	1.0106604
35	0x3f7ed503	0.9954378
36	0x3f888a3b	1.0667185
37	0x3f718553	0.9434406
38	0x3f754b93	0.9581844
39	0x3f78383c	0.96960807
40	0x3f85d4db	1.0455583
41	0x3f7cd7b1	0.9876662
42	0x3f7d19cb	0.9886748
43	0x3f8170f6	1.0112598
44	0x3f781d2d	0.9691952
45	0x3f855187	1.0415505
46	0x3f8d2e9d	1.102985
47	0x3f87f5ad	1.0621849
48	0x3f81f719	1.0153533
49	0x3f69c94d	0.91322786
50	0x3f854aab	1.0413412
51	0x3f7f8afc	0.9982145
52	0x3f7b699f	0.9820804
53	0x3f8174ce	1.0113771
54	0x3f78bfaf	0.97167486
55	0x3f88a22d	1.0674492
56	0x3f802997	1.0012692
57	0x3f71549c	0.9426973
58	0x3f74740c	0.95489573
59	0x3f80a4cf	1.0050296
60	0x3f7768e7	0.96644443
61	0x3f89a599	1.0753661
62	0x3f8a2a29	1.0794116
63	0x3f8bd96e	1.0925729
64	0x3f8903e5	1.0704314
65	0x3f795961	0.97402006
66	0x3f82de34	1.0224061
67	0x3f6c6bd2	0.9235202
68	0x3f6c6296	0.9233793
69	0x3f766df6	0.9626154
70	0x3f84dc0e	1.0379655
71	0x3f6d7392	0.9275447
72	0x3f7f25a3	0.99666804
73	0x3f766681	0.9625016
74	0x3f7daa56	0.99088037
75	0x3f77dc5a	0.96820605
76	0x3f7fc41a	0.999086
77	0x3f7fa118	0.99855185
78	0x3f700985	0.93764526
79	0x3f71b1cc	0.9441192
80	0x3f6dd535	0.92903453
81	0x3f8297ed	1.0202614
82	0x3f81eef6	1.015105
83	0x3f7eb130	0.99489117
84	0x3f8381ba	1.0273964
85	0x3f7ebbaf	0.9950513
86	0x3f8259d5	1.0183665
87	0x3f8e71a1	1.1128427
88	0x3f8012e4	1.0005765
89	0x3f76000f	0.9609384
90	0x3f8546ea	1.0412266
91	0x3f8026f2	1.0011885
92	0x3f7a6e29	0.9782434
93	0x3f857fe9	1.042966
94	0x3f7a6cda	0.97822344
95	0x3f8516bd	1.0397564
96	0x3f8146a8	1.0099688
97	0x3f886299	1.065509
98	0x3f82c6d7	1.0216931
99	0x3f8c9489	1.0982829
100	0x3f7f8c0c	0.9982307
101	0x3f88534e	1.0650423
102	0x3f77b0dd	0.96754247
103	0x3f724e99	0.9465118
104	0x3f7403f5	0.9531854
105	0x3f7315ca	0.9495512
106	0x3f7495e3	0.9554121
107	0x3f831486	1.0240638
108	0x3f849ee0	1.0360985
109	0x3f72dab2	0.9486495
110	0x3f84950e	1.0357988
111	0x3f793174	0.97341084
112	0x3f6b352f	0.91878027
113	0x3f8a853c	1.082191
114	0x3f80021d	1.0000645
115	0x3f7ff048	0.99976015
116	0x3f78d1df	0.9719524
117	0x3f7e3e66	0.9931396
118	0x3f6fad74	0.93624043
119	0x3f72c33a	0.9482914
120	0x3f791335	0.9729493
121	0x3f864e84	1.0492711
122	0x3f7c88f1	0.98646456
123	0x3f86bc21	1.0526162
124	0x3f8fdf0c	1.1239944
125	0x3f814050	1.0097752
126	0x3f7075a5	0.9392951
127	0x3f850b5d	1.0394093

bn3.module.bias f4 [128]
0	0xbdc54a31	-0.096332915
1	0xbc23555d	-0.009969083
2	0x3c8b347c	0.0169928
3	0xbd2bf5db	-0.041982513
4	0x3d9ab488	0.07553965
5	0xbd0c770d	-0.034293223
6	0x3d1c3384	0.038135067
7	0xbce530e1	-0.027977409
8	0x3cbb89a3	0.022892779
9	0xbd2d184d	-0.042259503
10	0xbd84425c	-0.064579695
11	0xbba2f9e0	-0.004973635
12	0xbd9f1064	-0.07766798
13	0xbd254e13	-0.04035766
14	0xbc947d44	-0.018126138
15	0xbd945bf8	-0.07244104
16	0xbd41ec6f	-0.04734462
17	0x3cdc680d	0.026905084
18	0xbd20ce3d	-0.039259184
19	0xbc0b5cc3	-0.008506003
20	0x3ba8448d	0.005135125
21	0x3c73335f	0.014843791
22	0x3c0ddc78	0.008658521
23	0xbd03d5e7	-0.032186415
24	0xbdb0e874	-0.08638087
25	0x3c67561e	0.014119653
26	0x3cb8398c	0.022488378
27	0xbd68a378	-0.05679652
28	0xbcfce2a6	-0.030869793
29	0x3d21e010	0.039520323
30	0xbd33fa84	-0.043940082
31	0xbc611319	-0.013737463
32	0x3cde05cb	0.027102372
33	0x3d16c22b	0.036806267
34	0x3d3d6270	0.046236455
35	0x3d201db0	0.039090812
36	0x3d68e50c	0.05685906
37	0xbdaf801a	-0.08569355
38	0xbe12fe55	-0.14354832
39	0x3caffc75	0.021482686
40	0x3d11e4d7	0.03561863
41	0xbd59b6c1	-0.053152803
42	0xbd42e19c	-0.04757844
43	0xbc9a2b51	-0.018819483
44	0xbcd9eaa9	-0.026601152
45	0xbd32f12c	-0.04368703
46	0x3b99eaa0	0.004697159
47	0x3a96048b	0.0011445446
48	0x3cbb0432	0.022829149
49	0xbd8483b5	-0.064704336
50	0xbcaad425	-0.020853112
51	0x3cf16854	0.029468693
52	0xbbf08420	-0.0073399693
53	0x3bfb49ef	0.0076687257
54	0xbda10cfe	-0.07863806
55	0x3daf4b1e	0.08559249
56	0xbcee5b3f	-0.029096244
57	0xbd3747ff	-0.044746395
58	0x3d184e77	0.037184205
59	0xbd218c55	-0.03944047
60	0x3a7654a1	0.0009396766
61	0x3c3e1d2b	0.011603634
62	0xbd174fcb	-0.03694133
63	0x3cfcd340	0.03086245
64	0x3c4d9812	0.012548463
65	0xbd39e6f6	-0.045386277
66	0x3c0067ea	0.007837275
67	0xbbe20c38	-0.0068984292
68	0xbd876d92	-0.06612696
69	0xbd63c270	-0.055605352
70	0x3d17d9fb	0.037073117
71	0xbd0dae46	-0.03459003
72	0xbd9b58d1	-0.075853
73	0xbd429b7a	-0.047511555
74	0xbc845a8b	-0.016156456
75	0x3d1a73cb	0.037708085
76	0x3b821462	0.003969715
77	0x3d417f78	0.047240704
78	0xbd1ba004	-0.0379944
79	0xbab5da61	-0.0013874286
80	0xbc9ccbd9	-0.01914017
81	0x3d2dd97a	0.04244373
82	0xbc372734	-0.01117878
83	0x3d53b808	0.051689178
84	0x3cbeb18d	0.023278022
85	0x3cd3f5ac	0.025873981
86	0xbce199a1	-0.027539076
87	0x3a9cdf41	0.001196839
88	0x3d0a63da	0.033786632
89	0x3c6d4a8e	0.014483107
90	0x3d4f583f	0.050621267
91	0x3c1426ad	0.009042424
92	0x3cae6862	0.021290008
93	0x3aad8221	0.0013237634
94	0x3c1641e8	0.009170987
95	0x3ce7f780	0.02831626
96	0xbd327ecf	-0.043577965
97	0x3c930ce6	0.017950486
98	0x3d5f7f7b	0.054564934
99	0x3cf27748	0.029597893
100	0xbd91cd09	-0.071191855
101	0x3d2f7cc6	0.042843603
102	0xbcee5dbd	-0.029097432
103	0xbd9294d6	-0.071572945
104	0x3c30826e	0.010773284
105	0x3d28f484	0.041248813
106	0xbdcc9ab4	-0.09990445
107	0x3c57fd2c	0.0131829195
108	0x3c0b5adc	0.008505549
109	0x3caba016	0.020950358
110	0xbd029ec0	-0.031889677
111	0xbd6eba8b	-0.05828337
112	0xbcbaf8fa	-0.0228238
113	0x3d23c718	0.039984792
114	0xbbd79223	-0.0065787
115	0xbce6f2ed	-0.028192008
116	0xbbf39f5c	-0.0074347686
117	0xbba16018	-0.0049247853
118	0xbc57623c	-0.0131459795
119	0xbc90577f	-0.017619846
120	0x3ced090c	0.028934978
121	0xbbf7ef41	-0.007566363
122	0xbc71a04e	-0.014747692
123	0x3ceec590	0.02914694
124	0x3d1a4995	0.03766783
125	0x3cb4e8b8	0.022083625
126	0xbdab026c	-0.08350071
127	0x3c8bffc1	0.017089726

bn3.module.running_mean f4 [128]
0	0x3e31698f	0.17325424
1	0x3d3d1887	0.04616597
2	0x3d53f2a2	0.051745065
3	0x3ec58efc	0.3858565
4	0xbd80ce58	-0.06289357
5	0xbe92762a	-0.28605777
6	0xbdf5da2c	-0.120045036
7	0xbe6f974a	-0.23397556
8	0xbe56879a	-0.20950165
9	0x3dc8fad3	0.09813466
10	0xbdd2ce60	-0.10293269
11	0x3e8c3b83	0.27389154
12	0xbe9551dd	-0.2916402
13	0xbe8ce28b	-0.2751659
14	0xbea5a3f6	-0.32351655
15	0xbcb10be6	-0.021612119
16	0xbea0f855	-0.31439462
17	0xbe03de53	-0.12877779
18	0xbd560f47	-0.052260663
19	0xbeb8d517	-0.36100075
20	0x3dbce3b6	0.0922312
21	0x3d3e66a4	0.046484604
22	0xbe944458	-0.28958392
23	0x3dec0cc8	0.11525875
24	0x3e667287	0.22504626
25	0x3e29c64b	0.16579549
26	0xbe97448a	-0.2954448
27	0xbd0bc62e	-0.034124546
28	0x3db3568b	0.08756741
29	0xbe6bf823	-0.23043875
30	0xbd9fee06	-0.07809071
31	0x3dc0461a	0.09388371
32	0xbf144034	-0.57910466
33	0x3e40c3ac	0.18824643
34	0xbe0b0d74	-0.1357935
35	0xbe3a0ba6	-0.18168506
36	0xbef2ad48	-0.47397828
37	0x3e072921	0.13199283
38	0x3ce9a227	0.028519703
39	0xbeb6397c	-0.35590732
40	0x3d9f226e	0.07770239
41	0xbeaa7af4	-0.3329693
42	0xbdf00d4d	-0.11721287
43	0xbd3b9000	-0.045791626
44	0xbe294129	-0.16528763
45	0x3e2cb077	0.16864191
46	0x3c04d97b	0.008108492
47	0xbe88775e	-0.2665357
48	0xbe69122f	-0.22760843
49	0x3e478714	0.19485122
50	0x3e321391	0.17390276
51	0x3a2ccb90	0.00065916125
52	0xbeb7bb79	-0.35885218
53	0x3dc6f6e4	0.097150594
54	0xbe70d036	-0.23516926
55	0xbe4e1778	-0.2012614
56	0xbea274d1	-0.3172975
57	0x3daca98f	0.08430778
58	0x3e1c0494	0.15236121
59	0x3e60e1ff	0.2196121
60	0xbe4bbf01	-0.19897081
61	0xbdcedb87	-0.10100465
62	0xbd069f34	-0.03286667
63	0xbed9ea39	-0.4256151
64	0xbf1fed7b	-0.6247174
65	0x3ec578f5	0.38568845
66	0x3e32b626	0.17452297
67	0x3e7f7679	0.24947537
68	0x3e31511d	0.17316099
69	0xbefdbcfe	-0.49558252
70	0xbe8f0209	-0.2793124
71	0xbd33880d	-0.04383092
72	0xbcd77bcf	-0.026304154
73	0x3b967bd0	0.0045923963
74	0xbda66f4f	-0.08126699
75	0x3f01b242	0.50662625
76	0xbe8037a2	-0.25042444
77	0xbea3461a	-0.3188942
78	0xbe1822db	-0.14857046
79	0x3e9d0697	0.3066909
80	0xbe5b62e9	-0.2142445
81	0x3db8b44a	0.090187624
82	0xbe551f44	-0.20812708
83	0xbefe1f16	-0.49633092
84	0xbd2751c3	-0.04084946
85	0xbf06d60b	-0.52670354
86	0xbef7c184	-0.48389828
87	0xbee14bac	-0.44003046
88	0xbebdd9ec	-0.37080324
89	0x3e119bee	0.14219639
90	0x3c9d8789	0.019229667
91	0x3db0058c	0.08594808
92	0xbe96a0c3	-0.29419526
93	0x3e15beb7	0.14623533
94	0xbecb657a	-0.39725858
95	0xbdf5fe80	-0.12011433
96	0x3d895392	0.06705393
97	0x3df3c9fa	0.11903758
98	0xbe4bbf76	-0.19897255
99	0xbdc28925	-0.094988145
100	0xbdfee5d3	-0.12446179
101	0xbebc6cfc	-0.36801898
102	0xbc5a1637	-0.0133109605
103	0x3ecf3646	0.40471095
104	0x3db59904	0.08867076
105	0xbea888f8	-0.32917
106	0xbd95b3c2	-0.07309677
107	0xbe4cc903	-0.19998555
108	0x3c9539e3	0.01821608
109	0xbd820781	-0.063490875
110	0xbdee88a2	-0.116471544
111	0x3cab2326	0.020890784
112	0xbe73ac66	-0.23796234
113	0xbbf8c0d7	-0.0075913477
114	0xbbac6ebf	-0.0052622254
115	0x3e062e30	0.13103557
116	0xbe66f5f4	-0.22554761
117	0xbea64951	-0.3247781
118	0x3f0a44f4	0.54011464
119	0xbe737b28	-0.23777449
120	0xbde7be9c	-0.11315653
121	0xbc977490	-0.018488199
122	0xbe03aee6	-0.12859687
123	0xbf02508d	-0.5090416
124	0xbe8fa7b7	-0.28057644
125	0xbc487c59	-0.012236678
126	0x3e5dd3d7	0.21662842
127	0xbead7cc5	-0.33884254

bn3.module.running_var f4 [128]
0	0x3ec6eb2e	0.38851303
1	0x3e5028cb	0.20328061
2	0x3e3587f7	0.17727648
3	0x3eb29779	0.3488119
4	0x3dac49d4	0.08412519
5	0x3ebc330f	0.36757705
6	0x3edf5163	0.4361678
7	0x3e1c3bb7	0.15257154
8	0x3fa7b321	1.3101541
9	0x3eb22e4f	0.34800956
10	0x3eb2bf53	0.34911594
11	0x3e40bbcd	0.1882164
12	0x3e5e8dcc	0.21733779
13	0x3e18a37b	0.14906113
14	0x3e956e22	0.29185587
15	0x3dcc5e13	0.09978881
16	0x3d9038ec	0.07042107
17	0x3e4216d4	0.1895402
18	0x3e14a831	0.14517285
19	0x3e153c8e	0.14573881
20	0x3e9e2579	0.30887964
21	0x3e0f7379	0.14008893
22	0x3f8519f2	1.0398543
23	0x3d32a88c	0.04361777
24	0x3e148fa3	0.14507918
25	0x3d6baf3e	0.05754017
26	0x3e2d8aaa	0.16947427
27	0x3e407d60	0.18797827
28	0x3d8f2fb5	0.06991521
29	0x3dd5d7f2	0.10441579
30	0x3d2d64a0	0.04233229
31	0x3e25d85d	0.16195817
32	0x3ecf0a38	0.40437484
33	0x3e94fe15	0.291001
34	0x3ebaf0a0	0.36511707
35	0x3f09d9a4	0.5384772
36	0x3dab5764	0.08366278
37	0x3f3fb8b2	0.748912
38	0x3db0759b	0.086161815
39	0x3f349b3f	0.70549387
40	0x3d7ec3c3	0.06219841
41	0x3f90e6ad	1.1320397
42	0x3f1e0993	0.6173336
43	0x3d951606	0.07279591
44	0x3f5abc42	0.8544351
45	0x3d0e72bf	0.0347774
46	0x3cd8a9ca	0.02644815
47	0x3d2e4510	0.042546332
48	0x3e463263	0.19355159
49	0x3e91e992	0.28498513
50	0x3dc101fe	0.09424208
51	0x3e1463ca	0.14491192
52	0x3fa208b5	1.2658907
53	0x3e7c7e47	0.24657546
54	0x3e559878	0.20858943
55	0x3d63cad3	0.05561335
56	0x3d7ead98	0.06217727
57	0x3f1c08f6	0.60951173
58	0x3e2eda0d	0.17075367
59	0x3dca24e0	0.098703146
60	0x3e0efbd3	0.13963251
61	0x3dd5defb	0.10442921
62	0x3dbbec71	0.09175957
63	0x3d8e5c03	0.069511436
64	0x3df738a2	0.12071349
65	0x3efe9cc8	0.4972899
66	0x3d2d419d	0.0422989
67	0x3fa7ae05	1.3099982
68	0x3f028c09	0.50994927
69	0x3f17bcf6	0.59272707
70	0x3e14c306	0.1452752
71	0x3ea4e9b5	0.32209554
72	0x3e6fff04	0.23437124
73	0x3da4d4d6	0.08048408
74	0x3ebf6f9e	0.37389845
75	0x3d8855f0	0.06657016
76	0x3e219481	0.15779306
77	0x3f8434f8	1.0328665
78	0x3ead5a13	0.33857784
79	0x3f12e40e	0.57379234
80	0x3e34f5fb	0.17671959
81	0x3da2c46e	0.07947622
82	0x3eaf07ff	0.34185788
83	0x3f2729e1	0.6529828
84	0x3f162012	0.58642685
85	0x3ec913ed	0.39273015
86	0x3ef95977	0.4870107
87	0x3d926f15	0.071500935
88	0x3f24831b	0.6426255
89	0x3ed074f6	0.40714234
90	0x3f434804	0.7628176
91	0x3ea3300b	0.3187259
92	0x3e259c6c	0.16172951
93	0x3ddfc655	0.10926501
94	0x3eaeb092	0.34119087
95	0x3d72aac2	0.05924488
96	0x3deb99dd	0.115039565
97	0x3deab384	0.11460021
98	0x3e16ba16	0.14719424
99	0x3db89c29	0.0901416
100	0x3d69c3eb	0.057071608
101	0x3d9e477d	0.07728479
102	0x3de08d87	0.10964494
103	0x3f541979	0.8285137
104	0x3e98c306	0.2983629
105	0x3dd3bccd	0.10338745
106	0x3e1a1710	0.1504786
107	0x3e6a0b48	0.22855866
108	0x3e2e77de	0.17037913
109	0x3eea8951	0.4580789
110	0x3e02c984	0.12772185
111	0x3f2bb5d1	0.67074305
112	0x3ee55806	0.4479372
113	0x3d53912b	0.051652115
114	0x3de9f126	0.114229485
115	0x3e23145b	0.15925734
116	0x3f08f1a4	0.53493714
117	0x3ed6d5d1	0.41960004
118	0x3f91727c	1.1363063
119	0x3fa217d6	1.2663524
120	0x3f00dbe2	0.50335515
121	0x3e250db0	0.16118503
122	0x3edadae5	0.42745128
123	0x3e2ab114	0.16669112
124	0x3d5538ea	0.05205623
125	0x3ef351c9	0.47523335
126	0x3df7a817	0.120926075
127	0x3e27e1de	0.16394755
