res/best_gat_task2_seed_1.pt (torch, 878841 bytes, 40 tensors)

conv1.att_src f4 [1, 2, 32]
-0.20531341 0.10895794 -0.32544628 -0.2369651 0.0711379 -0.22875066 0.1726818 -0.42975873
0.033452585 -0.23776017 -0.045709867 0.071435444 -0.16959462 0.12839708 0.44409883 0.35096133
0.33891335 0.04898815 -0.16091645 -0.03292868 0.36543608 0.3715231 -0.13334571 -0.017012186
-0.0210159 0.40430352 -0.21360424 -0.21522409 0.33854267 0.31851965 0.026852373 -0.003627734
0.1581893 0.3226688 0.28232458 -0.34315342 0.18057628 0.34119722 -0.25130865 -0.21462995
0.38266733 -0.3228382 -0.26678523 -0.34209263 -0.0555434 0.16060354 -0.17569345 -0.009828027
0.12059992 -0.21301208 0.1949742 0.054950424 -0.37249604 -0.33541712 -0.17609839 -0.055595525
0.13415813 -0.36237732 -0.11817443 0.13712442 -0.09320233 0.25629184 0.38270277 -0.38680056
00000000: ae3d 52be 5725 df3d e5a0 a6be fba6 72be
00000010: bfb0 913d 9d3d 6abe 7fd3 303e 5609 dcbe
00000020: 9405 093d 6777 73be 453a 3bbd bf4c 923d
00000030: 36aa 2dbe 867a 033e ec60 e33e 34b1 b33e
00000040: 0d86 ad3e cca7 483d 48c7 24be 39e0 06bd
00000050: 701a bb3e 4738 be3e c78b 08be 245d 8bbc
00000060: 8929 acbc df00 cf3e 12bb 5abe b463 5cbe
00000070: 7755 ad3e 0215 a33e 82f9 db3c 47bf 6dbb
00000080: 60fc 213e d834 a53e d98c 903e ceb1 afbe
00000090: fde8 383e 67b1 ae3e 87ab 80be f4c7 5bbe
000000a0: f9ec c33e 0c4b a5be 1398 88be c426 afbe
000000b0: 7a81 63bd 4175 243e fce8 33be bc05 21bc
000000c0: 17fd f63d d71f 5abe 51a7 473e b213 613d
000000d0: cdb7 bebe cbbb abbe 2353 34be 22b8 63bd
000000e0: c060 093e 8589 b9be 7005 f2bd 586a 0c3e
000000f0: dde0 bebd af38 833e 9ef1 c33e b90a c6be

conv1.att_dst f4 [1, 2, 32]
-0.35813028 -0.19438429 0.10962553 -0.16345203 -0.3663403 0.2129942 0.16617388 0.22763357
-0.009671363 0.30188525 0.34830973 -0.15941487 -0.103537224 -0.3677497 -0.26797312 -0.15497383
-0.39491388 -0.22774372 -0.2027937 -0.04240915 0.37618214 -0.37322232 0.1835977 -0.16235209
-0.20934719 0.33840722 -0.16426528 0.032208826 -0.33571187 -0.32432365 0.37290552 0.08978264
-0.29269105 0.15832317 -0.17233776 0.35274953 -0.101556614 0.10184571 -0.26497215 0.15588403
-0.034957115 0.099264994 0.22519735 -0.43758413 -0.22881037 -0.10485254 -0.35823175 0.40669304
0.36053514 0.04420568 -0.407395 0.13758518 0.3724702 -0.3188258 -0.07569918 -0.4159089
0.38208655 -0.30736798 0.2004137 -0.36505178 0.410174 0.15408975 -0.33635804 -0.16358384
00000000: da5c b7be ad0c 47be 5a83 e03d f85f 27be
00000010: f590 bbbe 271b 5a3e 7c29 2a3e c618 693e
00000020: a374 1ebc b490 9a3e a755 b23e a73d 23be
00000030: 530b d4bd b049 bcbe c633 89be 76b1 1ebe
00000040: 2732 cabe a635 69be 27a9 4fbe 38b5 2dbd
00000050: f29a c03e ff16 bfbe 0901 3c3e a03f 26be
00000060: 1c5f 56be b643 ad3e 2835 28be 67ed 033d
00000070: 6de2 abbe c00d a6be 79ed be3e f6df b73d
00000080: 9adb 95be 781f 223e 4f79 30be 969b b43e
00000090: eafc cfbd 7c94 d03d 6eaa 87be 10a0 1f3e
000000a0: 312f 0fbd 724b cb3d 229a 663e 070b e0be
000000b0: 444d 6abe eebc d6bd 276a b7be 123a d03e
000000c0: 1098 b83e 0411 353d 1496 d0be 21e3 0c3e
000000d0: 6ab4 be3e 233d a3be 2c08 9bbd 03f2 d4be
000000e0: d9a0 c33e 565f 9dbe 4039 4d3e 11e8 babe
000000f0: 5402 d23e b4c9 1d3e 1f37 acbe 8682 27be

conv1.bias f4 [64]
-0.0005755802 -0.00063304405 0.00043295545 -0.00015666586 -0.00015676879 -8.936583e-05 0.0011746605 -0.0004865041
0.00038728624 -0.00039421828 -0.0051595755 -0.00082004163 0.0018063755 0.00031177088 0.0004810176 -0.0009200129
-0.00012558147 0.0015442002 0.00023570417 0.00028486937 0.00039436758 -1.7663235e-05 -0.00037661986 -0.0016358217
0.0008310392 -0.0003431959 5.3404845e-05 -0.007249288 8.211309e-05 0.0006124099 0.00044738004 0.00093325076
-0.009031248 0.0032397714 -0.0003553725 -0.0034521045 -0.0007903307 -0.0050565954 0.0034451706 -0.00068305
-9.6055795e-05 0.0008858621 0.0018582155 0.005738411 -0.0013118316 0.003981487 0.0025656065 -0.0017774042
0.005042562 0.000658099 -0.0002137631 -0.0006108132 1.6909371e-05 -0.023384789 -0.0003988544 -6.155263e-05
-0.0011849724 0.00030406713 -0.0037465773 0.0009422418 0.00045226756 0.00022612202 0.0013282549 -0.0005680108
00000000: 89e2 16ba def2 25ba 4cfe e239 ac46 24b9
00000010: 4d62 24b9 ea69 bbb8 11f7 993a 7a11 ffb9
00000020: ae0c cb39 15af ceb9 a811 a9bb 10f8 56ba
00000030: e7c3 ec3a 2e75 a339 1731 fc39 052d 71ba
00000040: 85ae 03b9 c366 ca3a 5b27 7739 855a 9539
00000050: 1fc3 ce39 822b 94b7 1075 c5b9 1169 d6ba
00000060: 19da 593a f9ee b3b9 04ff 5f38 6f8b edbb
00000070: 2134 ac38 228a 203a 558e ea39 66a5 743a
00000080: cdf7 13bc 5852 543b 4a51 bab9 b43c 62bb
00000090: 322e 4fba ccb1 a5bb 5fc8 613b b60e 33ba
000000a0: 9071 c9b8 3339 683a 5e8f f33a 4809 bc3b
000000b0: c4f1 abba 2277 823b bc23 283b caf7 e8ba
000000c0: 133c a53b 4784 2c3a 9825 60b9 fb1e 20ba
000000d0: 99d8 8d37 7591 bfbc 551d d1b9 d115 81b8
000000e0: 1351 9bba 336b 9f39 2389 75bb c700 773a
000000f0: 531e ed39 2b1b 6d39 d718 ae3a 8fe6 14ba

conv1.lin_src.weight f4 [64, 11]
-0.12836997 -0.07098676 0.01794397 0.07024773 0.2659559 -0.2748705 0.20730886 -0.038332812
0.071481906 0.32641992 -0.19532073 -0.07989417 0.23704034 0.14219086 -0.054758485 0.24603827
0.06300774 0.19861834 0.23322675 0.11399495 -0.379521 0.0005567654 -0.19631955 0.20957984
-0.12835778 0.14792442 0.027516657 -0.16837242 0.1382354 0.13698818 -0.06891583 0.2678229
0.20161283 -0.1834629 0.17092015 0.16216327 0.22480728 0.102342114 -0.17840527 -0.14605068
-0.24890848 -0.24892212 0.13337468 0.10097974 -0.16982986 -0.07235521 -0.25496948 -0.092053875
-0.1732341 0.13999467 0.30481625 -0.03557699 -0.1706194 0.16960907 0.13662663 0.12696627
-0.25713426 0.22241427 -0.09231821 0.09489531 0.15339677 -0.16794886 0.10668228 0.045055438
0.2194767 0.31168395 0.12532592 -0.08633943 -0.2671369 0.14902584 -0.22758743 -0.19076844
-0.11487773 0.20215459 0.08670095 0.19126816 -0.238601 0.005468873 -0.21097046 0.21658875
0.2069172 0.08956562 -0.17575237 -0.27576488 -0.23643921 0.09768524 0.22451633 0.25686687
-0.2296015 0.11721724 0.07894635 0.2735158 0.22926475 0.037461717 0.09284472 0.023873629
0.21077171 -0.248262 0.10648524 0.04739995 -0.04341399 0.0058475877 0.019053115 -0.13386752
0.034290895 0.22567694 0.06201292 -0.19693963 -0.1442854 0.19828181 -0.040118385 0.12269673
0.28482133 -0.15531781 -0.18131521 0.093414426 -0.24885051 -0.21000886 -0.13804115 -0.15652081
0.089669906 0.14813438 -0.083720565 -0.09692642 0.18145277 0.21813141 0.16335781 0.14412597
-0.012449155 0.23192321 -0.29599324 0.09061579 -0.112552844 0.23692633 0.04941878 -0.14805703
0.2176514 0.0741 0.053192716 -0.079093434 -0.13154103 -0.39147303 -0.26843643 0.018611984
-0.0021288898 0.25144282 -0.07754147 0.12012326 0.2256257 -0.20253325 -0.26877785 -0.28145477
-0.46041703 -0.13722183 0.049203724 -0.24848175 -0.18058538 -0.21484497 0.063165836 0.21668248
0.31578788 0.04534417 -0.21526761 -0.1208297 0.15171985 0.19976823 0.016910683 0.025138853
-0.0018194934 -0.06969662 -0.21603543 0.23595281 0.19684353 -0.29510355 -0.26944768 0.20550199
-0.25738108 -0.03551785 0.21599746 0.24568492 -0.29835632 0.20447543 -0.19355966 0.08656486
0.05476383 -0.3098772 0.13330854 -0.008424144 -0.1830375 0.24442075 -0.054271232 0.13190223
-0.24462526 0.1441504 0.20471193 0.0073652305 0.034082416 -0.0716921 -0.05975677 -0.032260638
0.07424102 0.13606963 0.12542929 -0.10515734 -0.2119901 -0.2573862 0.21057214 -0.03561857
-0.115062185 -0.26485753 -0.2923207 0.071376756 -0.029814899 0.24001686 -0.11997852 0.26328272
-0.08559651 -0.017474903 -0.077388614 -0.21761066 -0.12342533 0.05114708 0.00030286136 -0.24143839
0.0013119887 -0.004296089 -0.15124707 -0.16649161 0.09522576 -0.0072313948 0.1050803 -0.2171605
0.117951855 0.0053135105 -0.12277827 0.10823383 -0.017378857 -0.21444653 -0.0845767 0.07575885
-0.22096011 -0.243222 0.013221001 -0.19544595 -0.008502535 -0.02708523 0.22541793 0.16807444
0.24601719 -0.2826836 0.35057122 -0.133802 -0.28651565 0.022242406 0.17231493 -0.073122576
00000000: 6b73 03be 8261 91bd 3cff 923c 0bde 8f3d
00000010: 5f2b 883e d4bb 8cbe c648 543e de02 1dbd
00000020: 1b65 923d 8320 a73e 2802 48be 8e9f a3bd
00000030: b4ba 723e 7b9a 113e 6f4a 60bd 75f1 7b3e
00000040: 340a 813d 9b62 4b3e fed2 6e3e 2f76 e93d
00000050: 9450 c2be e5f3 113a fe07 49be 199c 563e
00000060: 3970 03be 8079 173e 9d6a e13c d269 2cbe
00000070: 958d 0d3e a146 0c3e be23 8dbd 1520 893e
00000080: 9873 4e3e b3dd 3bbe b105 2f3e 210e 263e
00000090: e133 663e be98 d13d dfaf 36be 4f8e 15be
000000a0: dde1 7ebe 71e5 7ebe 5f93 083e 77ce ce3d
000000b0: e1e7 2dbe f82e 94bd 5c8b 82be be86 bcbd
000000c0: 4864 31be c35a 0f3e e010 9c3e 2eb9 11bd
000000d0: dab6 2ebe 00ae 2d3e dae7 0b3e 7203 023e
000000e0: 1aa7 83be 91c0 633e 5411 bdbd 7958 c23d
000000f0: 0b14 1d3e c9fa 2bbe 3d7c da3d 0d8c 383d
00000100: 80be 603e 0a95 9f3e 7055 003e bad2 b0bd
00000110: 2bc6 88be 3b9a 183e ae0c 69be cd58 43be
00000120: 0445 ebbd 9d01 4f3e 4590 b13d cddb 433e
00000130: d253 74be 3b34 b33b a408 58be 71c9 5d3e
00000140: 1ae2 533e 2e6e b73d 6ef8 33be 0e31 8dbe
00000150: 1f1d 72be 330f c83d 9ce7 653e 0e84 833e
00000160: a81c 6bbe 980f f03d a0ae a13d 430a 8c3e
00000170: 61c4 6a3e 7571 193d 5f25 be3d a192 c33c
00000180: 8ad4 573e 6538 7ebe ef14 da3d 7326 423d
00000190: ded2 31bd 1f9d bf3b 4715 9c3c 9114 09be
000001a0: 9c74 0c3d db17 673e 4201 7e3d 8baa 49be
000001b0: 8dbf 13be 630a 4b3e 2d53 24bd 6c48 fb3d
000001c0: 1ad4 913e a20b 1fbe b2aa 39be 1050 bf3d
000001d0: abd2 7ebe 900c 57be a95a 0dbe fe46 20be
000001e0: dba4 b73d 8ab0 173e b075 abbd 5c81 c6bd
000001f0: c1ce 393e d75d 5f3e 4547 273e c295 133e
00000200: 8af7 4bbc 477d 6d3e 6d8c 97be c594 b93d
00000210: 1b82 e6bd d19c 723e 596b 4a3d 439c 17be
00000220: 02e0 5e3e bec1 973d 9be0 593d bdfb a1bd
00000230: b1b2 06be 276f c8be 8070 89be 2978 983c
00000240: d884 0bbb 1dbd 803e 10ce 9ebd 2f03 f63d
00000250: 6c0a 673e e064 4fbe 409d 89be d71a 90be
00000260: c8bb ebbe e183 0cbe d889 493d 0072 7ebe
00000270: 60eb 38be 5200 5cbe 175d 813d 03e2 5d3e
00000280: f3ae a13e cfba 393d 1d6f 5cbe 9075 f7bd
00000290: 735c 1b3e 0b90 4c3e 4688 8a3c ffef cd3c
000002a0: 117c eeba 1abd 8ebd 6438 5dbe 9d9d 713e
000002b0: 5a91 493e d017 97be 0cf5 89be 1d6f 523e
000002c0: 74c7 83be 2a7b 11bd 702e 5d3e d494 7b3e
000002d0: 29c2 98be 0262 513e 8134 46be eb48 b13d
000002e0: 0a50 603d 39a8 9ebe 0982 083e 6c05 0abc
000002f0: 2f6e 3bbe 6f49 7a3e 834b 5ebd 6111 073e
00000300: 0b7f 7abe 2a9c 133e 01a0 513e 0858 f13b
00000310: 019a 0b3d 4fd3 92bd 84c3 74bd bb23 04bd
00000320: ad0b 983d d655 0b3e 8970 003e bb5c d7bd
00000330: ef13 59be 20c8 83be 39a0 573e c7e4 11bd
00000340: b9a5 ebbd 689b 87be 0fab 95be fa2d 923d
00000350: 603e f4bc fbc6 753e 4cb7 f5bd fecc 863e
00000360: 394d afbd 8727 8fbc ec7d 9ebd 54d5 5ebe
00000370: 6bc6 fcbd 9a7f 513d 5dc9 9e39 a03b 77be
00000380: 09f7 ab3a 35c6 8cbb 83e0 1abe c77c 2abe
00000390: b905 c33d 56f5 ecbb 5734 d73d 525f 5ebe
000003a0: be90 f13d f51c ae3b 2c73 fbbd b3a9 dd3d
000003b0: 1b5e 8ebc df97 5bbe 8d36 adbd 7527 9b3d
000003c0: 5e43 62be 300f 79be e69c 583c fc22 48be
000003d0: 374e 0bbc d8e1 ddbc f5d3 663e b51b 2c3e
000003e0: eeeb 7b3e e8bb 90be 127e b33e 6403 09be
000003f0: 2eb2 92be b535 b63c 5373 303e 4ac1 95bd

conv1.lin_dst.weight f4 [64, 11]
-0.12836997 -0.07098676 0.01794397 0.07024773 0.2659559 -0.2748705 0.20730886 -0.038332812
0.071481906 0.32641992 -0.19532073 -0.07989417 0.23704034 0.14219086 -0.054758485 0.24603827
0.06300774 0.19861834 0.23322675 0.11399495 -0.379521 0.0005567654 -0.19631955 0.20957984
-0.12835778 0.14792442 0.027516657 -0.16837242 0.1382354 0.13698818 -0.06891583 0.2678229
0.20161283 -0.1834629 0.17092015 0.16216327 0.22480728 0.102342114 -0.17840527 -0.14605068
-0.24890848 -0.24892212 0.13337468 0.10097974 -0.16982986 -0.07235521 -0.25496948 -0.092053875
-0.1732341 0.13999467 0.30481625 -0.03557699 -0.1706194 0.16960907 0.13662663 0.12696627
-0.25713426 0.22241427 -0.09231821 0.09489531 0.15339677 -0.16794886 0.10668228 0.045055438
0.2194767 0.31168395 0.12532592 -0.08633943 -0.2671369 0.14902584 -0.22758743 -0.19076844
-0.11487773 0.20215459 0.08670095 0.19126816 -0.238601 0.005468873 -0.21097046 0.21658875
0.2069172 0.08956562 -0.17575237 -0.27576488 -0.23643921 0.09768524 0.22451633 0.25686687
-0.2296015 0.11721724 0.07894635 0.2735158 0.22926475 0.037461717 0.09284472 0.023873629
0.21077171 -0.248262 0.10648524 0.04739995 -0.04341399 0.0058475877 0.019053115 -0.13386752
0.034290895 0.22567694 0.06201292 -0.19693963 -0.1442854 0.19828181 -0.040118385 0.12269673
0.28482133 -0.15531781 -0.18131521 0.093414426 -0.24885051 -0.21000886 -0.13804115 -0.15652081
0.089669906 0.14813438 -0.083720565 -0.09692642 0.18145277 0.21813141 0.16335781 0.14412597
-0.012449155 0.23192321 -0.29599324 0.09061579 -0.112552844 0.23692633 0.04941878 -0.14805703
0.2176514 0.0741 0.053192716 -0.079093434 -0.13154103 -0.39147303 -0.26843643 0.018611984
-0.0021288898 0.25144282 -0.07754147 0.12012326 0.2256257 -0.20253325 -0.26877785 -0.28145477
-0.46041703 -0.13722183 0.049203724 -0.24848175 -0.18058538 -0.21484497 0.063165836 0.21668248
0.31578788 0.04534417 -0.21526761 -0.1208297 0.15171985 0.19976823 0.016910683 0.025138853
-0.0018194934 -0.06969662 -0.21603543 0.23595281 0.19684353 -0.29510355 -0.26944768 0.20550199
-0.25738108 -0.03551785 0.21599746 0.24568492 -0.29835632 0.20447543 -0.19355966 0.08656486
0.05476383 -0.3098772 0.13330854 -0.008424144 -0.1830375 0.24442075 -0.054271232 0.13190223
-0.24462526 0.1441504 0.20471193 0.0073652305 0.034082416 -0.0716921 -0.05975677 -0.032260638
0.07424102 0.13606963 0.12542929 -0.10515734 -0.2119901 -0.2573862 0.21057214 -0.03561857
-0.115062185 -0.26485753 -0.2923207 0.071376756 -0.029814899 0.24001686 -0.11997852 0.26328272
-0.08559651 -0.017474903 -0.077388614 -0.21761066 -0.12342533 0.05114708 0.00030286136 -0.24143839
0.0013119887 -0.004296089 -0.15124707 -0.16649161 0.09522576 -0.0072313948 0.1050803 -0.2171605
0.117951855 0.0053135105 -0.12277827 0.10823383 -0.017378857 -0.21444653 -0.0845767 0.07575885
-0.22096011 -0.243222 0.013221001 -0.19544595 -0.008502535 -0.02708523 0.22541793 0.16807444
0.24601719 -0.2826836 0.35057122 -0.133802 -0.28651565 0.022242406 0.17231493 -0.073122576
00000000: 6b73 03be 8261 91bd 3cff 923c 0bde 8f3d
00000010: 5f2b 883e d4bb 8cbe c648 543e de02 1dbd
00000020: 1b65 923d 8320 a73e 2802 48be 8e9f a3bd
00000030: b4ba 723e 7b9a 113e 6f4a 60bd 75f1 7b3e
00000040: 340a 813d 9b62 4b3e fed2 6e3e 2f76 e93d
00000050: 9450 c2be e5f3 113a fe07 49be 199c 563e
00000060: 3970 03be 8079 173e 9d6a e13c d269 2cbe
00000070: 958d 0d3e a146 0c3e be23 8dbd 1520 893e
00000080: 9873 4e3e b3dd 3bbe b105 2f3e 210e 263e
00000090: e133 663e be98 d13d dfaf 36be 4f8e 15be
000000a0: dde1 7ebe 71e5 7ebe 5f93 083e 77ce ce3d
000000b0: e1e7 2dbe f82e 94bd 5c8b 82be be86 bcbd
000000c0: 4864 31be c35a 0f3e e010 9c3e 2eb9 11bd
000000d0: dab6 2ebe 00ae 2d3e dae7 0b3e 7203 023e
000000e0: 1aa7 83be 91c0 633e 5411 bdbd 7958 c23d
000000f0: 0b14 1d3e c9fa 2bbe 3d7c da3d 0d8c 383d
00000100: 80be 603e 0a95 9f3e 7055 003e bad2 b0bd
00000110: 2bc6 88be 3b9a 183e ae0c 69be cd58 43be
00000120: 0445 ebbd 9d01 4f3e 4590 b13d cddb 433e
00000130: d253 74be 3b34 b33b a408 58be 71c9 5d3e
00000140: 1ae2 533e 2e6e b73d 6ef8 33be 0e31 8dbe
00000150: 1f1d 72be 330f c83d 9ce7 653e 0e84 833e
00000160: a81c 6bbe 980f f03d a0ae a13d 430a 8c3e
00000170: 61c4 6a3e 7571 193d 5f25 be3d a192 c33c
00000180: 8ad4 573e 6538 7ebe ef14 da3d 7326 423d
00000190: ded2 31bd 1f9d bf3b 4715 9c3c 9114 09be
000001a0: 9c74 0c3d db17 673e 4201 7e3d 8baa 49be
000001b0: 8dbf 13be 630a 4b3e 2d53 24bd 6c48 fb3d
000001c0: 1ad4 913e a20b 1fbe b2aa 39be 1050 bf3d
000001d0: abd2 7ebe 900c 57be a95a 0dbe fe46 20be
000001e0: dba4 b73d 8ab0 173e b075 abbd 5c81 c6bd
000001f0: c1ce 393e d75d 5f3e 4547 273e c295 133e
00000200: 8af7 4bbc 477d 6d3e 6d8c 97be c594 b93d
00000210: 1b82 e6bd d19c 723e 596b 4a3d 439c 17be
00000220: 02e0 5e3e bec1 973d 9be0 593d bdfb a1bd
00000230: b1b2 06be 276f c8be 8070 89be 2978 983c
00000240: d884 0bbb 1dbd 803e 10ce 9ebd 2f03 f63d
00000250: 6c0a 673e e064 4fbe 409d 89be d71a 90be
00000260: c8bb ebbe e183 0cbe d889 493d 0072 7ebe
00000270: 60eb 38be 5200 5cbe 175d 813d 03e2 5d3e
00000280: f3ae a13e cfba 393d 1d6f 5cbe 9075 f7bd
00000290: 735c 1b3e 0b90 4c3e 4688 8a3c ffef cd3c
000002a0: 117c eeba 1abd 8ebd 6438 5dbe 9d9d 713e
000002b0: 5a91 493e d017 97be 0cf5 89be 1d6f 523e
000002c0: 74c7 83be 2a7b 11bd 702e 5d3e d494 7b3e
000002d0: 29c2 98be 0262 513e 8134 46be eb48 b13d
000002e0: 0a50 603d 39a8 9ebe 0982 083e 6c05 0abc
000002f0: 2f6e 3bbe 6f49 7a3e 834b 5ebd 6111 073e
00000300: 0b7f 7abe 2a9c 133e 01a0 513e 0858 f13b
00000310: 019a 0b3d 4fd3 92bd 84c3 74bd bb23 04bd
00000320: ad0b 983d d655 0b3e 8970 003e bb5c d7bd
00000330: ef13 59be 20c8 83be 39a0 573e c7e4 11bd
00000340: b9a5 ebbd 689b 87be 0fab 95be fa2d 923d
00000350: 603e f4bc fbc6 753e 4cb7 f5bd fecc 863e
00000360: 394d afbd 8727 8fbc ec7d 9ebd 54d5 5ebe
00000370: 6bc6 fcbd 9a7f 513d 5dc9 9e39 a03b 77be
00000380: 09f7 ab3a 35c6 8cbb 83e0 1abe c77c 2abe
00000390: b905 c33d 56f5 ecbb 5734 d73d 525f 5ebe
000003a0: be90 f13d f51c ae3b 2c73 fbbd b3a9 dd3d
000003b0: 1b5e 8ebc df97 5bbe 8d36 adbd 7527 9b3d
000003c0: 5e43 62be 300f 79be e69c 583c fc22 48be
000003d0: 374e 0bbc d8e1 ddbc f5d3 663e b51b 2c3e
000003e0: eeeb 7b3e e8bb 90be 127e b33e 6403 09be
000003f0: 2eb2 92be b535 b63c 5373 303e 4ac1 95bd

bn1.module.weight f4 [64]
0.98836356 1.0009252 1.0242847 0.9700219 1.0363436 0.97365355 0.980267 1.0030078
1.0213468 0.9567584 1.0192419 0.96833915 0.9854163 1.0091957 0.9672836 0.9441145
1.0355253 0.99670565 0.9938331 1.0507965 1.023088 0.98980445 0.991969 1.0235927
0.9810808 0.97401834 1.0190612 1.0033082 1.0004674 0.992861 0.96830416 1.0038124
0.9640379 0.990802 1.0178329 1.0058383 1.0273175 1.0261066 1.0287366 1.113036
1.0563294 1.0264287 1.0215138 1.0025756 0.99865925 1.0183101 1.0455164 1.0234377
1.0663201 1.0124936 1.0004127 1.0555042 1.0552752 1.0551258 1.0255094 0.96753556
1.0094845 0.9897566 1.0159092 1.0080433 1.0185059 1.0079701 1.0110964 0.9842196
00000000: 6505 7d3f 511e 803f c31b 833f 5b53 783f
00000010: e8a6 843f 5c41 793f c7f2 7a3f 8f62 803f
00000020: 7ebb 823f 1eee 743f 8576 823f 13e5 773f
00000030: 3e44 7c3f 532d 813f e69f 773f 7db1 713f
00000040: 188c 843f 1a28 7f3f d96b 7e3f 8080 863f
00000050: 8cf4 823f d363 7d3f aef1 7d3f 1605 833f
00000060: 1c28 7b3f 4459 793f 9970 823f 676c 803f
00000070: 510f 803f 232c 7e3f c8e2 773f ed7c 803f
00000080: 30cb 763f 33a5 7d3f 5948 823f 4fbf 803f
00000090: 247f 833f 7657 833f a4ad 833f f777 8e3f
000000a0: cd35 873f 0462 833f f7c0 823f 6654 803f
000000b0: 22a8 7f3f fc57 823f 7bd3 853f 0200 833f
000000c0: 2d7d 883f 6499 813f 860d 803f c31a 873f
000000d0: 4213 873f 5d0e 873f e443 833f 69b0 773f
000000e0: ca36 813f b060 7d3f 5009 823f 9007 813f
000000f0: 675e 823f 2a05 813f 9b6b 813f d1f5 7b3f

bn1.module.bias f4 [64]
-0.065764435 -0.039807823 -0.008112643 -0.04374902 -0.011372867 -0.030419307 -0.002571756 -0.026940044
-0.009108096 0.0016148526 0.007990188 0.03857767 0.017222025 -0.004764312 -0.0858701 0.04884764
0.026450202 0.054082964 -0.09038624 0.0021065667 0.044661306 -0.042634696 0.0018310724 0.009618764
-0.03789811 0.0031427261 -0.021669049 -0.010407439 -0.0106145255 -0.021063818 0.01903103 0.007726486
0.010607858 -0.03767497 -0.08077228 0.016820783 0.025866158 0.029901193 -0.00073897024 0.0627875
0.004452353 0.09765289 -0.034437265 -0.012770618 -0.007298361 0.00019673239 0.016790202 -0.039241284
0.022056982 -0.0701312 0.10107183 0.042655148 0.017211672 -0.0918667 -0.0112665 -0.03982225
-0.04329998 0.0071759163 0.03487935 0.011007987 -0.0159902 0.041960746 -0.0025632137 0.010698585
00000000: 81af 86bd 870d 23bd e4ea 04bc 2c32 33bd
00000010: 4355 3abc e931 f9bc e88a 28bb 5eb1 dcbc
00000020: 203a 15bc 76a9 d33a 47e9 023c 9e03 1e3d
00000030: 3415 8d3c f21d 9cbb aadc afbd 7714 483d
00000040: 18ae d83c 1986 5d3d 6c1c b9bd 530e 0a3b
00000050: c6ee 363d b8a1 2ebd 9800 f03a 0598 1d3c
00000060: 0c3b 1bbd 32f6 4d3b 4a83 b1bc f783 2abc
00000070: 8ce8 2dbc 078e acbc f6e6 9b3c 762e fd3b
00000080: 95cc 2d3c 1251 1abd f06b a5bd bdcb 893c
00000090: 44e5 d33c 59f3 f43c 74b7 41ba bc96 803d
000000a0: 0be5 913b 3dfe c73d 170e 0dbd db3b 51bc
000000b0: 1727 efbb f349 4e39 9b8b 893c 78bb 20bd
000000c0: d8b0 b43c f2a0 8fbd bffe ce3d 2ab7 2e3d
000000d0: 7eff 8c3c 9c24 bcbd 2097 38bc a81c 23bd
000000e0: 525b 31bd f323 eb3b a6dd 0e3d d85a 343c
000000f0: e1fd 82bc 08df 2b3d 97fb 27bb 1e49 2f3c

bn1.module.running_mean f4 [64]
-0.00845566 1.2458645 -0.39066595 0.6763765 -2.1748052 0.7089002 -0.89482164 0.6332254
0.5647444 -0.15598589 0.27314672 1.0645528 0.55605114 0.993908 -1.0116441 0.8220697
-0.903445 0.3921219 0.3335212 -1.1912342 -0.78737456 -0.60549 0.043251753 1.2169222
-1.638628 0.505669 -0.09882847 0.05927893 -0.47617412 -0.40374014 -1.1244962 2.4963956
0.9910234 0.56274176 -1.5122136 0.9527485 -1.7554874 -0.61059374 0.2770513 -0.5907441
-1.7591761 -0.5340364 -0.26830113 0.7483633 -1.1486171 0.4227753 0.7073775 -0.44967845
0.4474153 -0.15179338 2.3674777 -0.8662535 0.26980668 -0.7620373 -2.8938348 1.6312606
0.11333156 0.2884755 0.34432024 0.67663664 -0.42574438 1.3642395 -0.9793076 -1.1760942
00000000: 9c89 0abc 7d78 9f3f 5e05 c8be 0327 2d3f
00000010: 0230 0bc0 7c7a 353f 0813 65bf 0f1b 223f
00000020: 1793 103f c4ba 1fbe e3d9 8b3e 4443 883f
00000030: 5e59 0e3f c170 7e3f 8e7d 81bf 2973 523f
00000040: 2c48 67bf 34c4 c83e 4ac3 aa3e 5d7a 98bf
00000050: 6191 49bf 6501 1bbf c028 313d 1bc4 9b3f
00000060: 90be d1bf 8673 013f 9566 cabd 77ce 723d
00000070: 18cd f3be 07b7 cebe 7eef 8fbf f2c4 1f40
00000080: b6b3 7d3f d80f 103f 3790 c1bf 53e7 733f
00000090: d0b3 e0bf df4f 1cbf abd9 8d3e 013b 17bf
000000a0: af2c e1bf 9cb6 08bf c45e 89be bd94 3f3f
000000b0: e305 93bf 0176 d83e b116 353f 413c e6be
000000c0: 9e13 e53e b96f 1bbe c184 1740 cac2 5dbf
000000d0: 1a24 8a3e e014 43bf 9734 39c0 26cd d03f
000000e0: 601a e83d 10b3 933e be4a b03e 0f38 2d3f
000000f0: 2bfb d9be 669f ae3f e7b3 7abf 418a 96bf

bn1.module.running_var f4 [64]
0.24793546 0.24157582 0.5989359 0.7983606 0.69433016 0.5899199 0.21452877 0.3605431
0.17063159 0.1371893 0.1229444 1.0689532 0.04445031 0.3688053 0.47235665 0.4428326
0.88111866 0.10873854 0.29858258 0.5342562 0.40048155 0.7874192 0.33411816 0.12906918
0.10337476 0.2611015 0.35995072 0.017590987 0.55502325 0.12088995 0.29610604 0.915636
0.042032093 0.035249893 0.49853414 0.027974065 0.19044833 0.005127018 0.017473774 0.04193617
0.24440143 0.07458268 0.03303292 0.21427397 0.12100355 0.07477548 0.020465154 0.027212419
0.007009833 0.018362228 0.44619927 0.041396007 0.011144909 0.01021216 0.6998994 0.39545387
0.00910341 0.15485173 0.009267093 0.027625157 0.01008521 0.30272827 0.113366 0.18624352
00000000: cbe2 7d3e a75f 773e dd53 193f 5c61 4c3f
00000010: 9fbf 313f fe04 173f 6ead 5b3e 1b99 b83e
00000020: 0cba 2e3e 5a7b 0c3e 46ca fb3d 75d3 883f
00000030: 8711 363d 0cd4 bc3e bbd8 f13e f4ba e23e
00000040: fe90 613f 50b2 de3d d1df 983e 04c5 083f
00000050: eb0b cd3e 4e94 493f 8911 ab3e b62a 043e
00000060: 25b6 d33d 19af 853e 764b b83e f91a 903c
00000070: 0116 0e3f 2695 f73d 369b 973e 1f67 6a3f
00000080: d829 2c3d 3162 103d de3f ff3e de29 e53c
00000090: e304 433e 8b00 a83b 2925 8f3c 43c5 2b3d
000000a0: 5e44 7a3e cebe 983d 874d 073d a36a 5b3e
000000b0: b6d0 f73d e323 993d 8aa6 a73c 94ec de3c
000000c0: beb2 e53b 626c 963c 3b74 e43e dc8e 293d
000000d0: 2399 363c e750 273c 9b2c 333f ee78 ca3e
000000e0: 7826 153c 7491 1e3e 01d5 173c 274e e23c
000000f0: 703c 253c 33ff 9a3e 6f2c e83d 9fb6 3e3e

conv2.att_src f4 [1, 2, 64]
0.012069023 -0.26912037 0.06521284 -0.036471408 0.21581152 -0.1557066 0.26914448 -0.1511304
0.09734325 -0.16219307 0.16407707 0.07955993 -0.15649733 0.20257714 0.2781337 -0.15101515
-0.1627306 -0.17246324 -0.21293451 -0.050936785 -0.09378576 0.301041 -0.093946785 -0.07350652
-0.041506737 0.018197432 -0.22400685 -0.27621162 -0.068930715 -0.008727017 0.18040423 -0.07883993
-0.007948795 0.23630458 0.22821023 0.08036878 -0.16400512 -0.2929546 -0.2788114 0.14078176
-0.21751809 -0.09610018 0.06706861 0.022910776 -0.07803022 0.1161398 0.03269497 0.27685255
-0.19470227 -0.14391038 0.2003582 -0.020029241 -0.11259296 0.322941 -0.05668245 0.14608099
-0.19437893 0.21687472 -0.12843597 -0.09713157 0.256492 0.2706201 -0.12508702 -0.029942749
-0.22828002 0.04181141 0.19020592 0.077593304 0.21366091 -0.15804587 -0.2567827 -0.15951443
0.2031565 0.20229805 0.060646374 -0.06263596 0.20884363 -0.064443715 -0.2106531 -0.119831234
0.13390799 0.084421374 0.10268171 -0.20521648 -0.15551683 -0.15826899 -0.22625948 0.09473217
-0.06749616 0.08981688 -0.091583036 -0.18415657 -0.12981561 -0.22740489 -0.04010234 -0.052712698
0.07479801 0.26512298 0.22525235 -0.19228517 0.24089661 -0.27702653 -0.021226173 -0.24317867
0.29773042 -0.098245606 0.13718066 0.16653971 -0.08988541 -0.15655781 -0.21336128 -0.07777805
-0.22693531 0.01948603 0.05905913 -0.18700363 0.1984038 0.07699773 -0.20001477 0.128026
-0.084170215 0.11058712 -0.26186118 -0.12827139 -0.1229207 -0.010919036 -0.08159771 0.15489142
00000000: 27bd 453c 25ca 89be 4f8e 853d 0b63 15bd
00000010: b2fd 5c3e 8d71 1fbe 4ecd 893e edc1 1abe
00000020: e65b c73d f115 26be d203 283e 51f0 a23d
00000030: d640 20be 6270 4f3e 8a67 8e3e b7a3 1abe
00000040: daa2 26be 349a 30be 810b 5abe 17a3 50bd
00000050: c012 c0bd 0c22 9a3e 2c67 c0bd 968a 96bd
00000060: f802 2abd c812 953c 0d62 65be 9c6b 8dbe
00000070: 8c2b 8dbd c3fb 0ebc e3bb 383e d476 a1bd
00000080: aa3b 02bc d4f9 713e f1af 693e 6398 a43d
00000090: f5f0 27be 25fe 95be 5ec0 8ebe 1829 103e
000000a0: 10bd 5ebe 2cd0 c4bd 445b 893d 61af bb3c
000000b0: 4fce 9fbd b4da ed3d 29eb 053d 9ebf 8d3e
000000c0: 0860 47be 3e5d 13be b32a 4d3e 5d14 a4bc
000000d0: 2397 e6bd 8658 a53e db2b 68bd 4196 153e
000000e0: 450b 47be 6814 5e3e b884 03be ebec c6bd
000000f0: eb52 833e b88e 8a3e d016 00be 7f4a f5bc
00000100: 3dc2 69be 7142 2b3d 57c5 423e 3de9 9e3d
00000110: edc9 5a3e c7d6 21be 0679 83be c057 23be
00000120: 4208 503e 3827 4f3e 5568 783d 4847 80bd
00000130: 1bdb 553e 11fb 83bd 72b5 57be 146a f5bd
00000140: 2d1f 093e 1de5 ac3d ca4a d23d 4524 52be
00000150: ce3f 1fbe 4411 22be 91b0 67be f102 c23d
00000160: 6d3b 8abd eaf1 b73d e38f bbbd 8a93 3cbe
00000170: 62ee 04be d4dc 68be 5a42 24bd 45e9 57bd
00000180: b32f 993d 33be 873e 8da8 663e 67e6 44be
00000190: 9aad 763e 6cd6 8dbe 83e2 adbc d403 79be
000001a0: 1f70 983e fe34 c9bd 1679 0c3e 6389 2a3e
000001b0: d815 b8bd b150 20be 617b 5abe 194a 9fbd
000001c0: bb61 68be 2ba1 9f3c fce7 713d e17d 3fbe
000001d0: 5e2a 4b3e fcb0 9d3d acd0 4cbe 3f19 033e
000001e0: 6f61 acbd 807b e23d ab12 86be 9359 03be
000001f0: d9bd fbbd c2e5 32bc b31c a7bd db9b 1e3e

conv2.att_dst f4 [1, 2, 64]
-0.35388073 0.28589937 -0.23975818 0.14641778 -0.028950993 -0.01893961 -0.26733962 -0.07559497
0.031020297 0.23577787 0.013512127 -0.19044401 -0.08728198 -0.37186956 0.31961617 0.38275152
-0.18438292 -0.29584387 0.3584508 0.27283642 0.05939404 -0.056721117 -0.31666866 0.15647696
0.28122514 0.1779897 -0.05548471 0.08243011 -0.1804031 0.20882966 0.13079382 -0.05171579
-0.15250446 0.26150125 -0.25941283 0.11592747 -0.11173176 0.25674713 -0.23251846 -0.19522046
-0.21260548 -0.08760718 0.25616667 0.11177024 -0.35776317 0.074333094 -0.08159895 0.056546185
0.07392208 0.16703096 -0.097715445 -0.04107967 0.055504993 -0.18956932 -0.0096656745 -0.12041152
0.31728733 -0.0047250693 -0.1005997 -0.10519393 -0.1585834 0.34632933 0.054855026 -0.10022667
0.25820085 0.21003358 -0.019305622 0.0042290036 0.08620342 -0.25512025 -0.005824623 -0.032125745
0.08189251 -0.017039288 -0.39907655 -0.03061357 -0.023992898 0.1638926 0.17955217 -0.31899667
0.20503572 0.14547431 0.051342603 -0.074607715 -0.013172102 -0.043578144 -0.033586454 0.23189858
-0.309928 -0.112027705 0.2358324 0.30143532 0.18553165 -0.09339849 0.2367547 0.12585236
-0.25000873 -0.35412988 0.14235967 0.21725069 -0.08121524 0.13900177 -0.2581531 -0.29730764
-0.25480774 0.098028824 -0.35908937 -0.07205972 -0.23212449 0.12367766 0.00221375 0.18662095
-0.22731072 -0.08162203 0.25386333 0.033174213 0.21378376 0.09222388 0.111170635 0.20922141
-0.16521834 -0.15271996 0.17768995 -0.22067441 -0.08473225 0.36515892 0.05649669 -0.20948552
00000000: db2f b5be 6761 923e 2b83 75be 8bee 153e
00000010: a22a edbc 3e27 9bbc bde0 88be 89d1 9abd
00000020: 471e fe3c c16f 713e f861 5d3c c103 43be
00000030: e5c0 b2bd b065 bebe bba4 a33e 02f8 c33e
00000040: e0ce 3cbe d978 97be dd86 b73e 37b1 8b3e
00000050: 2a47 733d 6754 68bd 6522 a2be 7f3b 203e
00000060: befc 8f3e ef42 363e ef43 63bd 1ed1 a83d
00000070: 97bb 38be 71d7 553e d1ee 053e f0d3 53bd
00000080: 212a 1cbe 7ee3 853e c2d1 84be 626b ed3d
00000090: 9fd3 e4bd 5c74 833e 5219 6ebe dfe7 47be
000000a0: 40b5 59be 656b b3bd 4728 833e cce7 e43d
000000b0: bc2c b7be f33b 983d 5a1d a7bd f99c 673d
000000c0: 7664 973d 2a0a 2b3e 091f c8bd 2843 28bd
000000d0: 3459 633d 761e 42be c75c 1ebc 519a f6bd
000000e0: 7c73 a23e c1d4 9abb 3707 cebd ea6f d7bd
000000f0: b063 22be 1452 b13e aaaf 603d a443 cdbd
00000100: e732 843e 0b13 573e d326 9ebc 7493 8a3b
00000110: 6b8b b03d 1f9f 82be 7bdc bebb 4996 03bd
00000120: 43b7 a73d fa95 8bbc c353 ccbe 4fc9 fabc
00000130: c18c c4bc 76d3 273e 86dc 373e 8853 a3be
00000140: e2f4 513e 38f7 143e 9f4c 523d eecb 98bd
00000150: cdcf 57bc ff7e 32bd f391 09bd d276 6d3e
00000160: e2ae 9ebe c86e e5bd 0c7e 713e bb55 9a3e
00000170: 02fc 3d3e b547 bfbd d36f 723e 71df 003e
00000180: 2501 80be 8350 b5be bcc6 113e f776 5e3e
00000190: 2d54 a6bd 7b56 0e3e a52c 84be b538 98be
000001a0: 2976 82be 56c3 c83d 90da b7be 0c94 93bd
000001b0: 0bb2 6dbe b74a fd3d 9014 113b 9019 3f3e
000001c0: 24c4 68be 7329 a7bd 60fa 813e afe1 073d
000001d0: 21ea 5a3e e0df bc3d 6ead e33d 233e 563e
000001e0: ff2e 29be 9f62 1cbe 5bf4 353e 79f8 61be
000001f0: 1a88 adbd 1cf6 ba3e 1369 673d 5f83 56be

conv2.bias f4 [128]
-0.00014377313 8.359049e-05 -0.00036338548 -5.6902194e-05 -5.357346e-05 -0.00027208953 -9.7636526e-05 -0.00012810019
-0.00015093102 2.6668673e-05 2.2643258e-05 0.00068068336 3.8399212e-05 -6.9774534e-05 -2.8024575e-05 -4.646148e-05
-7.603189e-06 -0.00026173965 8.416801e-05 5.6585774e-05 6.4748974e-06 -1.5478094e-05 0.0004795601 -0.0004769275
5.2947995e-05 -0.0002754695 9.5136704e-05 0.00025456803 4.0589995e-05 -0.00040875463 6.075475e-05 -7.810526e-05
0.00011320032 -0.00060885324 -8.175071e-05 0.0003728206 2.3444159e-06 7.965867e-05 7.563963e-05 -0.0005752095
-9.68797e-05 -0.0002054256 0.00010074283 -0.000120581535 9.51959e-05 -7.225699e-06 -0.00069366867 -7.494778e-05
-0.0007084037 0.0004742875 -0.00036907452 0.00028564213 0.00086911354 0.0005028069 -1.5945086e-05 -0.00018338954
-1.4743033e-05 -0.00021726696 0.00011044473 -4.8320162e-05 0.0011183512 -0.0010945466 -0.000107681204 -7.478127e-05
-7.0587885e-05 6.985876e-05 0.0006953307 0.00032494686 0.00022942305 -0.00027278412 0.00018328986 0.0003143993
-0.00022947535 6.9948355e-06 -0.00012835831 -1.3232313e-05 -0.0019620515 -0.00056691805 -0.00034393702 2.6021164e-06
-0.001838418 -0.0003898674 -0.00010071165 -0.00035243417 0.00044055723 0.0006356959 -8.03181e-05 0.00048649163
3.3407505e-05 6.2910476e-05 1.3045057e-05 -0.00027813646 -0.001292717 0.00041386823 8.370688e-05 0.00012215391
-6.1855117e-06 0.000105795814 0.00037979922 -0.00013612903 -0.00018491004 7.734907e-05 -0.00037276713 -0.000647094
-8.9284455e-05 -0.00016512239 0.000585276 -0.0015635319 0.00014707465 -0.00031462478 -0.00010185232 -3.1788975e-05
4.9081485e-05 1.3341847e-05 0.00011887095 -0.0002881901 -0.00018893936 5.0059996e-05 0.00090101914 -0.000113707465
0.002056169 -0.00027943903 0.00042064363 1.90835e-05 -0.00033868832 -0.00026364945 -0.00012402318 0.0002498644
00000000: cec1 16b9 4d4d af38 c684 beb9 44aa 6eb8
00000010: 11b4 60b8 3da7 8eb9 36c2 ccb8 a252 06b9
00000020: 3d43 1eb9 8ab6 df37 07f2 bd37 e36f 323a
00000030: d70e 2138 eb53 92b8 5116 ebb7 a2df 42b8
00000040: e51e ffb6 1a3a 89b9 5b83 b038 8356 6d38
00000050: f242 d936 f4d6 81b7 786d fb39 200c fab9
00000060: 7a14 5e38 e46c 90b9 2184 c738 8b77 8539
00000070: 2d3f 2a38 1e4e d6b9 ebd2 7e38 71cc a3b8
00000080: f665 ed38 739b 1fba 9471 abb8 2277 c339
00000090: c254 1d36 6c0e a738 b8a0 9e38 a8c9 16ba
000000a0: e52b cbb8 8467 57b9 e545 d338 b8e0 fcb8
000000b0: e9a3 c738 4874 f2b6 51d7 35ba 482d 9db8
000000c0: 2bb4 39ba caa9 f839 5880 c1b9 3dc2 9539
000000d0: 39d5 633a cdce 033a d0c1 85b7 414c 40b9
000000e0: d858 77b7 28d2 63b9 909e e738 61ab 4ab8
000000f0: a495 923a e476 8fba e8d2 e1b8 e3d3 9cb8
00000100: 9508 94b8 2381 9238 da46 363a a15d aa39
00000110: 4891 7039 7704 8fb9 7f31 4039 f6d5 a439
00000120: 529f 70b9 2eb5 ea36 ec97 06b9 5a00 5eb7
00000130: c395 00bb 3a9d 14ba 7252 b4b9 05a0 2e36
00000140: 12f7 f0ba 1e67 ccb9 2835 d3b8 eac6 b8b9
00000150: 97fa e639 d4a4 263a 7470 a8b8 cd0f ff39
00000160: 091f 0c38 ceee 8338 18dc 5a37 d8d2 91b9
00000170: 6270 a9ba 74fc d839 ca8b af38 7116 0039
00000180: 248d cfb6 b2de dd38 ca1f c739 dcbd 0eb9
00000190: 69e4 41b9 7736 a238 f56f c3b9 bea1 29ba
000001a0: 3a3e bbb8 b424 2db9 356d 193a 6def ccba
000001b0: 0d38 1a39 39f4 a4b9 8c99 d5b8 2755 05b8
000001c0: d8dc 4d38 ccd6 5f37 5b4a f938 3818 97b9
000001d0: 061e 46b9 83f7 5138 5f32 6c3a 3b76 eeb8
000001e0: cbc0 063b ac81 92b9 d589 dc39 8115 a037
000001f0: fa91 b1b9 6e3a 8ab9 380c 02b9 3b00 8339

conv2.lin_src.weight f4 [128, 64]
0.06741802 -0.057990123 0.043611813 -0.105519935 -0.16229182 -0.13042618 -0.083489746 -0.1343513
0.20057796 -0.083942294 -0.13159044 -0.07535581 -0.013640478 0.15885323 -0.1463132 -0.14153929
0.007413797 0.018031383 -0.0265596 0.005511883 -0.14904325 -0.090350494 0.1427524 -0.10327719
-0.050835215 0.007816064 -0.03177336 0.013597001 0.08970253 0.02271844 -0.22744903 0.0024316763
-0.031175237 -0.071401685 -0.12345499 -0.12244486 0.07839992 -0.18477125 -0.18508467 -0.1818155
0.07573964 -0.080515414 -0.04450879 -0.08810588 -0.2026508 -0.029721847 -0.06603294 -0.1664801
0.028700003 -0.21443239 -0.009666927 -0.033373777 -0.063869566 -0.06969659 0.0835999 0.08981072
0.17519353 -0.021565229 0.059653807 0.00894333 0.186719 0.14915106 -0.1215347 -0.2467644
-0.0272634 -0.029515574 0.007666664 0.16033591 -0.11054501 0.16289097 -0.036249824 0.16537908
-0.035653714 -0.07897012 0.023965316 0.12630717 -0.052149482 -0.14680274 0.11384379 -0.112170324
0.027503816 0.06472155 -0.13642433 0.08688171 -0.15837921 0.17261243 0.08811135 -0.13829088
0.0033896787 0.12905118 0.093927465 0.14593343 -0.06981243 0.05915611 0.058498632 -0.07538328
0.047355853 0.06548743 -0.17246225 -0.045995593 -0.04090365 0.15136766 -0.08370114 0.19540133
0.071532704 0.05922177 0.103447706 -0.07434468 -0.06377614 -0.12495823 -0.112093575 0.08337516
0.0030890948 0.007143198 0.009042259 -0.07323491 -0.17037705 0.024312451 -0.1742288 0.09141576
-0.023803258 0.06876223 0.12821653 0.08057561 -0.036010545 0.06996059 -0.022276899 0.107184984
-0.09209365 -0.025623757 -0.07759895 -0.10225451 -0.1752644 -0.07832707 -0.19294795 0.07058194
0.11173691 0.06966911 0.18807532 0.028973317 -0.07228899 0.16224676 -0.12100945 0.020553444
0.022108933 0.09648875 -0.059438687 -0.06377632 0.014526883 -0.1840026 -0.045915537 -0.14365879
0.035664663 -0.059189074 -0.003725864 -0.1694042 0.087311305 -0.019606348 -0.0016845796 -0.12253434
-0.15102588 0.13610217 0.10326324 -0.025196042 0.005097644 -0.050425895 -0.23269555 0.03878173
0.084549904 0.11768319 -0.14116225 0.0420074 -0.18453784 -0.083367005 0.14489754 0.14968805
-0.11673751 -0.17986512 0.05338815 -0.07499675 0.12355453 -0.14841163 -0.15753071 -0.036858626
0.05951238 0.047325663 -0.056128528 0.16077709 0.14984645 0.01123039 -0.13087544 -0.13523284
-0.13558319 -0.12552945 0.025081042 -0.10042731 -0.01774411 0.040852286 0.12895402 -0.05624028
-0.09892592 0.099076636 -0.13979994 0.0138878515 -0.017801484 0.113351345 0.12711002 0.038949832
-0.13385448 0.09944844 -0.19302328 -0.030592179 0.14441437 0.19204076 0.15045615 0.08672075
-0.08088535 0.018795945 -0.0017108645 -0.10749395 -0.08278009 0.1303237 -0.13137864 0.081801325
-0.07539374 0.13365284 0.060900703 -0.06998145 0.054128617 -0.18378672 0.09839274 0.07744483
0.16260159 0.15199022 -0.10746864 -0.11904579 -0.06474253 -0.2223955 0.06457401 -0.055491067
-0.16183627 0.005958177 0.08678065 -0.1611688 0.10872101 0.1275511 -0.015984513 0.10057995
-0.12869138 0.020995552 0.049178842 0.00077663054 0.024845328 0.023652606 -0.06614987 0.14937253
00000000: 7512 8a3d 0d87 6dbd 4da2 323d d61a d8bd
00000010: d42f 26be 718e 05be acfc aabd 6393 09be
00000020: 4f64 4d3e f0e9 abbd a5bf 06be 2654 9abd
00000030: 507c 5fbc 6caa 223e 21d3 15be adef 10be
00000040: 70ef f23b 8db6 933c 8593 d9bc 079d b43b
00000050: cb9e 18be ae09 b9bd af2d 123e fe82 d3bd
00000060: 9638 50bd f30e 003c c824 02bd f5c5 5e3c
00000070: f6b5 b73d 061c ba3c 66e8 68be c25c 1f3b
00000080: 3663 ffbc 0c3b 92bd f8d5 fcbd 5fc4 fabd
00000090: 2390 a03d ad34 3dbe d686 3dbe d82d 3abe
000000a0: 621d 9b3d 44e5 a4bd d94e 36bd db70 b4bd
000000b0: b183 4fbe 3b7b f3bc 473c 87bd c279 2abe
000000c0: 451c eb3c 2a94 5bbe 0862 1ebc f1b2 08bd
000000d0: 0cce 82bd 16bd 8ebd 6d36 ab3d afee b73d
000000e0: ef65 333e 90a9 b0bc 8d57 743d 0b87 123c
000000f0: 4433 3f3e 0ebb 183e 2fe7 f8bd cfaf 7cbe
00000100: 7e57 dfbc a5ca f1bc a438 fb3b 192f 243e
00000110: 6c65 e2bd e4cc 263e b27a 14bd 2259 293e
00000120: a109 12bd 16bb a1bd e952 c43c ab56 013e
00000130: b29a 55bd 7553 16be ef26 e93d 8eb9 e5bd
00000140: af4f e13c bb8c 843d d2b2 0bbe 0aef b13d
00000150: 292e 22be 50c1 303e b973 b43d 209c 0dbe
00000160: 5f25 5e3b fe25 043e 0b5d c03d 936f 153e
00000170: d2f9 8ebd ad4d 723d 439c 6f3d 8d62 9abd
00000180: 36f8 413d 461e 863d f299 30be e065 3cbd
00000190: 968a 27bd 2000 1b3e 816b abbd 4917 483e
000001a0: bd7f 923d 8792 723d 64dc d33d 0642 98bd
000001b0: 119d 82bd 1aea ffbd 5191 e5bd 99c0 aa3d
000001c0: 6972 4a3b 7d11 ea3b fc25 143c 2ffc 95bd
000001d0: 5277 2ebe e82a c73c 0969 32be 3038 bb3d
000001e0: 0dff c2bc 36d3 8c3d 324b 033e d304 a53d
000001f0: cb7f 13bd 7f47 8f3d 0b7e b6bc cd83 db3d
00000200: 989b bcbd eae8 d1bc 33ec 9ebd d06a d1bd
00000210: 8378 33be f169 a0bd 2694 45be 448d 903d
00000220: 52d6 e43d aeae 8e3d d196 403e 7359 ed3c
00000230: 400c 94bd 0424 263e cdd3 f7bd b25f a83c
00000240: cb1d b53c e59b c53d fb75 73bd 299d 82bd
00000250: 2a02 6e3c 2d6b 3cbe ee11 3cbd 4a1b 13be
00000260: 1c15 123d 3e70 72bd a02d 74bb 4b78 2dbe
00000270: 45d0 b23d 7e9d a0bc 1dcd dcba 49f3 fabd
00000280: 87a6 1abe 5e5e 0b3e ad7b d33d ee67 cebc
00000290: 230a a73b 628b 4ebd be47 6ebe 97d9 1e3d
000002a0: 8028 ad3d e203 f13d d68c 10be f40f 2c3d
000002b0: 7df7 3cbe 52bc aabd 0560 143e d347 193e
000002c0: 1314 efbd 902e 38be 88ad 5a3d e597 99bd
000002d0: 280a fd3d 38f9 17be bb4f 21be 12f9 16bd
000002e0: 41c3 733d 8ed8 413d 07e7 65bd c0a2 243e
000002f0: 5971 193e abff 373c 3604 06be 7a7a 0abe
00000300: 52d6 0abe cb8a 00be c276 cd3c d5ac cdbd
00000310: 195c 91bc ba54 273d 860c 043e 355c 66bd
00000320: ac99 cabd b1e8 ca3d b727 0fbe df89 633c
00000330: 6bd4 91bc c024 e83d 2129 023e dc89 1f3d
00000340: 2611 09be a0ab cb3d e5a7 45be 739c fabc
00000350: 5ce1 133e 55a6 443e 2d11 1a3e a69a b13d
00000360: 38a7 a5bd f4f9 993c 163f e0ba ca25 dcbd
00000370: 9c88 a9bd 9373 053e 1f88 06be 7487 a73d
00000380: 0868 9abd 4adc 083e 0473 793d 6f52 8fbd
00000390: f8b5 5d3d 9632 3cbe 2282 c93d 659b 9e3d
000003a0: 0881 263e 53a3 1b3e 8518 dcbd 47ce f3bd
000003b0: bb97 84bd a5bb 63be 613f 843d 9a4a 63bd
000003c0: 68b8 25be d03c c33b 0eba b13d 6f09 25be
000003d0: 1fa9 de3d c19c 023e f4f1 82bc dcfc cd3d
000003e0: acc7 03be ddfe ab3c c16f 493d cb96 4b3a
000003f0: 6e88 cb3c 1cc3 c13c 9579 87bd 1df5 183e

conv2.lin_dst.weight f4 [128, 64]
0.06741802 -0.057990123 0.043611813 -0.105519935 -0.16229182 -0.13042618 -0.083489746 -0.1343513
0.20057796 -0.083942294 -0.13159044 -0.07535581 -0.013640478 0.15885323 -0.1463132 -0.14153929
0.007413797 0.018031383 -0.0265596 0.005511883 -0.14904325 -0.090350494 0.1427524 -0.10327719
-0.050835215 0.007816064 -0.03177336 0.013597001 0.08970253 0.02271844 -0.22744903 0.0024316763
-0.031175237 -0.071401685 -0.12345499 -0.12244486 0.07839992 -0.18477125 -0.18508467 -0.1818155
0.07573964 -0.080515414 -0.04450879 -0.08810588 -0.2026508 -0.029721847 -0.06603294 -0.1664801
0.028700003 -0.21443239 -0.009666927 -0.033373777 -0.063869566 -0.06969659 0.0835999 0.08981072
0.17519353 -0.021565229 0.059653807 0.00894333 0.186719 0.14915106 -0.1215347 -0.2467644
-0.0272634 -0.029515574 0.007666664 0.16033591 -0.11054501 0.16289097 -0.036249824 0.16537908
-0.035653714 -0.07897012 0.023965316 0.12630717 -0.052149482 -0.14680274 0.11384379 -0.112170324
0.027503816 0.06472155 -0.13642433 0.08688171 -0.15837921 0.17261243 0.08811135 -0.13829088
0.0033896787 0.12905118 0.093927465 0.14593343 -0.06981243 0.05915611 0.058498632 -0.07538328
0.047355853 0.06548743 -0.17246225 -0.045995593 -0.04090365 0.15136766 -0.08370114 0.19540133
0.071532704 0.05922177 0.103447706 -0.07434468 -0.06377614 -0.12495823 -0.112093575 0.08337516
0.0030890948 0.007143198 0.009042259 -0.07323491 -0.17037705 0.024312451 -0.1742288 0.09141576
-0.023803258 0.06876223 0.12821653 0.08057561 -0.036010545 0.06996059 -0.022276899 0.107184984
-0.09209365 -0.025623757 -0.07759895 -0.10225451 -0.1752644 -0.07832707 -0.19294795 0.07058194
0.11173691 0.06966911 0.18807532 0.028973317 -0.07228899 0.16224676 -0.12100945 0.020553444
0.022108933 0.09648875 -0.059438687 -0.06377632 0.014526883 -0.1840026 -0.045915537 -0.14365879
0.035664663 -0.059189074 -0.003725864 -0.1694042 0.087311305 -0.019606348 -0.0016845796 -0.12253434
-0.15102588 0.13610217 0.10326324 -0.025196042 0.005097644 -0.050425895 -0.23269555 0.03878173
0.084549904 0.11768319 -0.14116225 0.0420074 -0.18453784 -0.083367005 0.14489754 0.14968805
-0.11673751 -0.17986512 0.05338815 -0.07499675 0.12355453 -0.14841163 -0.15753071 -0.036858626
0.05951238 0.047325663 -0.056128528 0.16077709 0.14984645 0.01123039 -0.13087544 -0.13523284
-0.13558319 -0.12552945 0.025081042 -0.10042731 -0.01774411 0.040852286 0.12895402 -0.05624028
-0.09892592 0.099076636 -0.13979994 0.0138878515 -0.017801484 0.113351345 0.12711002 0.038949832
-0.13385448 0.09944844 -0.19302328 -0.030592179 0.14441437 0.19204076 0.15045615 0.08672075
-0.08088535 0.018795945 -0.0017108645 -0.10749395 -0.08278009 0.1303237 -0.13137864 0.081801325
-0.07539374 0.13365284 0.060900703 -0.06998145 0.054128617 -0.18378672 0.09839274 0.07744483
0.16260159 0.15199022 -0.10746864 -0.11904579 -0.06474253 -0.2223955 0.06457401 -0.055491067
-0.16183627 0.005958177 0.08678065 -0.1611688 0.10872101 0.1275511 -0.015984513 0.10057995
-0.12869138 0.020995552 0.049178842 0.00077663054 0.024845328 0.023652606 -0.06614987 0.14937253
00000000: 7512 8a3d 0d87 6dbd 4da2 323d d61a d8bd
00000010: d42f 26be 718e 05be acfc aabd 6393 09be
00000020: 4f64 4d3e f0e9 abbd a5bf 06be 2654 9abd
00000030: 507c 5fbc 6caa 223e 21d3 15be adef 10be
00000040: 70ef f23b 8db6 933c 8593 d9bc 079d b43b
00000050: cb9e 18be ae09 b9bd af2d 123e fe82 d3bd
00000060: 9638 50bd f30e 003c c824 02bd f5c5 5e3c
00000070: f6b5 b73d 061c ba3c 66e8 68be c25c 1f3b
00000080: 3663 ffbc 0c3b 92bd f8d5 fcbd 5fc4 fabd
00000090: 2390 a03d ad34 3dbe d686 3dbe d82d 3abe
000000a0: 621d 9b3d 44e5 a4bd d94e 36bd db70 b4bd
000000b0: b183 4fbe 3b7b f3bc 473c 87bd c279 2abe
000000c0: 451c eb3c 2a94 5bbe 0862 1ebc f1b2 08bd
000000d0: 0cce 82bd 16bd 8ebd 6d36 ab3d afee b73d
000000e0: ef65 333e 90a9 b0bc 8d57 743d 0b87 123c
000000f0: 4433 3f3e 0ebb 183e 2fe7 f8bd cfaf 7cbe
00000100: 7e57 dfbc a5ca f1bc a438 fb3b 192f 243e
00000110: 6c65 e2bd e4cc 263e b27a 14bd 2259 293e
00000120: a109 12bd 16bb a1bd e952 c43c ab56 013e
00000130: b29a 55bd 7553 16be ef26 e93d 8eb9 e5bd
00000140: af4f e13c bb8c 843d d2b2 0bbe 0aef b13d
00000150: 292e 22be 50c1 303e b973 b43d 209c 0dbe
00000160: 5f25 5e3b fe25 043e 0b5d c03d 936f 153e
00000170: d2f9 8ebd ad4d 723d 439c 6f3d 8d62 9abd
00000180: 36f8 413d 461e 863d f299 30be e065 3cbd
00000190: 968a 27bd 2000 1b3e 816b abbd 4917 483e
000001a0: bd7f 923d 8792 723d 64dc d33d 0642 98bd
000001b0: 119d 82bd 1aea ffbd 5191 e5bd 99c0 aa3d
000001c0: 6972 4a3b 7d11 ea3b fc25 143c 2ffc 95bd
000001d0: 5277 2ebe e82a c73c 0969 32be 3038 bb3d
000001e0: 0dff c2bc 36d3 8c3d 324b 033e d304 a53d
000001f0: cb7f 13bd 7f47 8f3d 0b7e b6bc cd83 db3d
00000200: 989b bcbd eae8 d1bc 33ec 9ebd d06a d1bd
00000210: 8378 33be f169 a0bd 2694 45be 448d 903d
00000220: 52d6 e43d aeae 8e3d d196 403e 7359 ed3c
00000230: 400c 94bd 0424 263e cdd3 f7bd b25f a83c
00000240: cb1d b53c e59b c53d fb75 73bd 299d 82bd
00000250: 2a02 6e3c 2d6b 3cbe ee11 3cbd 4a1b 13be
00000260: 1c15 123d 3e70 72bd a02d 74bb 4b78 2dbe
00000270: 45d0 b23d 7e9d a0bc 1dcd dcba 49f3 fabd
00000280: 87a6 1abe 5e5e 0b3e ad7b d33d ee67 cebc
00000290: 230a a73b 628b 4ebd be47 6ebe 97d9 1e3d
000002a0: 8028 ad3d e203 f13d d68c 10be f40f 2c3d
000002b0: 7df7 3cbe 52bc aabd 0560 143e d347 193e
000002c0: 1314 efbd 902e 38be 88ad 5a3d e597 99bd
000002d0: 280a fd3d 38f9 17be bb4f 21be 12f9 16bd
000002e0: 41c3 733d 8ed8 413d 07e7 65bd c0a2 243e
000002f0: 5971 193e abff 373c 3604 06be 7a7a 0abe
00000300: 52d6 0abe cb8a 00be c276 cd3c d5ac cdbd
00000310: 195c 91bc ba54 273d 860c 043e 355c 66bd
00000320: ac99 cabd b1e8 ca3d b727 0fbe df89 633c
00000330: 6bd4 91bc c024 e83d 2129 023e dc89 1f3d
00000340: 2611 09be a0ab cb3d e5a7 45be 739c fabc
00000350: 5ce1 133e 55a6 443e 2d11 1a3e a69a b13d
00000360: 38a7 a5bd f4f9 993c 163f e0ba ca25 dcbd
00000370: 9c88 a9bd 9373 053e 1f88 06be 7487 a73d
00000380: 0868 9abd 4adc 083e 0473 793d 6f52 8fbd
00000390: f8b5 5d3d 9632 3cbe 2282 c93d 659b 9e3d
000003a0: 0881 263e 53a3 1b3e 8518 dcbd 47ce f3bd
000003b0: bb97 84bd a5bb 63be 613f 843d 9a4a 63bd
000003c0: 68b8 25be d03c c33b 0eba b13d 6f09 25be
000003d0: 1fa9 de3d c19c 023e f4f1 82bc dcfc cd3d
000003e0: acc7 03be ddfe ab3c c16f 493d cb96 4b3a
000003f0: 6e88 cb3c 1cc3 c13c 9579 87bd 1df5 183e

bn2.module.weight f4 [128]
0.9697198 0.93991536 1.0244343 0.98028517 0.967192 1.0267687 0.99633914 0.96686316
1.0050783 1.0208015 0.98122185 1.0341424 1.0265503 0.9673134 0.9802121 0.98353547
0.9515458 0.99587667 0.9566648 1.0106986 1.003376 0.9869275 0.956064 1.0132548
0.99124444 1.0214974 0.9802476 1.0334246 0.9460066 0.97779983 0.97072846 1.0112656
1.0324869 1.0143713 1.0572505 1.0511403 1.0596607 0.9866506 1.0268713 0.993825
1.0060148 1.0472056 1.0161583 0.9388604 1.0212342 0.9481748 1.0772573 0.97787297
1.0587032 1.019503 0.98913276 0.9949194 1.0668603 0.99742025 0.98738533 0.99451905
1.0465974 0.9733204 1.0833597 0.9630927 1.0519072 1.0350423 0.9568974 0.9774802
0.97553456 1.0272615 1.0550611 1.00514 0.97932 1.0168724 1.0410892 1.0541831
1.0337601 0.9874665 1.0575571 0.99616927 1.0424126 0.9876264 1.0157222 0.9826074
1.0992739 1.0177102 1.0052344 1.0702729 1.0486166 0.99688345 1.050737 0.9882633
0.9791694 1.0033231 0.9945997 1.0193121 1.0350695 1.0550777 1.0108047 1.0200381
0.99710256 1.0263627 1.0083027 0.99820185 0.9747927 1.0380276 0.99176294 1.0066102
0.9859363 1.0283431 1.0209932 1.0135875 0.99817324 1.022793 1.030763 0.98468363
1.0329949 0.9951638 1.0139558 1.0061489 1.0311849 1.0577667 1.0303354 0.9995312
1.0134168 1.0271581 1.026253 0.99485874 1.0523243 1.0019451 1.0387032 1.0824394
00000000: 8f3f 783f 4b9e 703f aa20 833f f8f3 7a3f
00000010: e599 773f 286d 833f 1510 7f3f 5884 773f
00000020: 68a6 803f a0a9 823f 5b31 7b3f c75e 843f
00000030: 0066 833f daa1 773f 2eef 7a3f fbc8 7b3f
00000040: 8198 733f c6f1 7e3f fce7 743f 925e 813f
00000050: a06e 803f 48a7 7c3f 9cc0 743f 55b2 813f
00000060: 32c2 7d3f 6dc0 823f 82f1 7a3f 4247 843f
00000070: 7d2d 723f 1751 7a3f a981 783f 2771 813f
00000080: 8828 843f ebd6 813f fc53 873f c48b 863f
00000090: f6a2 873f 2295 7c3f 8570 833f 516b 7e3f
000000a0: 18c5 803f d50a 863f 7a11 823f 2859 703f
000000b0: cdb7 823f 95bb 723f 91e3 893f e255 7a3f
000000c0: 9683 873f 137f 823f ce37 7d3f 0ab3 7e3f
000000d0: e18e 883f ef56 7f3f 49c5 7c3f cd98 7e3f
000000e0: e7f6 853f 872b 793f 88ab 8a3f 3e8d 763f
000000f0: e5a4 863f 447c 843f 3af7 743f 243c 7a3f
00000100: a2bc 793f 4e7d 833f 3e0c 873f 6da8 803f
00000110: b7b4 7a3f e028 823f 6942 853f 79ef 863f
00000120: 4052 843f 9bca 7c3f 085e 873f f304 7f3f
00000130: c76d 853f 15d5 7c3f 2f03 823f 298c 7b3f
00000140: 02b5 8c3f 5444 823f 85ab 803f b4fe 883f
00000150: 1239 863f c133 7f3f 8d7e 863f d3fe 7c3f
00000160: d9aa 7a3f e46c 803f 169e 7e3f d278 823f
00000170: 287d 843f c90c 873f 0c62 813f 9c90 823f
00000180: 1d42 7f3f da5f 833f 1010 813f 288a 7f3f
00000190: 048c 793f 17de 843f 2de4 7d3f 9ad8 803f
000001a0: 5266 7c3f bfa0 833f e8af 823f 3cbd 813f
000001b0: 4888 7f3f e2ea 823f 0bf0 833f 3a14 7c3f
000001c0: 2d39 843f 0ec3 7e3f 4ec9 813f 7dc9 803f
000001d0: defd 833f e664 873f 08e2 833f 47e1 7f3f
000001e0: a4b7 813f eb79 833f 425c 833f 10af 7e3f
000001f0: 90b2 863f bd3f 803f 3af4 843f 608d 8a3f
