res/best_gat_task1_seed_1.pt (torch, 797309 bytes, 39 tensors)

conv1.att_src f4 [1, 2, 32]
00000000: fb43 34be 1837 d03d fc27 a4be 4c76 53be
00000010: 0393 373d 3a9c 63be 844b 2b3e be0a c1be
00000020: 6649 653d 4ea8 94be 4190 2cbd 2d55 813d
00000030: b1ee 1cbe 9b4d 0a3e 90c2 d33e f24a a63e
00000040: 9ec7 ac3e 9f37 963d 3497 f0bd cd95 94bc
00000050: 0a60 c83e f2e3 cc3e 63fd 16be b09a ee3c
00000060: 7d95 60bd 60bc d03e be33 51be 1a47 38be
00000070: 07ab be3e d411 903e abe6 15bd 02a9 4c3c
00000080: 96a8 0c3e cbbd 9c3e ac3f 943e b34f b2be
00000090: 24a3 4d3e d21c ad3e a7fb 91be 110e 4fbe
000000a0: 10b0 c63e 6112 a3be 9b73 84be 6639 b1be
000000b0: 508b 80bd 15c1 383e f9ac 07be 684f 8cbb
000000c0: dabe f53d ced8 4abe 41ad 553e f128 ad3d
000000d0: 43bf abbe be59 b6be b5ca 2bbe 1065 82bd
000000e0: 3b98 123e 5aa6 bfbe bd8c a9bd f322 f93d
000000f0: ecda 89bd 2f5c 7f3e 2848 cb3e 63c6 c9be
-0.17604057 0.10166758 -0.32061756 -0.20650595 0.044817936 -0.22227564 0.16728026 -0.37703508
0.0559782 -0.29034656 -0.04212976 0.06315074 -0.15325429 0.13506167 0.41359377 0.32479054
0.33746046 0.07334828 -0.1174759 -0.018137837 0.39135772 0.40017658 -0.14745097 0.029126495
-0.054830063 0.4076872 -0.20429894 -0.17995873 0.37239859 0.28138602 -0.036596935 0.0124914665
0.13736185 0.3061355 0.28954828 -0.3482643 0.20081764 0.3381105 -0.28512308 -0.2022021
0.388062 -0.3184996 -0.2586945 -0.34614104 -0.06276572 0.18042405 -0.13249578 -0.004281927
0.11999293 -0.19809267 0.20866872 0.084550746 -0.3354436 -0.35615343 -0.16776545 -0.063669324
0.14315884 -0.37431604 -0.08278797 0.12164869 -0.06731209 0.24937509 0.39703488 -0.3940917

conv1.att_dst f4 [1, 2, 32]
00000000: 48b1 9cbe 06f8 42be 40de d43d e587 19be
00000010: dc7b bfbe eb99 543e 12c4 3f3e 7305 6e3e
00000020: c6ca 91bb 39cd 8c3e f504 b03e 4132 23be
00000030: 30b9 bcbd d1ce bbbe 43f3 90be c882 1cbe
00000040: 2bd0 cebe 279f 51be 7c48 3fbe e2ec 21bd
00000050: 509e bf3e 707d bcbe 3615 4b3e 58df 15be
00000060: 8443 63be f3ed b13e f8b7 42be 457a b23c
00000070: 4c84 abbe 8e37 abbe 3945 ba3e 645f c23d
00000080: a95b 8bbe 4ff9 323e e6df 42be 3176 bc3e
00000090: 43eb f9bd ec8b 973d c7ee 7cbe 1556 103e
000000a0: 7140 5abd cd93 ad3d 43dc 7d3e 61b8 d5be
000000b0: b22e 80be f27a aebd 607c acbe 7b10 c23e
000000c0: 74ba bf3e 02d2 803c 9341 c6be c2e2 fe3d
000000d0: fc2c ca3e 9aa2 adbe 102f c4bd e665 cdbe
000000e0: 152f d23e 702f 96be 3c13 663e 9d61 afbe
000000f0: 9820 ca3e b4b3 2f3e 75e7 b2be 4555 3fbe
-0.30604005 -0.19039926 0.10393953 -0.14993246 -0.37399185 0.2076184 0.18727139 0.23244266
-0.0044492213 0.27500322 0.34378782 -0.15937139 -0.09215009 -0.36681226 -0.28310594 -0.15284264
-0.40393195 -0.20470868 -0.18679994 -0.03953255 0.3742547 -0.3681445 0.1983231 -0.1463598
-0.22193724 0.34751853 -0.19015491 0.021786818 -0.33499372 -0.33440822 0.36380938 0.094908506
-0.2721837 0.17477916 -0.19030723 0.36808923 -0.12203076 0.07399735 -0.24700461 0.14095338
-0.053284112 0.084754564 0.24791054 -0.41742232 -0.25035626 -0.08519544 -0.3368864 0.379032
0.3744694 0.01572514 -0.38721904 0.12445594 0.39487445 -0.33913118 -0.09579289 -0.40116805
0.41051546 -0.29333067 0.22468275 -0.3425416 0.39477992 0.17158395 -0.34942213 -0.18684871

conv1.bias f4 [64]
00000000: e3c7 5bba b90a 0a3a 5ed1 6db9 50f1 6e3a
00000010: 39bc 2eb9 1f56 2bb9 f2e1 6fba a170 b03a
00000020: f2a5 12bb abe7 3139 541f e7ba 9203 8bb9
00000030: a5b8 09bb 4824 66ba e032 ca3a 4699 a0b8
00000040: ca20 6739 d5f2 5e3a 0a93 d0b7 eb6d b337
00000050: ddca 8db9 1ed2 b6ba 2505 383a 544e e139
00000060: 27cf a638 403a 08ba 6d72 f739 0878 243b
00000070: 6982 9c37 cc69 fdb9 bc60 6e39 761a 23b8
00000080: 0e05 c0b9 263a b43a d540 afb6 1902 c83a
00000090: 600b 923a e2ec a6ba 134f 7939 b936 23bb
000000a0: 641b 2d3a c2e9 9aba cc0d ec3a b74f ceb9
000000b0: 8a02 00ba 03eb 1dba 431c c53b 0190 04ba
000000c0: 2e8b 86b8 ac03 5e39 1a4e 3c3a 72a5 22ba
000000d0: 8de5 8639 bc7e b63b ce9c 70ba 124c 463a
000000e0: dced 7f3b 1c93 a8b9 5080 373b ca3e c03a
000000f0: 208b bc3a d679 0bba c70e 203a d2ee 543a
-0.00083839725 0.000526588 -0.00022680077 0.0009114938 -0.00016664052 -0.00016339913 -0.0009150795 0.00134613
-0.0022376743 0.00016966338 -0.0017633238 -0.00026514806 -0.0021014598 -0.000877921 0.0015426539 -7.657944e-05
0.00022042092 0.0008504813 -2.4864003e-05 2.1389647e-05 -0.0002704476 -0.0013948118 0.00070198096 0.00042973703
7.954082e-05 -0.0005196668 0.00047196765 0.0025095958 1.8657376e-05 -0.00048334745 0.00022733485 -3.8886872e-05
-0.0003662486 0.001375024 -5.222954e-06 0.0015259414 0.0011142306 -0.0012735392 0.00023775948 -0.0024904443
0.0006603508 -0.0011818933 0.0018009483 -0.00039350774 -0.0004883191 -0.0006024094 0.006015332 -0.00050568586
-6.415542e-05 0.00021172938 0.0007183269 -0.0006204463 0.000257295 0.005569307 -0.0009178639 0.0007564436
0.0039051687 -0.00032153062 0.0028000064 0.001466715 0.0014384724 -0.0005320584 0.00061057176 0.0008122745

conv1.lin_src.weight f4 [64, 11]
00000000: 2ffc 02be 603b a6bd 2458 c83c 2186 693d
00000010: 858d 803e 21b2 87be 453c 803e 1e09 51bc
00000020: 814d 723d 4fdf 7a3e b937 2fbe 1cda 61bd
00000030: ee61 753e a5ca d03d 68d8 c4bd 6645 883e
00000040: 28c9 be3d 83f5 3f3e fd9b 7c3e 5b9b d83d
00000050: 098d 73be 76b5 c9bc 2da7 41be df72 403e
00000060: 6296 00be 1be1 ac3d ff07 86bc eedc 1dbe
00000070: e286 373e 2148 173e 5299 b2bd f0c4 f13d
00000080: 2f68 363e e819 2abe e804 353e 83b3 2e3e
00000090: aa69 6b3e f70b b03d 09c1 20be 31ca c9bd
000000a0: d4ff 6bbe 4481 88be 8659 893c acdd 083e
000000b0: 6ead 3bbe dad6 98bd 9781 82be 3163 b4bd
000000c0: 9850 31be faeb f33d a930 823e 17aa 4fbd
000000d0: 3c78 18be a018 713e 45b5 383e 36f4 0b3e
000000e0: e3c3 88be ef2a 4b3e b775 c1bd 0786 9c3d
000000f0: 4f58 303e 636e 16be 0071 013e 6223 843d
00000100: 91ae ca3d ab81 8c3e 0deb 233e 0438 57bd
00000110: 7763 68be 6608 373e 3560 2abe 1285 35be
00000120: 6bd2 cbbd 7752 683e efd6 1b3e 3d5e 583e
00000130: a8e9 5bbe c5a2 803c 3a73 53be 878b 583e
00000140: 17c5 4e3e 4b6c 7f3d da3a 1abe 3553 80be
00000150: 31c5 80be ef1e 623d 02d6 f53d 52f9 633e
00000160: 107d 82be 07a9 a03d 146b 8e3d 742b 6b3e
00000170: 85f0 573e 95eb d93c c7f2 953d 80ff 993c
00000180: 9414 603e a859 82be 5c39 b63d 7813 253d
00000190: e34d 38bd 05e1 aa3b 13a4 833c ed7c 1abe
000001a0: 329d 743c 37bc 853e 601b dd3d c8cb 08be
000001b0: 7c2a 7ebe 1b30 3d3e 7534 16bd 09b6 163e
000001c0: 3470 8b3e 66ee 03be 1b9d 3abe e2f0 c53d
000001d0: f77f 83be 640a 76be 56f5 6bbe 1370 38bd
000001e0: 9e9c aa3d 8d87 143e 4b98 b1bd 7d38 c4bd
000001f0: fe74 233e 1844 6c3e 42ca 1d3e e6e3 013e
00000200: 9f13 d63a d306 803e 09b0 0ebe 0f69 e43d
00000210: 4f1d d6bd 7135 7a3e b799 463d b0b7 06be
00000220: 0797 6a3e fa4b 9b3d 3cb5 853d dbcc a9bd
00000230: deb6 19be 4f6e 5ebe f211 8abe 849f ff3c
00000240: 050b cd3c 2dd4 733e f5cd 49bd c703 113e
00000250: 8de4 753e de4f 61be f48b 8ebe 1f90 85be
00000260: 59a5 8fbe cfcf 13be 7cf7 303d eccb 6cbe
00000270: 3346 3cbe 65bc 3dbe bff0 d13d f213 4e3e
00000280: f7f2 8b3e 2e14 073d 6343 06be dae1 0c3d
00000290: 6164 633e 5cfe 403e 7aca 80ba 3c13 2d3c
000002a0: 8b59 2dbd 7a43 5bbd 4906 6bbe 69f4 543e
000002b0: 8c1b 553e 98c5 83be 6fb5 1ebe de49 493e
000002c0: 1dee 89be cb23 00bd 55cf 583e 53dc 803e
000002d0: 25b3 88be 8c9b 403e b3cd 72be 89d0 993d
000002e0: 314a 9b3d fbdc 38be 4f84 213e 6474 52bc
000002f0: 185e 2bbe 043b 443e 96ba 85bc 2db3 b83d
00000300: 1f93 85be 66e0 293e 0717 6a3e 7ad0 4b3d
00000310: 3c74 0a3e b6dd 8ebd 7f95 79bd 12c6 60bd
00000320: a81b 783d 54b8 073e f2e1 d33d 658f acbd
00000330: 920c 34be 4c9b 83be 80a8 4e3e d8ca abbd
00000340: c640 04be c0be 79be 600f 57be c3a8 913d
00000350: 9639 813d 0f98 853e ca5b 1fbe 9f0d 7f3e
00000360: 88be f0bd e816 82bd 124d 48bd 0c10 74be
00000370: 8273 08be 7fcc 603d 18a1 643b 3392 70be
00000380: a43a 0d3d 17c2 8fbc 7d57 45be ad4b 37be
00000390: 5cd6 e23d 6e25 b23d b85a b03d 2585 65be
000003a0: 6ce8 013e 99be 643c 1721 eebd 1547 173e
000003b0: e77e 0dbd 165f 82be 2690 bebd c830 c73d
000003c0: 7844 abbd 9910 6abe e145 f13c 6d0c 40be
000003d0: 4177 f0bc bc7f 15bd d4b4 5d3e 8a0a 473e
000003e0: 1f74 8f3e 201c 88be 9c37 893e 393e 2f3d
000003f0: ef31 81be 0c52 bb3c d0e3 133e 30b6 bfbd
-0.12791513 -0.08116794 0.024456091 0.05701268 0.2510797 -0.2650309 0.25045982 -0.012758521
0.059155945 0.24499248 -0.171111 -0.055139646 0.23963138 0.101949014 -0.09611589 0.26615447
0.09315711 0.18745999 0.2466888 0.10576507 -0.2378427 -0.02462266 -0.18911429 0.1879382
-0.12557366 0.08441373 -0.016361235 -0.15416309 0.17922547 0.14773609 -0.0872065 0.11805141
0.1781318 -0.16611445 0.17677653 0.17060666 0.22989526 0.08596032 -0.15698637 -0.09853018
-0.2304681 -0.26661122 0.01676632 0.13365811 -0.18327877 -0.07462855 -0.25489494 -0.08807982
-0.173159 0.11910243 0.2542775 -0.05069932 -0.14889616 0.2354455 0.18037899 0.13667378
-0.2671195 0.19840597 -0.094462804 0.07642751 0.17221187 -0.14690547 0.12640762 0.06452061
0.09896577 0.2744268 0.16007634 -0.052543655 -0.22694193 0.17874297 -0.16638263 -0.17726544
-0.099522434 0.22687708 0.1521871 0.21129699 -0.21475852 0.015702615 -0.20649424 0.21146975
0.20192371 0.062359136 -0.15061513 -0.25063482 -0.25150445 0.05520528 0.120037094 0.22263077
-0.2548604 0.078447394 0.06954017 0.22965795 0.21087845 0.026601592 0.07321697 0.01879859
0.2188285 -0.25459027 0.08897659 0.04030177 -0.044996154 0.0052148127 0.016069448 -0.15086718
0.014930056 0.2612016 0.10796237 -0.13358986 -0.24820894 0.18475382 -0.03667112 0.14717878
0.27234042 -0.1288391 -0.18223993 0.096650854 -0.25683567 -0.24027401 -0.23042807 -0.045028757
0.083306536 0.14504834 -0.08671626 -0.09581087 0.15962598 0.2307285 0.15409186 0.12684593
0.0016332752 0.25005206 -0.1393434 0.11152851 -0.10454809 0.24434449 0.048486438 -0.13156009
0.22909175 0.07582851 0.06528708 -0.08291026 -0.15011165 -0.21721767 -0.26966816 0.031203993
0.025029669 0.23811407 -0.04926868 0.14161597 0.24012966 -0.22003123 -0.2784115 -0.26086518
-0.28055838 -0.14434741 0.04320477 -0.23124665 -0.18386154 -0.18528898 0.10250997 0.20124796
0.27333805 0.03297823 -0.13111643 0.034395076 0.2220626 0.1884703 -0.0009825968 0.010563668
-0.042321723 -0.053531148 -0.22951616 0.2079636 0.2081129 -0.2573669 -0.15498899 0.19657084
-0.2693948 -0.031284135 0.21172841 0.25168094 -0.26699176 0.18809336 -0.2371128 0.07510478
0.0758251 -0.18053047 0.15773128 -0.0128451325 -0.16735113 0.19163138 -0.016324323 0.0901855
-0.26088807 0.16589507 0.22860347 0.049759366 0.13520902 -0.06975882 -0.060933586 -0.054876395
0.06057325 0.1325391 0.1034583 -0.08425788 -0.1758292 -0.2570442 0.20181465 -0.08388299
-0.12915334 -0.24389172 -0.21001959 0.07112267 0.06309812 0.26092574 -0.15562358 0.2490754
-0.11755091 -0.06352025 -0.048901625 -0.23834246 -0.13325313 0.054882523 0.0034886058 -0.2349327
0.034479752 -0.017548604 -0.19271655 -0.17899962 0.11076042 0.086985454 0.08611053 -0.22414072
0.12686318 0.013961458 -0.11627405 0.1477321 -0.03454485 -0.2546317 -0.09304838 0.09726101
-0.08362669 -0.22857894 0.029452266 -0.1875474 -0.02935374 -0.03649877 0.21651012 0.19437614
0.2801828 -0.26583958 0.2680024 0.04278395 -0.2523341 0.022866271 0.14442372 -0.093609214

conv1.lin_dst.weight f4 [64, 11]
00000000: 2ffc 02be 603b a6bd 2458 c83c 2186 693d
00000010: 858d 803e 21b2 87be 453c 803e 1e09 51bc
00000020: 814d 723d 4fdf 7a3e b937 2fbe 1cda 61bd
00000030: ee61 753e a5ca d03d 68d8 c4bd 6645 883e
00000040: 28c9 be3d 83f5 3f3e fd9b 7c3e 5b9b d83d
00000050: 098d 73be 76b5 c9bc 2da7 41be df72 403e
00000060: 6296 00be 1be1 ac3d ff07 86bc eedc 1dbe
00000070: e286 373e 2148 173e 5299 b2bd f0c4 f13d
00000080: 2f68 363e e819 2abe e804 353e 83b3 2e3e
00000090: aa69 6b3e f70b b03d 09c1 20be 31ca c9bd
000000a0: d4ff 6bbe 4481 88be 8659 893c acdd 083e
000000b0: 6ead 3bbe dad6 98bd 9781 82be 3163 b4bd
000000c0: 9850 31be faeb f33d a930 823e 17aa 4fbd
000000d0: 3c78 18be a018 713e 45b5 383e 36f4 0b3e
000000e0: e3c3 88be ef2a 4b3e b775 c1bd 0786 9c3d
000000f0: 4f58 303e 636e 16be 0071 013e 6223 843d
00000100: 91ae ca3d ab81 8c3e 0deb 233e 0438 57bd
00000110: 7763 68be 6608 373e 3560 2abe 1285 35be
00000120: 6bd2 cbbd 7752 683e efd6 1b3e 3d5e 583e
00000130: a8e9 5bbe c5a2 803c 3a73 53be 878b 583e
00000140: 17c5 4e3e 4b6c 7f3d da3a 1abe 3553 80be
00000150: 31c5 80be ef1e 623d 02d6 f53d 52f9 633e
00000160: 107d 82be 07a9 a03d 146b 8e3d 742b 6b3e
00000170: 85f0 573e 95eb d93c c7f2 953d 80ff 993c
00000180: 9414 603e a859 82be 5c39 b63d 7813 253d
00000190: e34d 38bd 05e1 aa3b 13a4 833c ed7c 1abe
000001a0: 329d 743c 37bc 853e 601b dd3d c8cb 08be
000001b0: 7c2a 7ebe 1b30 3d3e 7534 16bd 09b6 163e
000001c0: 3470 8b3e 66ee 03be 1b9d 3abe e2f0 c53d
000001d0: f77f 83be 640a 76be 56f5 6bbe 1370 38bd
000001e0: 9e9c aa3d 8d87 143e 4b98 b1bd 7d38 c4bd
000001f0: fe74 233e 1844 6c3e 42ca 1d3e e6e3 013e
00000200: 9f13 d63a d306 803e 09b0 0ebe 0f69 e43d
00000210: 4f1d d6bd 7135 7a3e b799 463d b0b7 06be
00000220: 0797 6a3e fa4b 9b3d 3cb5 853d dbcc a9bd
00000230: deb6 19be 4f6e 5ebe f211 8abe 849f ff3c
00000240: 050b cd3c 2dd4 733e f5cd 49bd c703 113e
00000250: 8de4 753e de4f 61be f48b 8ebe 1f90 85be
00000260: 59a5 8fbe cfcf 13be 7cf7 303d eccb 6cbe
00000270: 3346 3cbe 65bc 3dbe bff0 d13d f213 4e3e
00000280: f7f2 8b3e 2e14 073d 6343 06be dae1 0c3d
00000290: 6164 633e 5cfe 403e 7aca 80ba 3c13 2d3c
000002a0: 8b59 2dbd 7a43 5bbd 4906 6bbe 69f4 543e
000002b0: 8c1b 553e 98c5 83be 6fb5 1ebe de49 493e
000002c0: 1dee 89be cb23 00bd 55cf 583e 53dc 803e
000002d0: 25b3 88be 8c9b 403e b3cd 72be 89d0 993d
000002e0: 314a 9b3d fbdc 38be 4f84 213e 6474 52bc
000002f0: 185e 2bbe 043b 443e 96ba 85bc 2db3 b83d
00000300: 1f93 85be 66e0 293e 0717 6a3e 7ad0 4b3d
00000310: 3c74 0a3e b6dd 8ebd 7f95 79bd 12c6 60bd
00000320: a81b 783d 54b8 073e f2e1 d33d 658f acbd
00000330: 920c 34be 4c9b 83be 80a8 4e3e d8ca abbd
00000340: c640 04be c0be 79be 600f 57be c3a8 913d
00000350: 9639 813d 0f98 853e ca5b 1fbe 9f0d 7f3e
00000360: 88be f0bd e816 82bd 124d 48bd 0c10 74be
00000370: 8273 08be 7fcc 603d 18a1 643b 3392 70be
00000380: a43a 0d3d 17c2 8fbc 7d57 45be ad4b 37be
00000390: 5cd6 e23d 6e25 b23d b85a b03d 2585 65be
000003a0: 6ce8 013e 99be 643c 1721 eebd 1547 173e
000003b0: e77e 0dbd 165f 82be 2690 bebd c830 c73d
000003c0: 7844 abbd 9910 6abe e145 f13c 6d0c 40be
000003d0: 4177 f0bc bc7f 15bd d4b4 5d3e 8a0a 473e
000003e0: 1f74 8f3e 201c 88be 9c37 893e 393e 2f3d
000003f0: ef31 81be 0c52 bb3c d0e3 133e 30b6 bfbd
-0.12791513 -0.08116794 0.024456091 0.05701268 0.2510797 -0.2650309 0.25045982 -0.012758521
0.059155945 0.24499248 -0.171111 -0.055139646 0.23963138 0.101949014 -0.09611589 0.26615447
0.09315711 0.18745999 0.2466888 0.10576507 -0.2378427 -0.02462266 -0.18911429 0.1879382
-0.12557366 0.08441373 -0.016361235 -0.15416309 0.17922547 0.14773609 -0.0872065 0.11805141
0.1781318 -0.16611445 0.17677653 0.17060666 0.22989526 0.08596032 -0.15698637 -0.09853018
-0.2304681 -0.26661122 0.01676632 0.13365811 -0.18327877 -0.07462855 -0.25489494 -0.08807982
-0.173159 0.11910243 0.2542775 -0.05069932 -0.14889616 0.2354455 0.18037899 0.13667378
-0.2671195 0.19840597 -0.094462804 0.07642751 0.17221187 -0.14690547 0.12640762 0.06452061
0.09896577 0.2744268 0.16007634 -0.052543655 -0.22694193 0.17874297 -0.16638263 -0.17726544
-0.099522434 0.22687708 0.1521871 0.21129699 -0.21475852 0.015702615 -0.20649424 0.21146975
0.20192371 0.062359136 -0.15061513 -0.25063482 -0.25150445 0.05520528 0.120037094 0.22263077
-0.2548604 0.078447394 0.06954017 0.22965795 0.21087845 0.026601592 0.07321697 0.01879859
0.2188285 -0.25459027 0.08897659 0.04030177 -0.044996154 0.0052148127 0.016069448 -0.15086718
0.014930056 0.2612016 0.10796237 -0.13358986 -0.24820894 0.18475382 -0.03667112 0.14717878
0.27234042 -0.1288391 -0.18223993 0.096650854 -0.25683567 -0.24027401 -0.23042807 -0.045028757
0.083306536 0.14504834 -0.08671626 -0.09581087 0.15962598 0.2307285 0.15409186 0.12684593
0.0016332752 0.25005206 -0.1393434 0.11152851 -0.10454809 0.24434449 0.048486438 -0.13156009
0.22909175 0.07582851 0.06528708 -0.08291026 -0.15011165 -0.21721767 -0.26966816 0.031203993
0.025029669 0.23811407 -0.04926868 0.14161597 0.24012966 -0.22003123 -0.2784115 -0.26086518
-0.28055838 -0.14434741 0.04320477 -0.23124665 -0.18386154 -0.18528898 0.10250997 0.20124796
0.27333805 0.03297823 -0.13111643 0.034395076 0.2220626 0.1884703 -0.0009825968 0.010563668
-0.042321723 -0.053531148 -0.22951616 0.2079636 0.2081129 -0.2573669 -0.15498899 0.19657084
-0.2693948 -0.031284135 0.21172841 0.25168094 -0.26699176 0.18809336 -0.2371128 0.07510478
0.0758251 -0.18053047 0.15773128 -0.0128451325 -0.16735113 0.19163138 -0.016324323 0.0901855
-0.26088807 0.16589507 0.22860347 0.049759366 0.13520902 -0.06975882 -0.060933586 -0.054876395
0.06057325 0.1325391 0.1034583 -0.08425788 -0.1758292 -0.2570442 0.20181465 -0.08388299
-0.12915334 -0.24389172 -0.21001959 0.07112267 0.06309812 0.26092574 -0.15562358 0.2490754
-0.11755091 -0.06352025 -0.048901625 -0.23834246 -0.13325313 0.054882523 0.0034886058 -0.2349327
0.034479752 -0.017548604 -0.19271655 -0.17899962 0.11076042 0.086985454 0.08611053 -0.22414072
0.12686318 0.013961458 -0.11627405 0.1477321 -0.03454485 -0.2546317 -0.09304838 0.09726101
-0.08362669 -0.22857894 0.029452266 -0.1875474 -0.02935374 -0.03649877 0.21651012 0.19437614
0.2801828 -0.26583958 0.2680024 0.04278395 -0.2523341 0.022866271 0.14442372 -0.093609214

bn1.module.weight f4 [64]
00000000: c45b 803f c4cf 7f3f 3ce9 803f 6d3b 803f
00000010: ab2e 803f 0e62 7f3f b804 803f 9bdc 803f
00000020: ed86 803f 35e5 7e3f a572 7f3f 8cdd 7f3f
00000030: 7b1f 7f3f 87ee 7f3f 2cc7 7e3f 8abb 7f3f
00000040: 69b2 7e3f 1461 7f3f a160 7f3f 502f 7f3f
00000050: 6224 7f3f b571 803f 4626 7f3f ab4c 803f
00000060: 71f6 7f3f 97cd 7f3f f113 813f 4905 813f
00000070: 7cb8 7f3f 0fdb 7f3f 203d 803f 505f 7f3f
00000080: 5659 803f c6f4 803f 1d8e 803f 5a2d 803f
00000090: 4ab4 7d3f 9d24 803f 701d 7f3f df4a 813f
000000a0: f92a 7e3f 9969 813f 0fe4 7e3f 4632 7f3f
000000b0: de9e 7f3f 1b34 7f3f cba9 813f 4d40 7f3f
000000c0: 9c8c 7f3f ceff 803f ed84 803f d1fe 803f
000000d0: a5aa 7f3f d59e 7c3f 4e49 813f 0049 803f
000000e0: 404b 803f 9152 803f 18e1 803f 1ce6 803f
000000f0: 9024 803f 1b93 7e3f 3448 7d3f 8fed 7e3f
1.0028005 0.999264 1.0071177 1.0018135 1.0014242 0.99758995 1.000144 1.0067323
1.0041176 0.9956849 0.9978431 0.9994743 0.9965741 0.9997334 0.9952266 0.99895537
0.9949098 0.99757504 0.9975682 0.9968157 0.9966489 1.0034701 0.99667776 1.0023397
0.99985415 0.9992308 1.0084211 1.0079738 0.99890876 0.9994363 1.0018654 0.9975481
1.0027263 1.0074699 1.004337 1.001384 0.99103224 1.0011173 0.99654293 1.0100974
0.9928432 1.0110351 0.9956674 0.99686086 0.9985179 0.9968888 1.0129942 0.9970749
0.9982393 1.0078065 1.0040566 1.0077764 0.9986976 0.9867986 1.0100496 1.0022278
1.0022964 1.0025197 1.0068693 1.0070224 1.0011158 0.99443215 0.989383 0.99581236

bn1.module.bias f4 [64]
00000000: ed92 54bc df41 153b 5352 f136 15a1 66ba
00000010: e268 873b ce9f 5fbc f01a ff3a d91c 143b
00000020: a55a 8b3b 606e e4bb 9b31 ad3c 3d0f d53b
00000030: 7b46 673c 4e3f febb 3513 11bc efdd 20bb
00000040: 0b34 6fbc 4ad1 38bc b302 9b3b 7357 0abc
00000050: 7024 09bb 90ab f33b a97b a03b 8b3b 213c
00000060: 4092 583c 5e50 ea3b e468 603c 302a 10bb
00000070: 59ec 873a 2011 ac39 fc8e cb3b d589 2b3b
00000080: 63e8 9d3a c7d3 623b d44f 3f3c 652a 3bba
00000090: a704 eaba 84ae bc3a ddc4 23ba 7495 593b
000000a0: d2a6 64bb 37d2 a53b 363f 2bbc 14be 42ba
000000b0: b17e 29bb a937 fabb 9f1c 3b3c 3dc1 cd3b
000000c0: 89bd ffbb e1d8 b03b 5c53 69bb c849 823b
000000d0: 1055 07bb 9cf3 c43a b026 803c 1c4d c1bb
000000e0: 55bd 80b9 c138 113a f5c4 913b dc64 523c
000000f0: a2a9 93bb d447 193b 8e7a 18bc 2635 d03a
-0.012974483 0.0022774858 7.1919435e-06 -0.0008797807 0.004132376 -0.01364894 0.0019462984 0.0022600202
0.004252749 -0.0069711655 0.021141818 0.0065020607 0.014115925 -0.0077590114 -0.008854677 -0.0024546345
-0.01459981 -0.011280367 0.0047305464 -0.008443701 -0.002092626 0.0074362233 0.004897554 0.009840856
0.0132184625 0.007150694 0.013696883 -0.0021997802 0.001037012 0.00032819156 0.0062121134 0.0026174684
0.0012047406 0.0034611092 0.011676747 -0.0007139801 -0.001785417 0.0014395271 -0.00062472915 0.0033200653
-0.0034889472 0.00506046 -0.010452082 -0.00074288365 -0.0025862867 -0.0076360297 0.011420398 0.0062791393
-0.007804577 0.0053969477 -0.0035602665 0.0039760806 -0.0020650066 0.0015026215 0.015643448 -0.0058990847
-0.00024555126 0.0005539768 0.004448528 0.01284143 -0.004506306 0.002338876 -0.009306563 0.001588498

bn1.module.running_mean f4 [64]
00000000: 1261 4b3b b9d1 9d3f cd71 14bf 2df2 593f
00000010: ede7 11c0 f82d 163f 7135 a6be 03c0 293f
00000020: 775c 7e3e 6118 84be 7608 c13e aa6b 7e3f
00000030: f4cc 2c3f aba0 973f 19f2 6ebf c827 253f
00000040: 1c64 5abf e42a 823e 1f98 623e cb24 28bf
00000050: cca6 30bf 714a dfbe a0a4 d93c 46b8 773f
00000060: f42e 8abf f5a9 3d3e 7ecc 0fbd 3683 543e
00000070: 2bf5 d8be 502d dbbd 833b 71bf d7dd 2840
00000080: 0541 3d3f a388 6b3e d9b4 c0bf 9093 873f
00000090: 8b33 eabf 7d69 32bf 61a8 443e 7e41 12bf
000000a0: a227 f4bf 9ed5 b7be 2bb2 70be 6d16 543f
000000b0: e7f9 82bf 8542 353f 622b 3c3f 702b e6be
000000c0: c3a8 753e 2119 c7bd 2341 0340 1462 8fbf
000000d0: 35a9 3c3e 311f 06bf a069 1fc0 85d2 ae3f
000000e0: 52b7 8c3e 19d2 b33e b4a0 ef3e b8c8 7b3f
000000f0: b03c 99bc a64b 853f 2348 8dbf c5ba 5bbf
0.00310332 1.2329627 -0.57986146 0.85135156 -2.2797806 0.5866389 -0.32462648 0.6630861
0.2483996 -0.2579985 0.37701768 0.9938303 0.67500234 1.1845907 -0.9333816 0.64513826
-0.85309005 0.25423348 0.22128342 -0.6568114 -0.6900451 -0.43611482 0.026567757 0.96765554
-1.0795579 0.18521865 -0.03510713 0.20753178 -0.42374548 -0.10702002 -0.9423143 2.63854
0.73927337 0.23001342 -1.505519 1.0591908 -1.829698 -0.6969221 0.19204856 -0.57131183
-1.9074595 -0.35905164 -0.23505466 0.8284672 -1.0232514 0.70804626 0.73503697 -0.44955015
0.23990159 -0.0972159 2.0508506 -1.1201806 0.18423922 -0.52391344 -2.4908218 1.3657995
0.27483612 0.3512123 0.46802294 0.9835315 -0.018705696 1.0413711 -1.1037639 -0.8583186

bn1.module.running_var f4 [64]
00000000: 0636 fb3c 7e4c 1e3e 7a04 3a3e 3ec2 3a3d
00000010: f998 0f3f fac6 793e 645a 133d 48d7 c03d
00000020: de91 9e3c 4159 983c 4a30 cb3b d4ac 893e
00000030: 3e54 183d 44aa 723e 409e e23c c965 863d
00000040: 8ec1 813e 4f2e 2f3d 0cd4 a43c 7486 5e3d
00000050: 8a4e 813d 4117 ab3d 4b2c ac3d 29a0 813d
00000060: 94b8 c63c c93f 893c 2d66 923d 2e2a 133c
00000070: 4596 6d3d b226 d83c b9ed 093e f58f 1e3f
00000080: 496a 433c 2bf5 633c b138 e43e 9a77 0b3d
00000090: caf3 353e 2474 823b 8318 8d3c c2bd 453c
000000a0: 3eda 8f3e 9bca 6b3c 2441 823c 7e07 3e3e
000000b0: 41f4 a13d 2d51 d33d 42bf 363c baa3 bc3c
000000c0: 1ca6 253c ef4a a73c 53c2 c43e 7364 bf3d
000000d0: 8699 163c 1317 cb3b d163 d33e 25d8 563e
000000e0: a675 443c 9c57 033e 123c 683c 13e4 223d
000000f0: 11d8 0c3b 477a 283e f10c c73d 9c50 043e
0.030665409 0.15458867 0.1816577 0.0455954 0.5609279 0.2439231 0.035974875 0.09416062
0.019356664 0.018597247 0.006200825 0.2688967 0.037189715 0.23697764 0.02766335 0.06562383
0.25342983 0.042768773 0.020120643 0.054327443 0.06313808 0.08354045 0.08406886 0.06329376
0.024257936 0.016754048 0.07148395 0.008982224 0.058004636 0.026385639 0.1346959 0.6193841
0.011927196 0.013913433 0.44574502 0.034049608 0.1776878 0.00398113 0.017223602 0.012069168
0.28096193 0.014391567 0.015900202 0.18557546 0.07907916 0.103182174 0.011153998 0.02302729
0.010110404 0.020421473 0.38429508 0.09345331 0.009191876 0.006197819 0.4128709 0.2098089
0.01199094 0.12826389 0.014174478 0.03976829 0.002149109 0.16452895 0.09719265 0.12921375

conv2.att_src f4 [1, 2, 64]
00000000: aa74 57bc 0f22 88be 6a72 413c a923 69bd
00000010: 3416 583e b6c3 30be 519a 8b3e 9b76 49be
00000020: fd6a 923d 7278 21be c830 353e 4c10 833d
00000030: 195e 15be 0b00 3b3e d953 943e 2278 30be
00000040: 3272 46be aa9c 1abe 8dae 57be 6058 f2bc
00000050: 9f55 dfbd 6af1 963e 28db 08be 9c2a d9bd
00000060: 99c4 a5bc a735 cd3c ebad 67be 0451 84be
00000070: c25a b0bd 40bd 383a f805 343e 72b6 ffbd
00000080: bc98 3f3c d0e3 833e b4df 5c3e a115 e53d
00000090: aadc 15be 010b 82be 271a 8ebe e1f5 013e
000000a0: 8fb9 80be 824e 8fbd 85dd c93d fa06 1e3d
000000b0: f749 a6bd 299f e33d 046a 763d 33d9 7e3e
000000c0: baf6 24be 2f95 c7bd f521 523e 2930 da3c
000000d0: 3027 d2bd 1771 9a3e 9613 35bd 71dc ed3d
000000e0: 08d2 3bbe 56c7 593e 4624 f0bd 646c edbd
000000f0: 66bc 843e 2a47 783e e051 f6bd c76f c3bc
00000100: 4bd9 64be a7c3 f93c 9951 313e fc47 883d
00000110: e622 333e 154b 04be 1cc4 8fbe 25b5 27be
00000120: 6283 3f3e 4276 593e eb37 613d 4e6b 7dbd
00000130: 8741 8b3e 0b80 07bd 504b 8cbe dcfa fdbd
00000140: d148 0a3e 9d20 a03d 9999 0c3e 818b 68be
00000150: bb9f 4fbe 07a7 2fbe fc75 7fbe fdd4 0d3e
00000160: 57ee 27bd c639 e13d 6650 7bbd fafb 3abe
00000170: 6d6b 8cbd d677 54be 6b46 31bd 022f a8bd
00000180: e6bf 603d 2f7d 933e a800 6b3e 79a2 41be
00000190: c92d 873e 15da 97be e1fc 4fbd 36e9 77be
000001a0: dbe5 963e 276e 04be 875c 293e f8fa 403e
000001b0: af10 cbbd 3876 1bbe 4413 6dbe 5cb6 93bd
000001c0: e46a 5dbe 05ae 1e3d 0f20 7f3d a820 43be
000001d0: d6ab 7b3e cfed 673d bcc5 6ebe 310d e23d
000001e0: 7bb8 82bd 1039 0d3e 8624 8dbe 0e79 09be
000001f0: 2040 d7bd 3419 84bb 6187 a9bd 5691 103e
-0.0131503735 -0.26588485 0.011807064 -0.056918774 0.2110222 -0.17262158 0.27266172 -0.1967415
0.07149313 -0.15768602 0.1769439 0.06399593 -0.14586677 0.18261735 0.2897022 -0.17233327
-0.193795 -0.15098825 -0.2106268 -0.029583156 -0.10905003 0.2948106 -0.13364851 -0.1060383
-0.020235347 0.025049997 -0.22624938 -0.2584306 -0.08611061 0.00070472434 0.17580402 -0.124859706
0.01169413 0.25759745 0.21569711 0.11185766 -0.14634958 -0.2539902 -0.27754328 0.12691452
-0.2514157 -0.06997396 0.098567046 0.038580872 -0.081195764 0.11114342 0.060159698 0.24887542
-0.16109744 -0.097452514 0.20520766 0.026634293 -0.10261381 0.30164406 -0.04420813 0.116143115
-0.1834184 0.21267447 -0.117256686 -0.115929395 0.25924987 0.24245897 -0.12027335 -0.02385701
-0.22348516 0.030488802 0.17316283 0.06654355 0.17493781 -0.12919267 -0.28079307 -0.16377695
0.18702462 0.21236518 0.05498497 -0.06186991 0.2719843 -0.033081096 -0.2740121 -0.12401363
0.1350434 0.078187205 0.13730468 -0.22709467 -0.20275776 -0.1715356 -0.24947351 0.1385078
-0.040998783 0.109973475 -0.06135597 -0.18260184 -0.06856427 -0.20748839 -0.043280046 -0.08212091
0.05487051 0.28806445 0.22949469 -0.18909635 0.2640212 -0.2965857 -0.050778273 -0.24210057
0.2947224 -0.12932645 0.16539203 0.18845737 -0.099152915 -0.15181816 -0.2315188 -0.07212517
-0.21622807 0.038740177 0.062286433 -0.19055426 0.24577269 0.056623276 -0.23317617 0.11037672
-0.06382843 0.13791299 -0.27566928 -0.13425085 -0.10510278 -0.0040313248 -0.082777746 0.14117941

conv2.att_dst f4 [1, 2, 64]
00000000: 85d4 94be 2097 903e 7724 5dbe 4799 5e3c
00000010: 86e0 713c c474 a53d 295f 95be 4bc9 d5bd
00000020: ac02 8c3d ca69 293e 6451 8c3d 548f 47be
00000030: 1966 9e3a 6fb1 94be a346 713e ed1d 953e
00000040: e537 01be 44c6 7abe 235c 903e 34dc 8d3e
00000050: 763f 8fbb de0d 07bd 3e3d 89be 0f7f 263e
00000060: 568e 7b3e 7c6a 573e 4b29 d3bd 7632 3dbd
00000070: daa7 63be 0138 9b3e 692f 993d 6dc2 913d
00000080: 6de7 5dbe 34d6 433e 54b7 70be 3159 293e
00000090: c023 16be 4d00 513e 4962 85be 8098 a8bd
000000a0: 5631 77be 83db b5bd ed46 703e e63b fe3d
000000b0: 2b8a 96be 7968 d53d 6eee f3bd 7890 903d
000000c0: 39d8 0f3b 244c 043e ef29 22be e400 59bd
000000d0: 2612 dbbc de2a eabd 3057 693d e375 25bd
000000e0: 5662 8e3e 1af0 a03d afad 28be cb28 e5bd
000000f0: 8b73 1abe dd63 943e 316c 16bd 9e9f 13be
00000100: 2395 8b3e 9b1a 003e 8560 6abc 38dc eebd
00000110: 5187 9cbd 5ec8 64be ec04 56bb 329e ddbc
00000120: 3082 013d 6cb1 fa38 1435 9dbe 80a4 4fbd
00000130: 2b89 913d 05a4 623e 60c6 323e 1217 71be
00000140: 07ff 273e d299 293e 936c c13d 3b73 f7bd
00000150: 0aed a8bd 0e30 33bd 4024 49bd d750 663e
00000160: af22 86be 4876 bdbd 74b3 853e 6cba 9b3e
00000170: 4bd3 583e 88a8 0ebd ed8a 803e 27d6 633d
00000180: 702a 71be ebbf 9cbe eee1 d83d 17b8 3d3e
00000190: 9a10 aebc 9319 073e 01e1 92be 4255 4ebe
000001a0: d80b 89be 8166 b33d d84f 96be e5bb 9abd
000001b0: 7444 6bbe a618 e43d e6ff 0fbc 1812 3b3e
000001c0: 7b4e c6bd bccd 52bd 3b8f 6c3e 4146 57bd
000001d0: 64b8 403e d61b 543d 3df1 f13d da03 0d3e
000001e0: a80d 1abe 83fb 83bd 2f7f 3a3e 44dd 5abe
000001f0: 242a 34bd f72c 9d3e 5674 863d 762c 73be
-0.2906839 0.282403 -0.21595941 0.013586349 0.014763003 0.08078912 -0.29174164 -0.10438784
0.06836447 0.16544262 0.068514615 -0.19488269 0.0012084871 -0.2904162 0.23562102 0.29124394
-0.12618978 -0.24489695 0.28195295 0.27707064 -0.004371579 -0.03297221 -0.26804537 0.16259407
0.24566016 0.21036714 -0.103106104 -0.0461907 -0.22231999 0.30316165 0.07479746 0.07117162
-0.21670313 0.19124681 -0.23507434 0.1653793 -0.14662075 0.20410271 -0.26051548 -0.08232212
-0.24139914 -0.08879759 0.23464556 0.124137685 -0.2940229 0.10420317 -0.11910711 0.07058805
0.0021948947 0.1291967 -0.15836309 -0.052979365 -0.026742052 -0.114339575 0.056967914 -0.04039563
0.278094 0.07858296 -0.16472505 -0.11189421 -0.15083139 0.2898244 -0.036724273 -0.14416358
0.2726222 0.12510149 -0.014305239 -0.11663097 -0.07642997 -0.22342059 -0.0032656742 -0.027052972
0.031618297 0.00011953976 -0.30704558 -0.05069399 0.07106241 0.22132881 0.17458487 -0.23543957
0.16405879 0.16562584 0.09444537 -0.12082525 -0.082483366 -0.043747 -0.049106836 0.22491775
-0.26198336 -0.09251076 0.26113474 0.30415666 0.21174352 -0.034828693 0.25105992 0.055624153
-0.23551345 -0.30615172 0.10589968 0.18527256 -0.02124815 0.1319335 -0.2868729 -0.20149711
-0.2676685 0.087597854 -0.2935779 -0.07555369 -0.22975332 0.11137514 -0.008789038 0.18268621
-0.09682938 -0.051465735 0.23101513 -0.052557234 0.1882034 0.05178436 0.11813591 0.13771
-0.15044272 -0.064444564 0.18212579 -0.21373469 -0.0439855 0.30698368 0.06565158 -0.23747429

conv2.bias f4 [128]
00000000: 312e 6739 1ef0 0839 3a17 2e38 47e7 12b9
00000010: 663e 6db9 f21d 84ba bcbe edb8 bb56 99b9
00000020: 6cea 4339 bfd2 1a39 9219 df38 749a 96ba
00000030: cf61 9d37 84af d938 1fed 6936 b9fc ecb8
00000040: 5d9b 1c38 4ee5 053a 9949 74b8 5b72 99b9
00000050: 14b9 c734 f1ac fb38 b438 9fb8 3400 8e37
00000060: 0991 3c39 c99b 81b9 a16b 00b9 517a c93a
00000070: 994c c139 e90a 12ba 5a49 0538 0d3b b436
00000080: f3b1 9fb8 a33f eb37 4c91 acb6 f48e 7eb8
00000090: 3db6 88b8 6535 beba a7bf fd36 aada 4db9
000000a0: 4541 1c3a 677d 83b7 58f1 0139 0704 41b9
000000b0: 6232 54b9 1e4c 5038 cffc 24ba b134 a3b9
000000c0: ae3e 323a ab71 7239 6a75 f8b8 e165 8bb9
000000d0: 6ae4 1eb7 e531 333a 5a29 1ab9 ebd0 6039
000000e0: c455 62b8 3756 2c3a efe8 8bb9 cec9 9d39
000000f0: 48b0 80b9 5bfe d738 8f18 60b9 3036 1f39
00000100: f0a6 0bb8 f86f be36 c7b5 27b7 a4cc 1c39
00000110: 74dd 98b9 b59e 05ba db96 3339 e4f4 b0b9
00000120: ca08 acb8 b6e6 04b9 beb5 05ba ecbc 9039
00000130: 9816 8db9 13fc 24ba 3b3f 4ab9 c3c9 0939
00000140: 0378 9b38 1e1d 8438 7859 c734 a9c8 b039
00000150: 74d9 12b9 f584 8a39 4f49 9e39 cca0 8dba
00000160: cc71 91b6 84b2 86b8 32a0 fe39 e8d0 c2b9
00000170: 4b82 8eb9 5c11 023a 30c4 3b39 fc9a 4638
00000180: 14ea 2138 0529 ef37 be46 2739 fd6d 45b8
00000190: c6f1 50b8 0c98 5538 7c1f fa38 7728 e5b8
000001a0: adb7 45b9 fa2e 2a38 24d1 abb9 6adf 2239
000001b0: 3b79 bcb8 bd69 d439 29a0 b838 0371 03b6
000001c0: 0645 82b9 5574 18b8 bbd7 2a39 a5e2 0bb9
000001d0: 427f 65b9 a0c2 79b7 ab7a 8ab8 30a0 07ba
000001e0: 933d 503a 2506 50b9 ee33 94b9 cb0d 33ba
000001f0: 0e9d 92b9 83e6 2037 646b 06b8 68b6 1b39
0.00022047084 0.00013059421 4.1506464e-05 -0.00014009803 -0.00022625327 -0.0010079725 -0.00011336568 -0.00029247053
0.00018683978 0.00014765094 0.000106382315 -0.0011490122 1.8761404e-05 0.00010380059 3.4857728e-06 -0.0001130043
3.733799e-05 0.00051077164 -5.8242676e-05 -0.00029267636 3.72013e-07 0.000120008255 -7.5922726e-05 1.6927814e-05
0.00017983107 -0.00024720866 -0.00012247126 0.0015371536 0.00036868898 -0.0005571084 3.1777985e-05 5.3712924e-06
-7.6148564e-05 2.8043816e-05 -5.1429142e-06 -6.0691455e-05 -6.51893e-05 -0.0014511762 7.562299e-06 -0.00019631782
0.00059606537 -1.5674812e-05 0.00012392306 -0.00018407415 -0.00020236665 4.9661954e-05 -0.0006293775 -0.0003112904
0.0006799501 0.00023121263 -0.000118474316 -0.00026588052 -9.470716e-06 0.0006835743 -0.00014701989 0.00021440133
-5.3962474e-05 0.00065741263 -0.00026685695 0.0003009573 -0.00024545402 0.00010299376 -0.00021371453 0.00015183608
-3.3295655e-05 5.675476e-06 -9.996299e-06 0.00014953554 -0.00029156695 -0.00050971966 0.00017126968 -0.00033751794
-8.203236e-05 -0.00012674447 -0.0005100629 0.00027606578 -0.0002691045 -0.00062936655 -0.00019287776 0.000131405
7.41333e-05 6.299674e-05 3.7131736e-07 0.0003371884 -0.00014004653 0.00026420472 0.00030190728 -0.0010805367
-4.3345844e-06 -6.422869e-05 0.0004856601 -0.0003715821 -0.00027181426 0.0004961693 0.00017906795 4.735122e-05
3.8603393e-05 2.8510121e-05 0.00015952715 -4.7070895e-05 -4.9816234e-05 5.0924762e-05 0.000119267934 -0.00010927108
-0.00018855809 4.057491e-05 -0.00032771484 0.00015532752 -8.9871195e-05 0.00040514572 8.803636e-05 -1.9586303e-06
-0.0002484696 -3.6347967e-05 0.00016292829 -0.00013340505 -0.00021886549 -1.4886871e-05 -6.6032015e-05 -0.0005173711
0.00079437456 -0.00019838715 -0.0002826745 -0.00068303634 -0.00027964305 9.590413e-06 -3.2048105e-05 0.00014849904

conv2.lin_src.weight f4 [128, 64]
00000000: 9e73 683d 55f4 3bbd e984 ff3c 2831 15be
00000010: 05b0 02be 31b1 eabd a718 8abc b8be 27be
00000020: b5cc 1e3e fdf3 9cbd e8fa 11be 05cb 6abd
00000030: e142 0dbc 92fc 2e3e e36c 01be c35c 07be
00000040: 4f85 d03c 31b7 1dbb 57d0 36bd 87a8 493d
00000050: e026 0ebe 6108 45bd 54b3 283e 2df8 e0bd
00000060: dafb 00bd 14f8 1b3d 43f9 02bd 732f 323d
00000070: 77b1 3e3d bbae 6d3d 3211 32be f84e 9a3c
00000080: d6ae 7f3c eb18 8dbd 2fdd 9fbd e58a b5bd
00000090: 7dcf 123e 0807 1abe b0fb 3dbe acbf e6bd
000000a0: ff1b 073e 4736 a1bd c287 79bd 7959 6abd
000000b0: 5329 11be e55e 86bd 3685 cdbc 5481 d7bd
000000c0: 2e2f 5f3c 13b8 13be c988 84bb 55eb 9e3c
000000d0: 4719 d4bd c7cf a9bc e83b 163e 429e 043e
000000e0: 7dad 123e 4fe8 9f3b d27d a83d 2038 043d
000000f0: f223 333e ab94 383e 948c 90bd d37f 3abe
00000100: f2ff 31bc 22b1 4fbd f6fc a7bc e40d 1e3e
00000110: 0eda dabd ad1d 0e3e 4c80 25bd 1cb0 403e
00000120: 4e39 58bd 0fd8 d5bd e154 1fbc 3c24 cf3d
00000130: 0aa4 5fbd 8221 21be 7943 b53d 0bf6 0abe
00000140: d2bc 6b3c 6815 b53d 4b83 f0bd 2f93 b23d
00000150: 8340 3abe eb78 273e 02ab 8b3d 73bf e0bd
00000160: ed5e 13bc 06b8 f83d 8812 bc3d 88b1 ff3d
00000170: 3f9a e5bd 4494 e83c 11a7 483d f45c a4bd
00000180: 6a16 7e3b 7a97 ac3d a3a9 28be ec9d 7fbd
00000190: c279 01bd a082 153e 0465 06be c7f7 b83d
000001a0: c322 a33d 800e 603d 9166 e13d 4475 a1bd
000001b0: bf84 59bd 58bd d0bd 14f7 01be 55b6 0b3d
000001c0: 1baa 863c af48 553d 2fd4 ad3c 3129 93bd
000001d0: 5b3c 07be 540c c4bc 95c9 2abe ab23 9c3d
000001e0: 3b70 d439 07d3 7c3d c688 193e bf23 133d
000001f0: fa6c 6fbc 51ea 6c3d a798 09bc c931 cd3d
00000200: 304f f5bd cd08 cdbc 865b 653b 3747 03be
00000210: d453 ddbd c1be a1bd 502f 16be df38 6a3d
00000220: 7b49 cc3d f2b4 8a3d c536 283e 8c4a d63c
00000230: f7ca 8bbd 85a5 363e 38da 0cbe 3f8d ec3b
00000240: 660d c63d ccc7 903d 56be a9bd 4c96 77bd
00000250: db3d 9d3d d41a 23be 4478 53bd 279e 27be
00000260: 2e8e 293d b0e6 8cbd ff6b c23d 39c8 16be
00000270: 2b58 0c3e e724 33bd 41f0 943b 7ff9 f0bd
00000280: 4a3e 07be c756 123e aea5 0c3e 6ffc 11bb
00000290: a5e2 203d c9b6 4abd 1c88 35be e4b2 903c
000002a0: d8a7 fb3d 8df2 d73d 084a 23be 84b7 e13c
000002b0: 092c 1bbe a27a dfbd 5160 2b3e 6f31 2d3e
000002c0: 7146 09be 8c8c bbbd eef8 2e3d f4cc 01bd
000002d0: a42b 903d 875e c3bd e350 01be a70e 0dbd
000002e0: 5ac6 e13c 92f1 2d3d aac3 85bd f257 263e
000002f0: 71f9 213e bac5 3d3c 2943 c7bd 9c89 cebd
00000300: 94d9 babd 8841 f9bd 7afa 7e3c c0a7 8ebd
00000310: b474 b4bc 181b 193d aae1 183e c41e 3abd
00000320: 2832 a2bd 27bf a13d 67d2 16be 1154 553c
00000330: 485f fbbb c608 de3d e43c cd3d 65f3 bf3c
00000340: 1efe 14be a2f1 313e d328 07be a7f1 cebc
00000350: 96e2 053e 2931 303e b2a1 193e d856 113e
00000360: 0b47 ccbd cd74 553d bb4b 87bc 5a6c dabd
00000370: 46be c9bd d81c cc3d 4227 13be a0d5 ba3d
00000380: b397 7bbd 0967 243e 1d40 593d 96f3 55bd
00000390: cedd 373d f517 0dbe 62e4 983d fa7b ba3d
000003a0: 31ca 1c3e 4c3a 2f3e 09be 82bd e724 a8bd
000003b0: 55e8 94bd 10b7 23be 1a5e 743d 6f98 383a
000003c0: c335 0abe 48c6 583d 0f2e e03d a6b8 2bbe
000003d0: c022 123e 96d0 0b3e 71c4 bfbc 4138 083e
000003e0: 5955 9bbd fbf7 623d 6ce6 8a3d bee6 c53c
000003f0: 7a7a df3c 2799 503d 2565 92bd 0664 1f3e
0.056750886 -0.04588731 0.031191306 -0.14569533 -0.12762459 -0.11459578 -0.016857458 -0.16381347
0.15507777 -0.076637246 -0.1425587 -0.05732252 -0.008621902 0.17088535 -0.12639193 -0.1321898
0.025454191 -0.002406549 -0.044632282 0.049232986 -0.13882017 -0.048103694 0.16474658 -0.10984836
-0.031490184 0.038078383 -0.031975996 0.043502282 0.046555962 0.058027964 -0.17389372 0.018836483
0.015605649 -0.06889518 -0.07805859 -0.08864383 0.14336963 -0.15041745 -0.18553042 -0.11267027
0.13194273 -0.07871681 -0.060920484 -0.057214234 -0.1417592 -0.065610684 -0.025087934 -0.10522714
0.013622088 -0.14425687 -0.0040446264 0.019399324 -0.10356384 -0.020728959 0.1467129 0.12950996
0.14323993 0.0048799883 0.08227123 0.032280087 0.17494181 0.18025462 -0.07058063 -0.18212824
-0.010864245 -0.050706036 -0.020506363 0.15434986 -0.10686122 0.13878508 -0.040405557 0.1881718
-0.052789025 -0.104416005 -0.009724827 0.10114333 -0.0545998 -0.15735438 0.0885076 -0.1357042
0.01438828 0.088419735 -0.11743792 0.08719479 -0.18188672 0.1635472 0.068197265 -0.10974016
-0.0089948 0.12144475 0.09183222 0.12485033 -0.11211061 0.028391011 0.048987452 -0.08025542
0.0038770684 0.08427329 -0.16470961 -0.062406465 -0.031610258 0.1460061 -0.13124472 0.09031635
0.07965615 0.05470133 0.11005891 -0.07883695 -0.053105112 -0.101923645 -0.12691909 0.034109432
0.016438534 0.05207127 0.021219341 -0.07185591 -0.13206618 -0.02393166 -0.1667846 0.076239906
0.0004051941 0.06172469 0.14993581 0.035922762 -0.014613384 0.05784065 -0.008398212 0.100192614
-0.119779944 -0.02502861 0.003499718 -0.12820135 -0.108070046 -0.078977115 -0.14666486 0.057183143
0.09974953 0.06772794 0.16427143 0.026158594 -0.06825822 0.17836578 -0.13755119 0.0072189863
0.09670524 0.07069358 -0.08288257 -0.06044607 0.076778136 -0.15928203 -0.051628366 -0.16368924
0.04139536 -0.06879938 0.09493255 -0.14724816 0.13705508 -0.043736365 0.004545242 -0.117663376
-0.13207355 0.14290915 0.13735077 -0.0022275706 0.039278645 -0.049490724 -0.17727703 0.017663427
0.12287873 0.1054431 -0.1594621 0.027553327 -0.15153517 -0.10912062 0.1673596 0.16913389
-0.13405778 -0.091576666 0.042717867 -0.0316896 0.07039574 -0.09539514 -0.12628512 -0.0344378
0.027560402 0.042466708 -0.065314606 0.16244486 0.1581781 0.011582786 -0.09729607 -0.10084841
-0.09123531 -0.12170702 0.015562648 -0.069655895 -0.022028305 0.037379354 0.14929834 -0.045439497
-0.07919723 0.078977875 -0.147287 0.013020531 -0.0076712705 0.10841517 0.100213796 0.02343149
-0.14550063 0.17377332 -0.13199167 -0.025261713 0.13074717 0.17206253 0.15003088 0.14193285
-0.09974488 0.052113343 -0.016515603 -0.10665198 -0.09850745 0.09966439 -0.14370444 0.09122777
-0.06142397 0.1605493 0.05303966 -0.052234255 0.044889264 -0.1377867 0.074654356 0.09105678
0.15311505 0.17112082 -0.063839026 -0.082101636 -0.07270876 -0.15987802 0.059660055 0.00070417573
-0.13497071 0.05292347 0.10946285 -0.16769657 0.14271069 0.13653788 -0.0234091 0.13302709
-0.07584638 0.055412274 0.06782231 0.024157878 0.027280081 0.050927307 -0.07148198 0.155655

conv2.lin_dst.weight f4 [128, 64]
00000000: 9e73 683d 55f4 3bbd e984 ff3c 2831 15be
00000010: 05b0 02be 31b1 eabd a718 8abc b8be 27be
00000020: b5cc 1e3e fdf3 9cbd e8fa 11be 05cb 6abd
00000030: e142 0dbc 92fc 2e3e e36c 01be c35c 07be
00000040: 4f85 d03c 31b7 1dbb 57d0 36bd 87a8 493d
00000050: e026 0ebe 6108 45bd 54b3 283e 2df8 e0bd
00000060: dafb 00bd 14f8 1b3d 43f9 02bd 732f 323d
00000070: 77b1 3e3d bbae 6d3d 3211 32be f84e 9a3c
00000080: d6ae 7f3c eb18 8dbd 2fdd 9fbd e58a b5bd
00000090: 7dcf 123e 0807 1abe b0fb 3dbe acbf e6bd
000000a0: ff1b 073e 4736 a1bd c287 79bd 7959 6abd
000000b0: 5329 11be e55e 86bd 3685 cdbc 5481 d7bd
000000c0: 2e2f 5f3c 13b8 13be c988 84bb 55eb 9e3c
000000d0: 4719 d4bd c7cf a9bc e83b 163e 429e 043e
000000e0: 7dad 123e 4fe8 9f3b d27d a83d 2038 043d
000000f0: f223 333e ab94 383e 948c 90bd d37f 3abe
00000100: f2ff 31bc 22b1 4fbd f6fc a7bc e40d 1e3e
00000110: 0eda dabd ad1d 0e3e 4c80 25bd 1cb0 403e
00000120: 4e39 58bd 0fd8 d5bd e154 1fbc 3c24 cf3d
00000130: 0aa4 5fbd 8221 21be 7943 b53d 0bf6 0abe
00000140: d2bc 6b3c 6815 b53d 4b83 f0bd 2f93 b23d
00000150: 8340 3abe eb78 273e 02ab 8b3d 73bf e0bd
00000160: ed5e 13bc 06b8 f83d 8812 bc3d 88b1 ff3d
00000170: 3f9a e5bd 4494 e83c 11a7 483d f45c a4bd
00000180: 6a16 7e3b 7a97 ac3d a3a9 28be ec9d 7fbd
00000190: c279 01bd a082 153e 0465 06be c7f7 b83d
000001a0: c322 a33d 800e 603d 9166 e13d 4475 a1bd
000001b0: bf84 59bd 58bd d0bd 14f7 01be 55b6 0b3d
000001c0: 1baa 863c af48 553d 2fd4 ad3c 3129 93bd
000001d0: 5b3c 07be 540c c4bc 95c9 2abe ab23 9c3d
000001e0: 3b70 d439 07d3 7c3d c688 193e bf23 133d
000001f0: fa6c 6fbc 51ea 6c3d a798 09bc c931 cd3d
00000200: 304f f5bd cd08 cdbc 865b 653b 3747 03be
00000210: d453 ddbd c1be a1bd 502f 16be df38 6a3d
00000220: 7b49 cc3d f2b4 8a3d c536 283e 8c4a d63c
00000230: f7ca 8bbd 85a5 363e 38da 0cbe 3f8d ec3b
00000240: 660d c63d ccc7 903d 56be a9bd 4c96 77bd
00000250: db3d 9d3d d41a 23be 4478 53bd 279e 27be
00000260: 2e8e 293d b0e6 8cbd ff6b c23d 39c8 16be
00000270: 2b58 0c3e e724 33bd 41f0 943b 7ff9 f0bd
00000280: 4a3e 07be c756 123e aea5 0c3e 6ffc 11bb
00000290: a5e2 203d c9b6 4abd 1c88 35be e4b2 903c
000002a0: d8a7 fb3d 8df2 d73d 084a 23be 84b7 e13c
000002b0: 092c 1bbe a27a dfbd 5160 2b3e 6f31 2d3e
000002c0: 7146 09be 8c8c bbbd eef8 2e3d f4cc 01bd
000002d0: a42b 903d 875e c3bd e350 01be a70e 0dbd
000002e0: 5ac6 e13c 92f1 2d3d aac3 85bd f257 263e
000002f0: 71f9 213e bac5 3d3c 2943 c7bd 9c89 cebd
00000300: 94d9 babd 8841 f9bd 7afa 7e3c c0a7 8ebd
00000310: b474 b4bc 181b 193d aae1 183e c41e 3abd
00000320: 2832 a2bd 27bf a13d 67d2 16be 1154 553c
00000330: 485f fbbb c608 de3d e43c cd3d 65f3 bf3c
00000340: 1efe 14be a2f1 313e d328 07be a7f1 cebc
00000350: 96e2 053e 2931 303e b2a1 193e d856 113e
00000360: 0b47 ccbd cd74 553d bb4b 87bc 5a6c dabd
00000370: 46be c9bd d81c cc3d 4227 13be a0d5 ba3d
00000380: b397 7bbd 0967 243e 1d40 593d 96f3 55bd
00000390: cedd 373d f517 0dbe 62e4 983d fa7b ba3d
000003a0: 31ca 1c3e 4c3a 2f3e 09be 82bd e724 a8bd
000003b0: 55e8 94bd 10b7 23be 1a5e 743d 6f98 383a
000003c0: c335 0abe 48c6 583d 0f2e e03d a6b8 2bbe
000003d0: c022 123e 96d0 0b3e 71c4 bfbc 4138 083e
000003e0: 5955 9bbd fbf7 623d 6ce6 8a3d bee6 c53c
000003f0: 7a7a df3c 2799 503d 2565 92bd 0664 1f3e
0.056750886 -0.04588731 0.031191306 -0.14569533 -0.12762459 -0.11459578 -0.016857458 -0.16381347
0.15507777 -0.076637246 -0.1425587 -0.05732252 -0.008621902 0.17088535 -0.12639193 -0.1321898
0.025454191 -0.002406549 -0.044632282 0.049232986 -0.13882017 -0.048103694 0.16474658 -0.10984836
-0.031490184 0.038078383 -0.031975996 0.043502282 0.046555962 0.058027964 -0.17389372 0.018836483
0.015605649 -0.06889518 -0.07805859 -0.08864383 0.14336963 -0.15041745 -0.18553042 -0.11267027
0.13194273 -0.07871681 -0.060920484 -0.057214234 -0.1417592 -0.065610684 -0.025087934 -0.10522714
0.013622088 -0.14425687 -0.0040446264 0.019399324 -0.10356384 -0.020728959 0.1467129 0.12950996
0.14323993 0.0048799883 0.08227123 0.032280087 0.17494181 0.18025462 -0.07058063 -0.18212824
-0.010864245 -0.050706036 -0.020506363 0.15434986 -0.10686122 0.13878508 -0.040405557 0.1881718
-0.052789025 -0.104416005 -0.009724827 0.10114333 -0.0545998 -0.15735438 0.0885076 -0.1357042
0.01438828 0.088419735 -0.11743792 0.08719479 -0.18188672 0.1635472 0.068197265 -0.10974016
-0.0089948 0.12144475 0.09183222 0.12485033 -0.11211061 0.028391011 0.048987452 -0.08025542
0.0038770684 0.08427329 -0.16470961 -0.062406465 -0.031610258 0.1460061 -0.13124472 0.09031635
0.07965615 0.05470133 0.11005891 -0.07883695 -0.053105112 -0.101923645 -0.12691909 0.034109432
0.016438534 0.05207127 0.021219341 -0.07185591 -0.13206618 -0.02393166 -0.1667846 0.076239906
0.0004051941 0.06172469 0.14993581 0.035922762 -0.014613384 0.05784065 -0.008398212 0.100192614
-0.119779944 -0.02502861 0.003499718 -0.12820135 -0.108070046 -0.078977115 -0.14666486 0.057183143
0.09974953 0.06772794 0.16427143 0.026158594 -0.06825822 0.17836578 -0.13755119 0.0072189863
0.09670524 0.07069358 -0.08288257 -0.06044607 0.076778136 -0.15928203 -0.051628366 -0.16368924
0.04139536 -0.06879938 0.09493255 -0.14724816 0.13705508 -0.043736365 0.004545242 -0.117663376
-0.13207355 0.14290915 0.13735077 -0.0022275706 0.039278645 -0.049490724 -0.17727703 0.017663427
0.12287873 0.1054431 -0.1594621 0.027553327 -0.15153517 -0.10912062 0.1673596 0.16913389
-0.13405778 -0.091576666 0.042717867 -0.0316896 0.07039574 -0.09539514 -0.12628512 -0.0344378
0.027560402 0.042466708 -0.065314606 0.16244486 0.1581781 0.011582786 -0.09729607 -0.10084841
-0.09123531 -0.12170702 0.015562648 -0.069655895 -0.022028305 0.037379354 0.14929834 -0.045439497
-0.07919723 0.078977875 -0.147287 0.013020531 -0.0076712705 0.10841517 0.100213796 0.02343149
-0.14550063 0.17377332 -0.13199167 -0.025261713 0.13074717 0.17206253 0.15003088 0.14193285
-0.09974488 0.052113343 -0.016515603 -0.10665198 -0.09850745 0.09966439 -0.14370444 0.09122777
-0.06142397 0.1605493 0.05303966 -0.052234255 0.044889264 -0.1377867 0.074654356 0.09105678
0.15311505 0.17112082 -0.063839026 -0.082101636 -0.07270876 -0.15987802 0.059660055 0.00070417573
-0.13497071 0.05292347 0.10946285 -0.16769657 0.14271069 0.13653788 -0.0234091 0.13302709
-0.07584638 0.055412274 0.06782231 0.024157878 0.027280081 0.050927307 -0.07148198 0.155655

bn2.module.weight f4 [128]
00000000: b82f 7e3f 5b2c 803f dea8 7e3f a549 7f3f
00000010: 62ba 803f 6a58 803f 9e28 803f f620 803f
00000020: c3f5 803f 9084 803f 6bcf 7f3f d4db 813f
00000030: 4561 803f 2dc4 7e3f 5355 7e3f 4793 7f3f
00000040: 3c48 803f 0be2 803f cf1d 7e3f 2a30 803f
00000050: 122b 823f da7e 803f 4d7c 7f3f e644 803f
00000060: 2fd2 7d3f 1bbd 803f 8271 803f 9f94 803f
00000070: ba76 813f d2d5 803f 7f25 803f 4f46 7f3f
00000080: 7d1f 7d3f 103f 813f bd24 803f 85b3 7d3f
00000090: 7431 7f3f 1799 803f 6f52 813f 1bab 803f
000000a0: 02c4 7f3f a9a2 7e3f 9c82 7e3f 5097 7e3f
000000b0: f2fe 7c3f 6d85 7f3f eb79 803f cbb2 7e3f
000000c0: 6e42 7e3f 1935 803f b391 7f3f f527 803f
000000d0: eb57 803f eb52 7d3f ee1c 803f 7530 7f3f
000000e0: 37ae 813f 634e 803f e8f0 7f3f ff1f 813f
000000f0: a910 7d3f 4ea6 803f b537 7f3f b56b 7f3f
00000100: 757c 803f dc27 803f 6fab 7f3f b816 813f
00000110: 665b 813f 888c 803f f543 803f 53d8 7b3f
00000120: 3f64 7f3f b6f7 7d3f 52ff 813f aefd 7f3f
00000130: 1bb0 813f f3b6 7d3f f3c0 803f c0ef 7e3f
00000140: 7edf 803f ab32 803f 0ba8 7f3f 2a30 813f
00000150: 335c 803f 8d60 7f3f 3dcd 7d3f 2f80 823f
00000160: f260 803f e90e 813f 830b 7f3f fdce 7e3f
00000170: 84e8 7e3f c083 7e3f 8806 803f c20c 813f
00000180: 1610 803f 6504 7e3f 3109 7f3f 7758 803f
00000190: bb08 803f fe63 803f a858 7f3f ce5d 7c3f
000001a0: 5161 7f3f ffc5 7f3f f877 7e3f ca02 803f
000001b0: 8f9e 813f 5ef6 7d3f a8fa 7f3f f216 7f3f
000001c0: fc06 7f3f 9d30 803f 72ea 7f3f 8f0b 813f
000001d0: f715 803f 7725 813f f67d 813f e701 803f
000001e0: 9d8a 803f b697 813f 3f96 7f3f 3769 7e3f
000001f0: 24fe 803f 295a 803f 5663 803f 42c5 7d3f
0.99291563 1.0013536 0.9947642 0.9972175 1.005688 1.0026982 1.0012395 1.0010059
1.0075 1.0040455 0.9992587 1.0145211 1.0029684 0.9951809 0.99348944 0.998341
1.0022044 1.0068983 0.99264234 1.0014699 1.0169394 1.0038712 0.9979904 1.0021026
0.9914884 1.005771 1.003464 1.0045356 1.0114357 1.0065253 1.0011443 0.9971666
0.9887617 1.009737 1.0011212 0.9910205 0.99684834 1.0046719 1.0103282 1.0052217
0.9990846 0.9946695 0.99418044 0.99449635 0.98826516 0.99812967 1.0037206 0.99491566
0.99320114 1.0016204 0.99831694 1.0012194 1.002683 0.9895465 1.0008829 0.99683315
1.0131291 1.0023922 0.9997697 1.008789 0.98853546 1.0050752 0.9969438 0.9977372
1.0037981 1.0012164 0.9987096 1.0085058 1.0106018 1.0042887 1.0020739 0.9837696
0.9976234 0.992061 1.0156043 0.9999646 1.0131868 0.99107283 1.0058883 0.9958458
1.0068204 1.0015463 0.9986579 1.0092824 1.0028137 0.997567 0.99141294 1.0195369
1.0029585 1.0082675 0.9962694 0.9953459 0.9957354 0.99419785 1.0001993 1.0082018
1.0004909 0.99225456 0.996234 1.0026997 1.0002664 1.0030515 0.99744654 0.98580635
0.9975787 0.99911493 0.9940181 1.0000851 1.0126513 0.9920405 0.99991846 0.99644387
0.9962003 1.0014836 0.9996711 1.0081652 1.0006703 1.0089558 1.0116565 1.000058
1.0042301 1.0124424 0.9983863 0.99379295 1.0077558 1.0027515 1.0030315 0.99129117
