res/best_gcn_task1_seed_1.pt (torch, 226581 bytes, 27 tensors)

conv1.bias f4 [32]
0.0010900642 -2.5682515e-05 1.6587002e-05 -8.381856e-05 0.00025636813 0.00043181458 -0.00089183677 -0.00022119017
0.00023207873 0.00016712095 -0.00018068495 0.00025699887 -0.0009777307 -0.0006810242 0.000515052 2.7924681e-05
3.8471717e-06 0.0006648886 0.002596668 0.00061413797 0.00059543893 -0.0007829629 5.7735724e-05 -0.0002046773
-0.0013452843 -0.0010617259 0.0002684766 0.00012238113 -0.0017200041 -0.00011942474 0.00050075987 0.0010874746
00000000: 7ce0 8e3a c870 d7b7 5124 8b37 bfc7 afb8
00000010: 2669 8639 2c65 e239 27ca 69ba 49ef 67b9
00000020: 295a 7339 303d 2f39 3f76 3db9 cebd 8639
00000030: 3327 80ba c386 32ba 8e04 073a cc3f ea37
00000040: f416 8136 eb4b 2e3a dc2c 2a3b 1afe 203a
00000050: 3b17 1c3a c03f 4dba 4329 7238 a59e 56b9
00000060: 4054 b0ba 9c29 8bba 52c2 8c39 6f53 0039
00000070: c371 e1ba ab73 fab8 6d45 033a 9889 8e3a

conv1.lin.weight f4 [32, 11]
-0.2544974 0.33518335 -0.19225858 0.36491117 0.16159813 0.17801547 -0.35448015 0.33981556
-0.19810548 0.09330538 -0.067205586 0.1017339 0.22501281 -0.032640506 -0.29734185 -0.19459015
0.27639243 0.07638504 -0.23453237 0.20944962 0.22172752 0.2820846 0.0738867 0.18604784
-0.297476 -0.1603384 0.074838124 0.00073958456 -0.106743485 -0.09695455 -0.1485999 0.27172855
-0.15926166 0.26247984 -0.30924428 0.12694348 -0.29555735 0.120665126 -0.18063849 0.27347547
-0.28153485 0.38057828 0.33843902 0.14972755 0.3555711 -0.36435497 -0.016027648 -0.31057093
0.23495796 -0.03933996 0.22187397 -0.07258151 0.16104944 0.29630885 -0.25160167 0.32634026
-0.3848937 -0.030865867 -0.10539322 -0.11957384 0.37490824 -0.23972811 0.011532468 0.02785745
0.1330456 -0.10660657 0.2925907 0.35171565 -0.2075533 -0.10989209 -0.26040706 0.22391358
-0.3469598 -0.12456842 -0.18207614 0.029876921 -0.11119316 0.28432834 0.11697106 0.08120205
0.23061998 -0.031683844 0.07836137 -0.17498355 0.15633954 -0.11852805 0.26136172 -0.16984752
-0.058596753 -0.31234196 0.24336763 -0.21332416 0.34977686 0.10626745 -0.025038863 -0.14053461
-0.09672371 -0.25154874 0.12014406 -0.34271628 -0.16636236 -0.26065558 0.12855126 0.12761861
0.3465029 -0.06726731 0.29754114 -0.2655296 -0.21883078 -0.2653312 0.019792514 -0.3331139
0.27096903 -0.28720212 0.17220104 -0.15951815 0.0044636107 -0.10509417 0.17422456 0.36270967
-0.3375077 -0.31217718 -0.023256365 0.020855464 0.36307463 0.17032 -0.0056219986 -0.32174006
0.08235264 -0.14525555 0.14669096 -0.13886313 -0.017283842 0.261936 0.33376256 -0.32754257
-0.22772326 -0.14158945 0.0011876316 0.2725102 0.24851608 -0.015586176 -0.19285542 0.33703613
-0.12898113 -0.16548528 0.16867834 0.20613833 0.114605315 -0.085556954 -0.14749376 -0.10769968
0.2808821 0.20565447 0.16913734 -0.03044463 0.17928015 0.056215685 -0.14238955 -0.14985387
0.16768652 0.00511161 0.29424632 0.24218194 0.203261 -0.27315646 -0.35935447 0.17327955
-0.041341685 -0.35679212 -0.16180931 -0.17926891 -0.24065648 0.07681855 0.101009175 -0.22568753
-0.30994973 0.24574266 0.21770024 0.12351747 0.14373253 -0.059638195 -0.046980727 -0.0923752
-0.18223906 -0.28968912 0.22980028 -0.021821521 0.034892865 -0.2931799 0.036625028 0.019252514
-0.27613983 -0.33047497 -0.31602198 -0.36630085 0.33216497 -0.18291865 -0.06763945 0.25067464
0.10806771 0.043111984 0.005614926 0.016301304 0.004546399 -0.12929626 0.043356646 0.15246804
-0.19105452 0.27722132 0.08177463 -0.112520725 0.13997117 0.13485809 0.1520763 -0.10040036
0.24257876 0.005480601 0.28178316 -0.11655549 -0.11335107 0.16937762 0.063136294 0.13925833
-0.17755821 -0.046705008 0.32832426 -0.18310046 0.15191014 -0.3926577 0.20459554 0.26186642
-0.0011728847 -0.067155614 0.14213286 0.08357431 0.19251972 0.04125926 -0.30499905 -0.29190066
0.27880338 0.011529887 0.27055106 0.18843101 -0.20336305 -0.24902846 0.25984538 -0.123249345
0.21698458 -0.2453159 -0.063664 0.028807195 -0.024107918 0.2927706 -0.026700918 0.089867964
00000000: 7c4d 82be 279d ab3e 6fdf 44be a3d5 ba3e
00000010: fb79 253e b049 363e 6c7e b5be 4efc ad3e
00000020: 2adc 4abe e416 bf3d 15a3 89bd dd59 d03d
00000030: c269 663e 0db2 05bd 313d 98be a442 47be
00000040: 4f83 8d3e c36f 9c3d 4129 70be f679 563e
00000050: 8a0c 633e 656d 903e e951 973d 5383 3e3e
00000060: c64e 98be c02f 24be bb44 993d aee0 413a
00000070: 549c dabd 1b90 c6bd 922a 18be 0120 8b3e
00000080: 7d15 23be c263 863e 4455 9ebe 79fd 013e
00000090: 4b53 97be 471f f73d 4cf9 38be fa04 8c3e
000000a0: 5625 90be 28db c23e e147 ad3e 2e52 193e
000000b0: 6a0d b63e bc8c babe 6a4c 83bc 2703 9fbe
000000c0: d298 703e f022 21bd ee32 633e 9da5 94bd
000000d0: 25ea 243e cbb5 973e efd1 80be 1216 a73e
000000e0: c910 c5be 6ada fcbc 67d8 d7bd 21e3 f4bd
000000f0: f9f3 bf3e 497b 75be adf2 3c3c 4f35 e43c
00000100: 1b3d 083e 8c54 dabd 73ce 953e 1314 b43e
00000110: da88 54be 1b0f e1bd 1354 85be 9a49 653e
00000120: b7a4 b1be ba1d ffbd 2b72 3abe 72c0 f43c
00000130: 3db9 e3bd 7c93 913e 868e ef3d 434d a63d
00000140: a527 6c3e ebc6 01bd ed7b a03d e32e 33be
00000150: 7917 203e d6be f2bd 34d1 853e 82ec 2dbe
00000160: 2603 70bd 49eb 9fbe 5d35 793e a671 5abe
00000170: f415 b33e c0a2 d93d 4d1e cdbc 4ee8 0fbe
00000180: 1517 c6bd ffca 80be 170e f63d 8278 afbe
00000190: e55a 2abe a674 85be f1a2 033e 74ae 023e
000001a0: d468 b13e 72c3 89bd 5057 983e 7ff3 87be
000001b0: 2d15 60be 7ed9 87be e923 a23c e88d aabe
000001c0: 74bc 8a3e 280c 93be 7855 303e ba58 23be
000001d0: 7b43 923b 9d3b d7bd ec67 323e 15b5 b93e
000001e0: cfcd acbe b0d5 9fbe 2284 bebc 14d9 aa3c
000001f0: ebe4 b93e 5e68 2e3e be38 b8bb 1dbb a4be
00000200: 80a8 a83d dfbd 14be 2836 163e 2332 0ebe
00000210: d896 8dbc 7a1c 863e ede2 aa3e a9b3 a7be
00000220: 4930 69be d3fc 10be 4eaa 9b3a 7586 8b3e
00000230: 007b 7e3e 295d 7fbc e47b 45be 0090 ac3e
00000240: a113 04be f974 29be 04ba 2c3e ed15 533e
00000250: 31b6 ea3d 7c38 afbd 9b08 17be a691 dcbd
00000260: c7cf 8f3e 1697 523e 5732 2d3e 0467 f9bc
00000270: 3795 373e 6b42 663d 91ce 11be 4b73 19be
00000280: 04b6 2b3e 4b7f a73b 74a7 963e 8bfe 773e
00000290: a723 503e 2adb 8bbe 4ffd b7be 3270 313e
000002a0: e655 29bd 75ad b6be 57b1 25be 4592 37be
000002b0: a76e 76be 0b53 9d3d e6dd ce3d a21a 67be
000002c0: bbb1 9ebe f7a3 7b3e d0ec 5e3e baf6 fc3d
000002d0: 9f2e 133e 2e47 74bd dd6e 40bd 352f bdbd
000002e0: e09c 3abe 2252 94be c450 6b3e 0cc3 b2bc
000002f0: d2eb 0e3d ad1b 96be 2004 163d 73b7 9d3c
00000300: 3362 8dbe 0434 a9be a2cd a1be c98b bbbe
00000310: 8711 aa3e 074f 3bbe 8d86 8abd 6d58 803e
00000320: 9b52 dd3d 3196 303d 6afd b73b 508a 853c
00000330: f6f9 943b 3d66 04be bd96 313d 9520 1c3e
00000340: cca3 43be f4ef 8d3e 7579 a73d 4471 e6bd
00000350: 9a54 0f3e 3d18 0a3e e4b9 1b3e b49e cdbd
00000360: 9166 783e 9d96 b33b e245 903e a5b4 eebd
00000370: 9b24 e8bd 5471 2d3e 9a4d 813d bc99 0e3e
00000380: d2d1 35be c04d 3fbd 1e1a a83e b07e 3bbe
00000390: 558e 1b3e 6e0a c9be 7e81 513e 5b13 863e
000003a0: 7bbb 99ba e288 89bd 478b 113e 0229 ab3d
000003b0: e423 453e 78ff 283d d628 9cbe 0174 95be
000003c0: 51bf 8e3e dae7 3c3c ab85 8a3e 0ff4 403e
000003d0: 673e 50be 5101 7fbe 740a 853e 276a fcbd
000003e0: 3531 5e3e 1734 7bbe 4562 82bd 11fd eb3c
000003f0: f87d c5bc 07e6 953e e2bb dabc b20c b83d

bn1.module.weight f4 [32]
1.0000544 0.9994859 0.99683803 1.0009353 1.0006737 0.99651295 0.9952626 1.0000368
0.99854714 0.99114805 1.0009842 0.99925184 1.0000229 0.99297374 1.0026616 1.0002315
0.9981399 0.9882463 1.0093118 1.0058045 0.9851607 0.997187 1.0013492 1.0000129
0.9993989 0.9953732 1.011566 1.0025872 1.0014852 0.9952437 1.0100067 0.9959672
00000000: c801 803f 4fde 7f3f c730 7f3f a61e 803f
00000010: 1316 803f 791b 7f3f 88c9 7e3f 3501 803f
00000020: c9a0 7f3f e1bb 7d3f 4020 803f f8ce 7f3f
00000030: c000 803f 8733 7e3f 3757 803f 9607 803f
00000040: 1986 7f3f b6fd 7c3f 2131 813f 34be 803f
00000050: 7e33 7c3f a647 7f3f 362c 803f 6c00 803f
00000060: 9bd8 7f3f c7d0 7e3f ff7a 813f c754 803f
00000070: ab30 803f 4bc8 7e3f e647 813f b5f7 7e3f

bn1.module.bias f4 [32]
0.011319394 -0.00031672607 0.013913488 -0.00763243 0.01841309 -0.009886597 0.0053718365 0.0017062655
-0.0066317134 -0.011207895 0.0032807977 0.0014790434 -0.00022530653 -0.0056895553 0.0037836859 -0.0013497601
-0.0022517245 -0.01107575 0.0033411316 -0.0005207269 0.0066668396 -0.0068548624 -0.0040608267 0.0014931652
0.00434544 0.0055839787 0.0045478228 -0.0093729235 -0.009715379 0.000669826 -0.001030508 0.0009958731
00000000: fb74 393c 410e a6b9 66f5 633c 7719 fabb
00000010: 0cd7 963c 65fb 21bc 3b06 b03b c5a4 df3a
00000020: d84e d9bb 52a1 37bc a702 573b 76dc c13a
00000030: 4340 6cb9 736f babb b7f7 773b 6fea b0ba
00000040: ab91 13bb 1077 35bc e3f6 5a3b 6481 08ba
00000050: 8175 da3b c19e e0bb af10 85bb 4fb6 c33a
00000060: 3164 8e3b cff9 b63b e705 953b e490 19bc
00000070: 412d 1fbc 4397 2f3a 1c12 87ba f587 823a

bn1.module.running_mean f4 [32]
0.1794693 0.021718979 -0.17161614 0.54625505 0.5926673 -0.14296454 0.6688425 1.9708241
0.26096717 -2.1036975 -0.051507216 -0.34323138 0.43348995 1.4295036 0.9015566 -2.5717738
0.542391 -0.82154465 0.7069008 1.5944844 -0.06454559 1.3504328 1.2799339 0.95439345
1.0276537 1.7700357 1.2311988 2.7429307 -0.24451797 -0.72471875 1.7879378 -1.0122229
00000000: cdc6 373e 00ec b13c 24bc 2fbe 5fd7 0b3f
00000010: 0bb9 173f 4c65 12be 4339 2b3f f743 fc3f
00000020: 7d9d 853e fba2 06c0 3bf9 52bd 06bc afbe
00000030: 65f2 dd3e f9f9 b63f 6acc 663f f197 24c0
00000040: 23da 0a3f c050 52bf 73f7 343f 1118 cc3f
00000050: 7a30 84bd fbda ac3f e0d4 a33f 2153 743f
00000060: 288a 833f 8890 e23f ec97 9d3f 2d8c 2f40
00000070: eb62 7abe 2b87 39bf 25db e43f 8590 81bf

bn1.module.running_var f4 [32]
0.107121006 0.06879332 0.013410909 0.39004886 0.67018056 0.26716375 0.10561873 0.6079078
0.2456829 0.66167873 0.116554625 0.2263467 0.015555725 0.7307555 0.14593244 1.3409036
0.1314618 0.25810176 0.02587069 0.6022253 0.07978036 0.49875295 0.46641713 0.22794467
0.106264524 0.6670225 0.5652773 1.7602171 0.033300765 0.09296789 0.54020536 0.20941658
00000000: 4262 db3d 83e3 8c3d 6eb9 5b3c 7cb4 c73e
00000010: f490 2b3f b0c9 883e a24e d83d d89f 1b3f
00000020: 4c94 7b3e c763 293f 31b4 ee3d 6ec7 673e
00000030: 71dd 7e3c cb12 3b3f 506f 153e bba2 ab3f
00000040: ec9d 063e ea25 843e c5ee d33c 702b 1a3f
00000050: e363 a33d 8c5c ff3e 3ace ee3e 546a 693e
00000060: 37a1 d93d fdc1 2a3f 03b6 103f cb4e e13f
00000070: 6266 083d f365 be3d e64a 0a3f 4d71 563e

conv2.bias f4 [64]
0.00019691438 -0.00030919455 0.00012198166 9.2399605e-05 0.00030034457 0.00022953916 -7.736529e-05 -8.390554e-05
3.8722203e-05 0.00015762527 -5.7731355e-05 0.00043630158 -0.0004826047 -0.0011188689 0.00054726505 0.000120150406
4.5056295e-05 -0.00013421218 -0.00026738425 0.0002468363 0.00020995933 -0.000546164 0.0003061526 0.0001873397
4.9779115e-05 0.00014950676 -0.00012870073 4.6846e-05 3.469746e-06 -3.070993e-05 2.94821e-05 -0.00033799425
0.00020189882 -9.199199e-05 2.205059e-05 -0.00023124655 1.6937738e-05 -0.000602227 -0.0007630459 0.000109956665
-0.0012425511 -0.00058516447 -3.1243817e-05 6.496322e-05 0.00091991655 7.640372e-05 -4.598236e-05 -8.37956e-05
0.00013767875 0.00022488751 -0.0003139241 -0.0011086848 5.6013236e-05 -0.0010756543 0.0005555277 -0.00058290194
-6.515698e-05 -7.7427634e-05 3.777266e-05 -0.0007648715 9.1173526e-05 -0.0004342984 5.7578327e-05 -0.00052278256
00000000: cd7a 4e39 641b a2b9 68d0 ff38 a9c6 c138
00000010: 9177 9d39 73b0 7039 2c3f a2b8 72f6 afb8
00000020: a669 2238 3648 2539 9224 72b8 68bf e439
00000030: 1b06 fdb9 03a7 92ba 5676 0f3a 42f9 fb38
00000040: d4fa 3c38 4fbb 0cb9 b52f 8cb9 cf69 8139
00000050: 8728 5c39 722c 0fba 1b83 a039 9e70 4439
00000060: ebc9 5038 eac4 1c39 d7f3 06b9 827c 4438
00000070: c8d9 6836 89ce 00b8 5450 f737 d234 b1b9
00000080: cdb4 5339 d3eb c0b8 48f9 b837 c67a 72b9
00000090: 8415 8e37 c5de 1dba 2507 48ba 8998 e638
000000a0: 19dd a2ba b965 19ba cb0b 03b8 dd3c 8838
000000b0: 8e26 713a ef3a a038 2fdd 40b8 6cbb afb8
000000c0: dc5d 1039 c8cf 6b39 2e96 a4b9 4a51 91ba
000000d0: c1ef 6a38 f8fc 8cba d5a0 113a e3cd 18ba
000000e0: e3a4 88b8 a560 a2b8 166e 1e38 a881 48ba
000000f0: 6a34 bf38 8bb2 e3b9 4280 7138 580b 09ba

conv2.lin.weight f4 [64, 32]
-0.1367848 0.14698134 0.15025124 0.22658889 -0.14839096 -0.2013037 0.013522066 -0.059823103
-0.01674345 0.12846874 -0.24394032 -0.23728889 0.14383826 -0.0072539616 0.19991282 -0.15918809
-0.24077454 0.23721536 0.019571885 0.023682455 -0.119098574 -0.10197442 0.18322067 0.22249587
-0.21979547 -0.059699655 -0.066122904 -0.07792845 0.12314225 0.13373175 0.17061889 0.07578207
-0.029386444 -0.15327677 -0.082018495 -0.17623916 -0.24363524 0.06011346 -0.13671833 -0.16418712
-0.11503608 -0.006544005 -0.15588409 -0.05910022 -0.21624877 -0.0371268 0.10593101 -0.1701847
0.1142615 -0.24042945 0.029981162 -0.19299938 -0.020010555 0.228512 -0.18818685 0.13826701
-0.16492826 0.14096203 0.21250264 0.17264354 0.18164782 0.23551232 0.11842958 0.050921265
-0.1933995 -0.13497591 -0.26068756 -0.21310315 -0.12993969 0.056571465 -0.15589616 0.13972639
0.19480485 0.017317025 0.16108868 -0.15979482 -0.045181107 -0.16022624 0.13313453 -0.15430441
0.026121633 0.013107363 -0.1952295 -0.22218709 0.1059037 -0.103412725 0.16422819 0.052836604
-0.06735114 0.03483013 0.14116266 -0.1349682 0.18221892 -0.24173401 -0.10920906 0.0015790976
-0.1534263 0.19166133 -0.23678337 0.06347508 -0.13533798 -0.10295891 0.049200926 -0.10909896
0.2508765 0.12018232 -0.009011348 -0.088156 -0.1895894 -0.221631 0.24651504 0.11166297
0.09800903 0.20844866 -0.15343355 0.23127066 -0.1489113 0.2046135 0.05093253 0.19871023
0.18891017 0.091378056 0.03976941 0.004757293 -0.02124859 0.040764194 0.19191448 -0.030721398
-0.12582403 -0.23959135 0.19269954 -0.14689796 0.25369152 0.16378295 0.09253463 -0.028587125
-0.1924936 -0.028782625 0.021637723 0.20358194 0.11777231 0.09831958 0.22706956 -0.005448499
0.07238123 0.12332435 0.23101832 0.08673483 -0.12988642 -0.09987968 0.118187815 -0.19220835
0.21558172 -0.16166186 0.26291385 -0.1544103 -0.00072391826 -0.16553551 0.11538103 0.17437021
0.052182194 -0.15480429 0.047035653 0.046528436 0.19664337 -0.17912146 0.017226357 0.05180196
-0.16961989 -0.21329033 -0.07679805 -0.04686269 0.043089267 0.1851682 0.09024336 0.11632161
-0.13055496 -0.11780422 0.013153677 -0.104735315 -0.20368263 -0.055508804 -0.23133796 0.095247924
-0.07488984 -0.09333299 -0.08137764 0.1364791 -0.22136223 0.14237992 -0.20048824 -0.16813797
0.18550764 0.23828316 -0.15100062 0.16859058 0.10542456 0.19205473 -0.19391032 0.2465879
0.06973197 -0.06061045 0.109514974 -0.1130163 0.20133626 -0.20696723 0.09564569 0.19813795
0.043235533 0.093032196 -0.11656941 0.02808547 0.10422508 0.2344754 -0.14655758 0.22786193
-0.124086 0.10204103 0.13850318 0.037771177 0.10092803 -0.08498572 0.24151288 -0.25003424
0.2311391 0.19891654 -0.21156232 -0.10875379 -0.125954 0.15770304 0.10988284 0.12425669
0.22616553 -0.020378139 0.16051982 0.20653144 0.05870411 0.021196077 0.22521831 -0.10542511
-0.0710144 -0.21166857 0.21755448 -0.19968547 0.0923352 -0.13284084 -0.12329693 0.052971285
0.18917488 0.0028338155 -0.0036559089 0.18128099 0.18270257 0.043262098 -0.18770391 -0.07533117
00000000: 5111 0cbe 4782 163e 76db 193e eb06 683e
00000010: cdf3 17be 8f22 4ebe a88b 5d3c 1209 75bd
00000020: 8f29 89bc 4f8d 033e 7ecb 79be dcfb 72be
00000030: 564a 133e a4b2 edbb f2b5 4c3e 3402 23be
00000040: 9a8d 76be 95e8 723e 3855 a03c b501 c23c
00000050: f4e9 f3bd f7d7 d0bd 339e 3b3e f5d5 633e
00000060: 1012 61be a087 74bd 726b 87bd f498 9fbd
00000070: 0132 fc3d faf0 083e b8b6 2e3e a133 9b3d
00000080: d7bb f0bc 96f4 1cbe 50f9 a7bd 0a78 34be
00000090: 847b 79be 8839 763d e4ff 0bbe ab20 28be
000000a0: 0998 ebbd 186f d6bb 14a0 1fbe 1313 72bd
000000b0: 5170 5dbe 4512 18bd 5bf2 d83d e644 2ebe
000000c0: ef01 ea3d 2333 76be 0e9b f53c a1a1 45be
000000d0: 2ded a3bc 0dff 693e 0eb4 40be de95 0d3e
000000e0: f4e2 28be 5a58 103e 4b9a 593e 78c9 303e
000000f0: e301 3a3e 242a 713e 358b f23d d192 503d
00000100: 850a 46be 2037 0abe d778 85be b637 5abe
00000110: e90e 05be 7bb7 673d 3ea3 1fbe 6f14 0f3e
00000120: ec7a 473e 6fdc 8d3c 6ef4 243e 41a1 23be
00000130: d30f 39bd 5912 24be 6b54 083e fa01 1ebe
00000140: 09fd d53c 44c0 563c 3eea 47be 0385 63be
00000150: 0ae4 d83d 0dca d3bd 6f2b 283e 326b 583d
00000160: 65ef 89bd 0aaa 0e3d f28c 103e 1b35 0abe
00000170: 9997 3a3e 1f89 77be 00a9 dfbd b9f9 ce3a
00000180: c91b 1dbe de42 443e 5777 72be 39ff 813d
00000190: 0a96 0abe 1fdc d2bd e986 493d 476f dfbd
000001a0: e272 803e 2622 f63d 55a4 13bc 228b b4bd
000001b0: b923 42be 3df3 62be 706e 7c3e 8eaf e43d
000001c0: f5b8 c83d 9173 553e af1d 1dbe 37d2 6c3e
000001d0: 347c 18be 3486 513e a19e 503d b27a 4b3e
000001e0: ab71 413e 6b24 bb3d 40e5 223d 11e3 9b3b
000001f0: 8611 aebc 5bf8 263d 3b85 443e 71ab fbbc
00000200: 04d8 00be 6f57 75be 0753 453e 6b6c 16be
00000210: dbe3 813e b8b6 273e cc82 bd3d 8c2f eabc
00000220: 0b1d 45be 8ac9 ebbc 9841 b13c c977 503e
00000230: 9c32 f13d c75b c93d ec84 683e 5389 b2bb
00000240: 9c3c 943d 7a91 fc3d 1190 6c3e 08a2 b13d
00000250: f200 05be b88d ccbd 740c f23d 44d2 44be
00000260: 74c1 5c3e b08a 25be a59c 863e bc1d 1ebe
00000270: 55c5 3dba 2482 29be e44c ec3d 1b8e 323e
00000280: ffbc 553d 0485 1ebe 75a8 403d 9a94 3e3d
00000290: e15c 493e 9e6b 37be 4a1e 8d3c 4b2e 543d
000002a0: d6b0 2dbe c868 5abe 4c48 9dbd 18f3 3fbd
000002b0: 5f7e 303d bc9c 3d3e 83d1 b83d 063a ee3d
000002c0: 33b0 05be 5743 f1bd 8582 573c 787f d6bd
000002d0: 2e92 50be 335d 63bd dce3 6cbe 5811 c33d
000002e0: d85f 99bd 5e25 bfbd 52a9 a6bd 2dc1 0b3e
000002f0: c8ac 62be 0bcc 113e ca4c 4dbe 5c2c 2cbe
00000300: b7f5 3d3e 8000 743e e89f 1abe 02a3 2c3e
00000310: d5e8 d73d ffa9 443e 6d90 46be 8a81 7c3e
00000320: a3cf 8e3d aa42 78bd 6349 e03d 1775 e7bd
00000330: 182b 4e3e 38ef 53be e3e1 c33d ade4 4a3e
00000340: be17 313d aa87 be3d f1bb eebd 8013 e63c
00000350: f573 d53d 521a 703e 3113 16be a354 693e
00000360: cd20 febd e3fa d03d c7d3 0d3e f3b5 1a3d
00000370: 5bb3 ce3d fe0c aebd 274f 773e 7d04 80be
00000380: baaf 6c3e c7b0 4b3e cba3 58be 4fba debd
00000390: 16fa 00be e87c 213e 410a e13d 4b7a fe3d
000003a0: f097 673e 0ef0 a6bc 4f5f 243e fa7c 533e
000003b0: b973 703d 65a3 ad3c a19f 663e 1fe9 d7bd
000003c0: ff6f 91bd a5bf 58be 9ac6 5e3e 597a 4cbe
000003d0: 3d1a bd3d 6e07 08be 1a83 fcbd 6bf8 583d
000003e0: 0fb7 413e 89b7 393b f997 6fbb b9a1 393e
000003f0: 6216 3b3e 9933 313d 7435 40be 3a47 9abd

bn2.module.weight f4 [64]
0.9930911 1.0079386 0.9976406 1.0070359 1.0025063 0.9933091 1.000154 0.9962498
1.0066652 1.001228 1.0073491 1.0081044 0.9969599 1.0111804 0.99350286 0.99140203
1.0034217 0.99840736 1.0010253 0.9924164 1.005207 1.0206833 0.9988688 0.99835616
1.0139176 0.9951307 0.9966942 1.0024353 1.0034554 1.005295 1.0155987 0.99737227
1.005236 1.0151627 1.0080348 0.99339956 0.99435616 0.99571824 0.9943558 1.0004102
1.0266758 0.9950653 0.99714315 0.99313235 0.9851454 1.002646 1.0033915 1.0026299
0.99797696 1.0046299 0.989035 1.025984 1.0120875 0.9905921 0.9997406 0.9959501
1.0028023 1.0113431 1.0035245 0.9833168 0.9907218 0.99061704 0.9933291 0.99371237
00000000: 383b 7e3f 2204 813f 6065 7f3f 8de6 803f
00000010: 2052 803f 8149 7e3f 0c05 803f 3a0a 7f3f
00000020: 68da 803f 3d28 803f d1f0 803f 9109 813f
00000030: c438 7f3f 5c6e 813f 3456 7e3f 86cc 7d3f
00000040: 1f70 803f a097 7f3f 9921 803f 000f 7e3f
00000050: 9faa 803f c0a5 823f deb5 7f3f 4594 7f3f
00000060: 0dc8 813f e3c0 7e3f 5a27 7f3f cd4f 803f
00000070: 3a71 803f 82ad 803f 23ff 813f ca53 7f3f
00000080: 93ab 803f daf0 813f 4907 813f 6f4f 7e3f
00000090: 208e 7e3f 64e7 7e3f 1a8e 7e3f 710d 803f
000000a0: 1d6a 833f 99bc 7e3f c644 7f3f ec3d 7e3f
000000b0: 7d32 7c3f b456 803f 226f 803f 2d56 803f
000000c0: 6b7b 7f3f b697 803f 6631 7d3f 7253 833f
000000d0: 158c 813f 7297 7d3f 00ef 7f3f 96f6 7e3f
000000e0: d35b 803f b173 813f 7e73 803f a6ba 7b3f
000000f0: f29f 7d3f 1499 7d3f d14a 7e3f ef63 7e3f

bn2.module.bias f4 [64]
0.005302696 0.019651316 0.0104687065 0.01775451 0.01892411 0.0036897846 -0.0001216186 -0.009598631
0.00786936 0.023189908 -0.0019632168 -0.00064677576 -0.011690997 -0.0132860625 0.013271103 -0.0044787433
-0.0041835615 0.0066312877 -0.019252433 -0.011880808 0.0008893902 0.01619934 -0.0034977733 -0.00049627124
0.012293466 0.006341673 -0.0060806144 0.0060600424 0.004961185 0.010431668 0.0009897244 0.0058821863
0.007992447 0.018802907 -0.001477657 -0.016842254 0.0070109195 -0.009892369 -0.0013399483 0.004141382
0.003019497 -0.0088962 0.004260981 0.001746741 0.003161389 0.006987184 -0.0020758177 0.015333446
0.009343911 0.009597859 -0.0025389157 0.025146663 0.008543288 -0.011651172 0.0047481237 -0.00310354
0.008306168 0.015515623 0.00038056262 -0.019912664 0.0147194965 -0.012681993 -0.014724542 0.016641635
00000000: 3dc2 ad3b ccfb a03c f084 2b3c e871 913c
00000010: bc06 9b3c 50d0 713b 7d0d ffb8 9443 1dbc
00000020: 7dee 003c c3f8 bd3c 50a9 00bb 638c 29ba
00000030: 988b 3fbc c9ad 59bc 0a6f 593c 6cc2 92bb
00000040: 4216 89bb 464b d93b 47b7 9dbc b8a7 42bc
00000050: f725 693a 7ab4 843c e63a 65bb 3318 02ba
00000060: 896a 493c cfcd cf3b e43f c7bb 5293 c63b
00000070: 7091 a23b 96e9 2a3c a4b9 813a 5bbf c03b
00000080: c1f2 023c 8e08 9a3c f1ad c1ba c4f8 89bc
00000090: dbbb e53b 9a13 22bc 34a1 afba 6eb4 873b
000000a0: c1e2 453b 5ec1 11bc b39f 8b3b e7f2 e43a
000000b0: 4e2f 4f3b bff4 e43b 710a 08bb 2239 7b3c
000000c0: 3417 193c 5740 1d3c f063 26bb 6000 ce3c
000000d0: 26f9 0b3c 8fe4 3ebc 2696 9b3b c364 4bbb
000000e0: 9816 083c 3d35 7e3c 4086 c739 e21f a3bc
000000f0: 0b2a 713c 22c8 4fbc 353f 71bc 0a54 883c

bn2.module.running_mean f4 [64]
0.08620699 -0.2668715 -0.41851372 0.34572265 0.44308123 -0.41495946 0.59510803 0.37776303
0.052946255 0.71591055 0.13296202 0.06549728 0.3662924 -0.2670371 -0.09044356 -0.5280624
0.13505983 -0.55407566 0.16732095 -0.2929702 -0.006144047 -0.6227106 0.21256784 -0.063972525
0.13316183 0.053922173 -0.2606557 -0.0720939 -0.37535515 -0.65047765 -0.12746824 -0.0035066255
0.64287823 -0.038527012 -0.43042445 0.05728289 0.26195118 0.33004424 0.2070423 -0.17046572
-0.049415972 0.16745804 0.14591771 -0.112709075 -0.43148288 0.22185074 0.21692047 -0.19215883
-0.30109063 0.39609888 -0.1630271 -0.020597603 -0.6400921 0.298295 -0.04998181 0.11476814
0.08780094 -0.63491166 0.29896584 0.16513744 -0.08590087 0.29363093 0.20777018 0.26712024
00000000: 4a8d b03d 62a3 88be 6e47 d6be 8f02 b13e
00000010: 8bdb e23e 9175 d4be 0059 183f 286a c13e
00000020: 2cde 583d ea45 373f 3227 083e 7023 863d
00000030: ad8a bb3e 16b9 88be 793a b9bd 192f 07bf
00000040: 204d 0a3e e7d7 0dbf 2f56 2b3e 3100 96be
00000050: 0054 c9bb f669 1fbf 62ab 593e 0704 83bd
00000060: 935b 083e 7fdd 5c3d aa74 85be f7a5 93bd
00000070: 8d2e c0be b485 26bf 0987 02be 6acf 65bb
00000080: ab93 243f 80ce 1dbd 9860 dcbe 77a1 6a3d
00000090: 771e 863e 8ffb a83e e602 543e 918e 2ebe
000000a0: 6768 4abd 1f7a 2b3e 746b 153e 04d4 e6bd
000000b0: 53eb dcbe d72c 633e 6620 5e3e 49c5 44be
000000c0: 8d28 9abe 79cd ca3e 93f0 26be 4ebc a8bc
000000d0: 13dd 23bf 1fba 983e bab9 4cbd 8f0b eb3d
000000e0: fbd0 b33d 9289 22bf 0d12 993e ca19 293e
000000f0: ccec afbd cb56 963e b5c1 543e fcc3 883e

bn2.module.running_var f4 [64]
0.10263148 0.041515604 0.14132933 0.49202132 0.1650304 0.17725563 0.78457 0.20264839
0.031703644 0.7447296 0.45711613 0.054957338 0.23182973 0.016733462 0.06949477 0.30771846
0.20276755 0.298215 0.07078863 0.026348336 0.03798597 0.33272523 0.15904756 0.04014444
0.13480596 0.04022779 0.037641503 0.17367712 0.34808204 0.4879604 0.15502997 0.16007292
0.35793856 0.07960139 0.444643 0.0665727 0.016471824 0.09382991 0.08392831 0.17236342
0.03215251 0.06509154 0.11739517 0.117769666 0.07816911 0.26788726 0.16860189 0.05919163
0.16181307 0.47451594 0.13788262 0.042341627 0.73553455 0.040791195 0.016520405 0.039218396
0.095445305 0.67926586 0.49554458 0.026988912 0.106366426 0.1382049 0.13146286 0.05061164
00000000: 7430 d23d 440c 2a3d a3b8 103e 38ea fb3e
00000010: bbfd 283e 8082 353e 94d9 483f 0f83 4f3e
00000020: aedb 013d 99a6 3e3f 200b ea3e f21a 613d
00000030: c664 6d3e 9d14 893c 4653 8e3d 468d 9d3e
00000040: 4ca2 4f3e a3af 983e a1f9 903d 77d8 d73c
00000050: 2d97 1b3d f65a aa3e 5ddd 223e 7f6e 243d
00000060: 930a 0a3e e5c5 243d fa2d 1a3d 6ad8 313e
00000070: cf37 b23e f2d5 f93e 2dc0 1e3e 28ea 233e
00000080: b943 b73e 0e06 a33d 3fa8 e33e 4557 883d
00000090: ebef 863c e529 c03d 9be2 ab3d 0980 303e
000000a0: 5ab2 033d b74e 853d e16c f03d 3931 f13d
000000b0: 2017 a03d 8528 893e f9a5 2c3e ec72 723d
000000c0: 53b2 253e c1f3 f23e 1a31 0d3e 6a6e 2d3d
000000d0: fe4b 3c3f ab14 273d cd55 873c 78a3 203d
000000e0: d478 c33d 5ee4 2d3f 05b8 fd3e da17 dd3c
000000f0: a4d6 d93d 9685 0d3e 339e 063e 274e 4f3d

conv3.bias f4 [128]
0.0009929293 -3.7801747e-05 3.0681094e-05 -9.4273775e-05 -2.063939e-05 -0.00015039077 -0.00012269127 7.431036e-05
0.00010009649 -0.0002418758 -3.1630956e-05 -0.00013771773 0.0002197507 7.1434086e-05 7.483258e-05 0.00018168705
9.198505e-05 0.00013065196 -3.5306693e-05 -3.1884978e-05 -1.0460843e-06 -5.502191e-05 -4.5296714e-05 -2.1822452e-05
-9.519007e-05 0.000112349306 -0.00010340292 0.00012750755 9.2561335e-05 -0.00013677705 0.0004958487 0.00010984967
-0.0006799839 -6.4051295e-05 -0.00014272823 -7.649766e-05 1.3330917e-06 0.000346039 8.7934495e-05 -1.8590405e-05
0.000450276 -9.890077e-06 6.6856e-06 3.040434e-05 4.5924997e-05 -0.0001994703 -7.2079994e-05 -4.3800796e-05
5.7483638e-05 -1.1790556e-05 -5.854564e-05 2.852148e-05 -5.99168e-05 0.000103464154 -1.6037222e-05 7.315575e-05
-5.0576014e-05 3.344706e-05 -7.3216156e-06 -7.3004776e-05 -9.997194e-05 -0.00013759568 -8.55824e-05 -6.24035e-05
-4.6313082e-05 -7.622488e-05 -4.84827e-05 -5.307282e-05 -0.000114640236 -0.00011727405 -0.00017350964 -6.806059e-05
3.1493037e-05 2.809449e-05 7.3946e-05 -0.00030814062 2.8982524e-05 4.8630918e-05 -5.437429e-05 -0.00014807974
-3.1793963e-05 -0.00012694993 0.00015191022 -7.407861e-05 -5.7720245e-05 -1.5329496e-06 5.0292165e-06 -0.0010487945
-0.00014009012 0.00029348137 -5.7991336e-05 0.00016225992 -0.00046905575 -1.19822525e-05 0.00020190015 -9.46698e-05
-9.55533e-05 0.00016714759 -0.00013533504 2.7862969e-05 -0.00014780893 -0.00030889307 -8.744039e-05 0.00010062474
-5.6573735e-05 -5.458873e-05 -0.00018911446 -0.00019414525 2.6729906e-06 -3.822563e-05 -1.2335595e-05 -5.555177e-05
-2.4333789e-05 2.1398848e-05 1.8984556e-05 8.155529e-06 -0.00019854588 -1.5857862e-05 0.00016082676 -0.000881466
-2.754006e-05 -3.073436e-05 -5.4099008e-05 -0.0002705636 -0.000505047 -0.00015920532 -1.1199669e-05 -8.7322835e-05
00000000: 2e25 823a 518d 1eb8 93af 0038 d9b4 c5b8
00000010: c122 adb7 37b2 1db9 b0a6 00b9 12d7 9b38
00000020: e5ea d138 0aa0 7db9 7bab 04b8 5268 10b9
00000030: e16c 6639 e2ce 9538 6fef 9c38 3f83 3e39
00000040: 19e8 c038 9eff 0839 4616 14b8 3cbc 05b8
00000050: 2f67 8cb5 53c7 66b8 fafc 3db8 5c0f b7b7
00000060: c8a0 c7b8 139d eb38 05da d8b8 8cb3 0539
00000070: 7d1d c238 cf6b 0fb9 d8fb 013a 185f e638
00000080: f240 32ba 4753 86b8 51a9 15b9 5e6d a0b8
00000090: afec b235 926c b539 7969 b838 97f2 9bb7
000000a0: 0613 ec39 8fed 25b7 de54 e036 d30c ff37
000000b0: 979f 4038 e728 51b9 a729 97b8 bfb6 37b8
000000c0: 961a 7138 0dd0 45b7 e78e 75b8 6941 ef37
000000d0: 2d4f 7bb8 e5fa d838 ac87 86b7 326b 9938
000000e0: 9521 54b8 8249 0c38 33ac f5b6 241a 99b8
000000f0: 07a8 d1b8 8f47 10b9 b37a b3b8 a0de 82b8
00000100: 4b40 42b8 ecda 9fb8 e759 4bb8 829a 5eb8
00000110: 026b f0b8 07f1 f5b8 24f0 35b9 c0bb 8eb8
00000120: 6417 0438 75ac eb37 7513 9b38 ef8d a1b9
00000130: 7f1f f337 0df9 4b38 f30f 64b8 da45 1bb9
00000140: 825a 05b8 dd1d 05b9 174a 1f39 a75a 9bb8
00000150: a418 72b8 bfbf cdb5 a4c0 a836 b477 89ba
00000160: 28e5 12b9 67de 9939 b93b 73b8 5124 2a39
00000170: 99eb f5b9 6207 49b7 29b5 5339 7689 c6b8
00000180: ca63 c8b8 5744 2f39 b9e8 0db9 45bb e937
00000190: 28fd 1ab9 edf2 a1b9 3460 b7b8 7f06 d338
000001a0: 9649 6db8 34f6 64b8 074d 46b9 7893 4bb9
000001b0: a161 3336 7554 20b8 faf4 4eb7 4200 69b8
000001c0: 6a20 ccb7 ad81 b337 0641 9f37 bbd3 0837
000001d0: c130 50b9 8006 85b7 9ba3 2839 2f12 67ba
000001e0: d405 e7b7 c5e8 00b8 5ee8 62b8 6fda 8db9
000001f0: 2165 04ba 5af0 26b9 36e6 3bb7 1721 b7b8

conv3.lin.weight f4 [128, 64]
0.14012015 -0.050049737 0.011714401 -0.040324323 0.05345882 -0.16219366 -0.139513 -0.03093291
0.15409057 0.1379263 -0.025090031 -0.048397787 0.09689129 -0.15344149 -0.016791865 -0.12510766
0.07785896 -0.01130723 -0.037880328 0.1696149 -0.14340131 0.06190478 -0.06704948 0.123642266
0.0037844854 0.16482444 -0.11784764 0.15018101 -0.100750476 0.15398513 0.010384637 0.11056805
-0.032825943 -0.13922417 -0.14169487 0.087059096 -0.15735446 -0.16554676 -0.095489584 -0.06275911
-0.012275785 -0.17151007 0.14103176 -0.12835757 0.06506798 -0.12504558 0.0032510406 -0.01767096
-0.07921569 -0.13676864 -0.039603718 0.12731968 -0.03194069 0.03926992 -0.052388962 0.055527594
-0.09262654 -0.007865711 0.015249984 -0.0073343846 -0.06756107 0.119622655 -0.077859536 0.06396265
0.10339705 -0.10375288 0.021266093 0.026098104 -0.14099804 -0.11555711 -0.007227432 0.117529
0.108527355 0.07336725 0.09424723 -0.06072938 -0.12546149 -0.007060492 0.013400635 -0.049220376
-0.071509585 0.12906648 0.013341106 -0.15876783 -0.03232731 -0.05221116 0.073279835 -0.14967132
-0.11122024 -0.08820106 0.1312409 0.054653127 0.009116497 -0.09434275 0.12339394 0.091162525
-0.08449816 0.068768404 0.045792736 0.08969086 -0.06781587 0.048713226 0.10932493 0.09059803
-0.14500661 0.027973069 0.15400419 0.035913784 -0.06489285 0.069866955 0.006533452 0.15104918
-0.04495603 0.09071814 0.111910105 -0.091387026 0.0313475 0.046742454 0.10251488 0.04686797
0.09433135 -0.13903178 -0.13479325 0.16858333 0.15319645 0.02707787 -0.07067618 -0.007463498
0.06789213 0.054606877 0.13606723 -0.10427912 0.15653805 -0.026742736 -0.075481996 -0.04605726
-0.15585476 -0.0660373 0.14893314 0.17855427 -0.05506099 -0.17602588 0.1489865 -0.033234596
-0.06725696 -0.17842445 0.06349272 -0.017907461 -0.022363514 0.08010586 0.15997492 -0.095801346
-0.12647866 0.05386762 -0.050049655 0.07891967 0.15477687 0.031710174 -0.09562236 0.08020037
-0.099616766 -0.06447584 -0.17012689 -0.09109818 0.08566404 -0.036488354 0.026028765 0.10816386
0.17738454 0.16083895 -0.08327488 0.1764197 -0.01453765 0.078617774 0.12871614 0.050556485
-0.13081639 -0.063131616 -0.08805745 -0.07894289 -0.031199096 0.007404598 0.023281325 0.07424361
0.10345559 -0.07921337 -0.12925865 0.1070267 -0.14512412 0.08992793 -0.14611 -0.15525043
-0.019259507 -0.08292784 -0.07287491 -0.0726612 -0.04316488 0.06562712 0.08023262 0.17416054
0.12522358 0.107293524 0.07701275 0.0766455 -0.04556188 -0.09685976 0.045639668 0.078452475
-0.13607748 -0.061748385 -0.06771688 -0.10480654 0.012750936 -0.091502145 -0.13308905 -0.11689763
0.15304601 0.082409665 0.055486083 0.124717504 0.15156062 0.061011273 -0.01849989 0.03870264
0.096125744 -0.0015029347 0.1855122 -0.0505366 -0.022067955 -0.037106108 -0.15594557 0.006711401
0.095666684 0.13444859 -0.13060594 0.16406158 0.018300889 -0.1185829 0.096102625 -0.080657564
0.12244175 0.09174537 -0.1584016 -0.061720986 -0.043894023 0.13243994 -0.009359957 0.086175844
0.109889366 -0.14557467 0.011419735 0.0029342012 0.11622574 -0.106389314 0.12909514 0.024421448
00000000: a87b 0f3e f400 4dbd c2ed 3f3c 1e2b 25bd
00000010: a3f7 5a3d 1816 26be 7fdc 0ebe 0467 fdbc
00000020: ebc9 1d3e 8d3c 0d3e 9c89 cdbc c23c 46bd
00000030: f16e c63d c41f 1dbe 188f 89bc 391c 00be
00000040: 8574 9f3d f641 39bc 6728 1bbd 87af 2d3e
00000050: cbd7 12be de8f 7d3d 3d51 89bd 2838 fd3d
00000060: 2105 783b bdc7 283e 1a5a f1bd 0dc9 193e
00000070: 4456 cebd 47ae 1d3e 5324 2a3c 8071 e23d
00000080: 7f74 06bd c890 0ebe 7618 11be 0a4c b23d
00000090: 8721 21be 1785 29be 0b90 c3bd d987 80bd
000000a0: 6020 49bc 56a0 2fbe a16a 103e 2b70 03be
000000b0: 5c42 853d f30b 00be 690f 553b b0c2 90bc
000000c0: d63b a2bd 140d 0cbe 8237 22bd 1760 023e
000000d0: 3ed4 02bd 7fd9 203d cf95 56bd e770 633d
000000e0: fcb2 bdbd 2fdf 00bc 12db 793c 4755 f0bb
000000f0: 755d 8abd b9fc f43d d274 9fbd dafe 823d
00000100: d5c1 d33d 647c d4bd 3b36 ae3c b1cb d53c
00000110: ca61 10be 35a9 ecbd 18d4 ecbb 0bb3 f03d
00000120: 9743 de3d 9241 963d b104 c13d 5fbf 78bd
00000130: fa78 00be b35b e7bb 568e 5b3c 4e9b 49bd
00000140: 9e73 92bd 012a 043e a794 5a3c 0994 22be
00000150: a469 04bd 5fdb 55bd bd13 963d 7043 19be
00000160: 70c7 e3bd c2a2 b4bd 0464 063e f5db 5f3d
00000170: 5c5d 153c c636 c1bd f6b5 fc3d 6bb3 ba3d
00000180: 5f0d adbd 73d6 8c3d 2a91 3b3d d7af b73d
00000190: 0ce3 8abd 8587 473d c0e5 df3d 768b b93d
000001a0: 9d7c 14be c727 e53c 46b3 1d3e 551a 133d
000001b0: 8be6 84bd 6816 8f3d 9116 d63b a3ac 1a3e
000001c0: d023 38bd 6fca b93d 2031 e53d 1f29 bbbd
000001d0: 3c66 003d 0475 3f3d 52f3 d13d a1f8 3f3d
000001e0: cb30 c13d 595e 0ebe 3e07 0abe 1ca1 2c3e
000001f0: 88df 1c3e 69d2 dd3c acbe 90bd 5c90 f4bb
00000200: 070b 8b3d 76ab 5f3d 3555 0b3e 4b90 d5bd
00000210: 834b 203e 9513 dbbc 4e96 9abd 8aa6 3cbd
00000220: 6498 1fbe 903e 87bd ee81 183e eed6 363e
00000230: a287 61bd 2140 34be eb8f 183e 0021 08bd
00000240: 04be 89bd e6b4 36be 7908 823d abb2 92bc
00000250: b033 b7bc 8b0e a43d 77d0 233e 7f33 c4bd
00000260: 9f83 01be 4ba4 5c3d de00 4dbd a3a0 a13d
00000270: d47d 1e3e 87e2 013d a8d5 c3bd 1740 a43d
00000280: e003 ccbd e90b 84bd be35 2ebe af91 babd
00000290: a170 af3d d074 15bd 473a d53c 0485 dd3d
000002a0: 4ba4 353e f7b2 243e 058c aabd 5ea7 343e
000002b0: 532f 6ebc 5b02 a13d 2ace 033e 5114 4f3d
000002c0: bbf4 05be 264b 81bd 7757 b4bd cfac a1bd
000002d0: 3f95 ffbc 45a2 f23b 7ab8 be3c 090d 983d
000002e0: 86e0 d33d 9f3a a2bd 615c 04be d130 db3d
000002f0: 6b9b 14be 222c b83d dc9d 15be f8f9 1ebe
00000300: 1dc6 9dbc 12d6 a9bd 713f 95bd 65cf 94bd
00000310: a8cd 30bd 8367 863d 0051 a43d 2457 323e
00000320: 9c3a 003e b5bc db3d dcb8 9d3d 51f8 9c3d
00000330: 189f 3abd 695e c6bd a9f0 3a3d b1ab a03d
00000340: e557 0bbe e0eb 7cbd 26af 8abd d0a4 d6bd
00000350: 4de9 503c 7a65 bbbd 7f48 08be 0668 efbd
00000360: 18b8 1c3e 66c6 a83d 6045 633d e46b ff3d
00000370: b532 1b3e f5e6 793d 158d 97bc a986 1e3d
00000380: 93dd c43d 1ffe c4ba e9f6 3d3e 77ff 4ebd
00000390: dbc7 b4bc 93fc 17bd 32b0 1fbe 50eb db3b
000003a0: e5ec c33d e4ac 093e 90bd 05be c2ff 273e
000003b0: bfeb 953c 97db f2bd 74d1 c43d cb2f a5bd
000003c0: bdc2 fa3d ffe4 bb3d 0734 22be 25cf 7cbd
000003d0: 38ca 33bd 569e 073e 815a 19bc f67c b03d
000003e0: ad0d e13d 8711 15be d719 3b3c ba4b 403b
000003f0: c307 ee3d a4e2 d9bd 8431 043e 7d0f c83c

bn3.module.weight f4 [128]
0.99552673 0.9975815 1.0180484 0.9887682 0.99135435 1.0053674 1.0219173 0.9876843
0.9977183 0.9912054 0.9970151 0.9903021 1.0125872 0.9893855 0.99500495 1.0049279
0.98822486 0.9996178 0.9883834 0.9897782 0.9857035 0.99396914 0.9921606 1.0038551
0.99569434 1.0243107 1.0092987 1.0094146 1.0081018 1.0126861 0.9895635 1.0056568
1.037314 1.0057449 1.0058904 0.99392873 0.9959871 1.0064194 0.99695885 0.99944854
1.0140784 1.0162588 1.0167441 0.99632615 1.0123079 0.9907828 1.0157814 1.0103121
1.0076826 0.9984234 0.99298817 0.9808283 0.995791 1.0122231 0.99232966 0.9990716
1.0037642 0.9949653 0.9982522 0.9952213 0.98670214 1.0050129 1.0033051 1.021964
1.0050511 0.9911405 0.99095404 0.9917836 0.98143905 1.0145361 1.018883 0.9951632
0.98395646 0.9906802 1.0051339 0.9893649 0.99529 1.0032748 0.9950409 0.99549
0.99256665 0.9885894 1.0009977 1.01892 1.0027232 0.98706025 0.9927192 1.0219744
1.0197104 1.0096216 1.0124662 1.0072491 1.023159 0.9997452 0.9839502 0.9947629
0.9926593 1.0246954 1.0165844 0.98982006 1.0220333 1.0139508 1.00055 0.9935908
0.9865562 0.9975051 0.9966147 1.0104824 1.0054368 0.9930583 1.0065923 0.99637794
1.0017331 1.0021662 1.0040673 0.992536 1.002216 1.006962 1.0113871 1.0262983
1.0076717 0.99465054 1.0038737 1.0061547 1.0189388 1.0066547 0.9954989 1.0155611
00000000: d7da 7e3f 8061 7f3f 694f 823f ea1f 7d3f
00000010: 66c9 7d3f e1af 803f 30ce 823f e1d8 7c3f
00000020: 776a 7f3f a3bf 7d3f 623c 7f3f 7084 7d3f
00000030: 759c 813f 5e48 7d3f a5b8 7e3f 7aa1 803f
00000040: 4efc 7c3f f4e6 7f3f b206 7d3f 1b62 7d3f
00000050: 1157 7c3f c374 7e3f 3dfe 7d3f 537e 803f
00000060: d3e5 7e3f 9d1c 833f b330 813f 7f34 813f
00000070: 7b09 813f b39f 813f 0954 7d3f 5db9 803f
00000080: b5c6 843f 40bc 803f 04c1 803f 1d72 7e3f
00000090: 03f9 7e3f 5ad2 803f b238 7f3f dcdb 7f3f
000000a0: 52cd 813f c514 823f ac24 823f 3b0f 7f3f
000000b0: 4e93 813f f1a3 7d3f 2005 823f e851 813f
000000c0: befb 803f ad98 7f3f 7934 7e3f 9017 7b3f
000000d0: 29ec 7e3f 8790 813f 5109 7e3f 28c3 7f3f
000000e0: 587b 803f 0cb6 7e3f 758d 7f3f d3c6 7e3f
000000f0: 8398 7c3f 43a4 803f 4d6c 803f b7cf 823f
00000100: 84a5 803f 62bb 7d3f 2aaf 7d3f 88e5 7d3f
00000110: 973f 7b3f 52dc 813f c26a 823f 04c3 7e3f
00000120: 92e4 7b3f 389d 7d3f 3aa8 803f 0547 7d3f
00000130: 53cb 7e3f 4f6b 803f 00bb 7e3f 6fd8 7e3f
00000140: d918 7e3f 3214 7d3f b120 803f f86b 823f
00000150: 3c59 803f fbaf 7c3f d822 7e3f 0fd0 823f
00000160: df85 823f 483b 813f 7e98 813f 8aed 803f
00000170: e0f6 823f 4def 7f3f 29e4 7b3f c8a8 7e3f
00000180: eb1e 7e3f 3829 833f 701f 823f d964 7d3f
00000190: fdd1 823f 24c9 813f 0612 803f f75b 7e3f
000001a0: f28e 7c3f 7f5c 7f3f 2422 7f3f 7d57 813f
000001b0: 27b2 803f 1239 7e3f 04d8 803f a012 7f3f
000001c0: ca38 803f fb46 803f 4785 803f d716 7e3f
000001d0: 9d48 803f 21e4 803f 2275 813f be5d 833f
000001e0: 63fb 803f 6ba1 7e3f ef7e 803f adc9 803f
000001f0: 966c 823f 10da 803f 04d9 7e3f e8fd 813f

bn3.module.bias f4 [128]
-0.019520836 -0.0011382488 0.00941897 -0.004374547 -0.005961919 0.0017015649 0.02041098 -0.010693212
0.00041954903 -0.017406298 0.0031832177 -0.007220857 -0.00503146 -0.010367853 0.014685918 -0.0024220075
-0.0123159075 0.0020190957 -0.013690283 -0.012118993 0.0035333266 -0.012483722 -0.0070790155 0.0061801956
-0.009487415 0.02395656 0.016499853 0.0064471997 0.010699762 0.014884435 -0.007956575 0.013728954
0.019929511 0.008827798 0.008210167 -0.0085868845 0.008720297 0.0056869253 0.0023730034 0.0005136936
-0.014603495 0.014138996 0.020251874 0.010788067 0.017512687 -0.008466666 0.013787365 0.01321241
0.013257501 0.005857273 0.0033372652 -0.020658528 0.008405207 0.018135661 0.0070450422 -0.018164683
0.007547354 -0.0054635406 0.008949972 0.0046074106 -0.021197071 -0.013402925 0.010640358 0.0152064115
0.0042272937 -0.010936751 -0.011770315 -0.0063119046 -0.010071228 0.015564257 0.017343534 0.006058714
-0.0056846407 3.568646e-05 -0.0055880137 0.00032205766 0.012641141 0.0063382136 0.008239388 0.013542325
0.0019657728 -0.008309963 -0.010514945 0.018040428 -0.0081637325 -0.00083644234 -0.016750233 0.0002485945
0.026231775 0.0043628206 0.023540176 0.014731136 0.02660389 -0.005014348 -0.009695886 -0.0016311229
0.0063101323 0.024757285 0.0291594 -0.007178967 0.012236856 0.02047615 0.0034777923 -0.005723688
-0.011992962 0.007728422 -0.0044168127 0.0058419663 0.00041410912 -0.0022673574 0.015116731 -0.003972467
0.0031769427 0.011684825 0.015259133 0.0027142204 0.003904801 -0.014184129 0.011802897 0.02725122
0.0137955705 -0.0053387852 0.011077349 0.0030211734 -0.00072985544 0.013638296 0.00827853 0.01717863
00000000: 29ea 9fbc 4b31 95ba 0652 1a3c 5c58 8fbb
00000010: 345c c3bb 0b07 df3a ed34 a73c 9532 2fbc
00000020: ebf6 db39 a797 8ebc 889d 503b f09c ecbb
00000030: f2de a4bb eddd 29bc 349d 703c 8bba 1ebb
00000040: a9c8 49bc ce52 043b 354d 60bc be8e 46bc
00000050: 628f 673b 8688 4cbc 16f7 e7bb 3d83 ca3b
00000060: 1a71 1bbc 8c40 c43c b32a 873c 0843 d33b
00000070: 0e4e 2f3c d8dd 733c 4b5c 02bc 68ef 603c
00000080: 3743 a33c 78a2 103c f083 063c 01b0 0cbc
00000090: 94df 0e3c 6359 ba3b 6484 1b3b 65a9 063a
000000a0: 7f43 6fbc 3fa7 673c 42e7 a53c 6fc0 303c
000000b0: c476 8f3c c5b7 0abc 66e4 613c dd78 583c
000000c0: fd35 593c 5eee bf3b 05b6 5a3b 133c a9bc
000000d0: feb5 093c 3d91 943c 19da e63b 1ace 94bc
000000e0: cb4f f73b 8007 b3bb e7a2 123c c3f9 963b
000000f0: 7ba5 adbc f197 5bbc e554 2e3c 5024 793c
00000100: 1c85 8a3b 0f30 33bc 47d8 40bc 18d4 cebb
00000110: cb01 25bc 3a01 7f3c 0714 8e3c 2d88 c63b
00000120: 3946 babb 0bae 1538 a81b b7bb d9d9 a839
00000130: ca1c 4f3c cab0 cf3b 7ffe 063c a1e0 5d3c
00000140: 32d4 003b 8326 08bc e046 2cbc 85c9 933c
00000150: 2dc1 05bc b244 5bba c937 89bc ca55 8239
00000160: 05e4 d63c fef5 8e3b 54d7 c03c dd5a 713c
00000170: 67f0 d93c 664f a4bb 7edb 1ebc 67cb d5ba
00000180: 3ac5 ce3b cacf ca3c b2df ee3c 8a3d ebbb
00000190: 187d 483c 99bd a73c aceb 633b c68d bbbb
000001a0: 217e 44bc b43e fd3b e9ba 90bb f76d bf3b
000001b0: c91c d939 f297 14bb 2aac 773c 782b 82bb
000001c0: 4134 503b b571 3f3c 7101 7a3c 10e1 313b
000001d0: b1e7 7f3b 8d64 68bc f060 413c f33d df3c
000001e0: d106 623c faf0 aebb c57d 353c e1fe 453b
000001f0: c553 3fba 2973 5f3c aca2 073c 33ba 8c3c

bn3.module.running_mean f4 [128]
-0.27609873 0.23808105 0.09855247 0.31085923 -0.11851473 -0.20177752 -0.2860342 -0.07290166
-0.21503413 0.22875077 -0.17696364 0.17007163 0.016957436 -0.041869164 -0.19507942 0.08868419
-0.04543781 0.034500346 0.06180166 -0.04426209 0.13311814 0.1048719 -0.25670624 -0.21915881
0.12876064 -0.09502802 -0.3510617 0.23453787 0.18617257 -0.16243784 -0.2522351 -0.05318245
-0.4289618 0.17565314 -0.087715246 -0.14132941 -0.4103038 0.3578229 0.055386454 -0.022460721
0.34706402 -0.06911359 -0.01881606 -0.10172999 -0.177707 0.094859965 0.11671881 -0.04668294
0.1193801 -0.08309032 0.20730686 -0.40236688 -0.3723282 0.20204443 -0.061568394 -0.20145552
-0.22486402 0.0744876 0.09012826 0.09252371 0.15089038 0.0092083085 -0.29707885 -0.29032418
-0.4757079 0.44443122 0.05028016 -0.059456058 0.09278111 -0.37465703 -0.24610226 0.101976916
-0.02906322 0.032484237 0.20333038 0.72664845 -0.095499076 -0.309592 -0.07573404 0.37227917
0.108618915 0.104915984 -0.21660198 -0.3863451 0.10891366 -0.06319734 -0.4118085 -0.35613364
-0.3277421 0.1955256 -0.25526685 0.21797304 -0.08622394 -0.19751813 -0.30551088 0.080197886
0.28249556 0.086997114 -0.41355416 -0.07584059 -0.05424716 -0.07923312 0.021982815 0.28775018
0.12171075 0.05153052 0.13263407 -0.018774856 -0.051153846 0.16643232 0.18989873 -0.24076459
-0.118226424 -0.16965628 -0.12751804 0.10266241 -0.051248897 -0.05863772 0.24352865 -0.16610618
-0.17793731 -0.05927354 -0.08989924 -0.40636796 -0.20110357 0.0834784 0.12219007 -0.23614186
00000000: d05c 8dbe 85cb 733e e1d5 c93d f128 9f3e
00000010: dab7 f2bd c49e 4ebe 1373 92be 774d 95bd
00000020: e831 5cbe a43d 6a3e f535 35be 4227 2e3e
00000030: 52ea 8a3c 007f 2bbd e6c2 47be 0ea0 b53d
00000040: ff1c 3abd 3c50 0d3d bd23 7d3d 2a4c 35bd
00000050: 1f50 083e 14c7 d63d 006f 83be 2b6b 60be
00000060: d4d9 033e 0d9e c2bd 5cbe b3be b22a 703e
00000070: 06a4 3e3e 1b56 26be f624 81be d7d5 59bd
00000080: e2a0 dbbe 6bde 333e 0da4 b3bd a8b8 10be
00000090: 5713 d2be 9034 b73e e8dc 623d 8cff b7bc
000000a0: 60b2 b13e 6d8b 8dbd 2324 9abc d057 d0bd
000000b0: d3f8 35be f145 c23d 450a ef3d 9c36 3fbd
000000c0: 8e7d f43d 422b aabd 4048 543e 0803 cebe
000000d0: cda1 bebe bce4 4e3e 242f 7cbd 5b4a 4ebe
000000e0: c142 66be f48c 983d 2a95 b83d 127d bd3d
000000f0: 0283 1a3e 72de 163c b81a 98be 5fa5 94be
00000100: fc8f f3be 7d8c e33e 92f2 4d3d 3288 73bd
00000110: 0604 be3d 0cd3 bfbe 3b02 7cbe 46d9 d03d
00000120: fd15 eebc 310e 053d d735 503e a205 3a3f
00000130: 0595 c3bd d882 9ebe 731a 9bbd 609b be3e
00000140: 9873 de3d 31de d63d e9cc 5dbe 06cf c5be
00000150: 200e df3d 9b6d 81bd 90d8 d2be 2657 b6be
00000160: d0cd a7be dd37 483e 56b2 82be 5334 5f3e
00000170: 2d96 b0bd 3142 4abe ec6b 9cbe ca3e a43d
00000180: 42a3 903e 8b2b b23d 5fbd d3be 5052 9bbd
00000190: 4532 5ebd f944 a2bd 4e15 b43c fe53 933e
000001a0: 7c43 f93d ab11 533d 3ad1 073e bacd 99bc
000001b0: b286 51bd 3c6d 2a3e d074 423e fe8a 76be
000001c0: b220 f2bd 60ba 2dbe 1794 02be ab40 d23d
000001d0: 5dea 51bd 1b2e 70bd 935f 793e bd17 2abe
000001e0: 3335 36be d0c8 72bd 181d b8bd 760f d0be
000001f0: 18ee 4dbe b9f6 aa3d ca3e fa3d 2ccf 71be

bn3.module.running_var f4 [128]
0.02627022 0.5160133 0.068151996 0.16954707 0.08976675 0.20128275 0.39136344 0.2731714
0.37787643 0.091235 0.31701803 0.15504591 0.21234316 0.11185755 0.20038152 0.07517831
0.12105981 0.08763899 0.2590692 0.0726175 0.28636238 0.05289947 0.15160316 0.394965
0.076080754 0.0730272 0.49812865 0.15121965 0.19483122 0.095496066 0.084867604 0.109376445
0.039656024 0.4823509 0.09030932 0.20345645 0.3961185 0.25577605 0.05824874 0.2116753
0.10504144 0.3201646 0.18510374 0.22744074 0.2924454 0.10056071 0.093385205 0.02432233
0.5134728 0.25351745 0.12739894 0.3511699 0.45122638 0.17875537 0.5860878 0.25395906
0.077271506 0.37542918 0.24483442 0.34699267 0.21582627 0.045477398 0.7471081 0.19840944
0.1800998 0.8258462 0.15363985 0.05378049 0.123479664 0.1942204 0.13309899 0.12418138
0.23093349 0.113195874 0.09214562 0.2683507 0.3705179 0.13835478 0.29941565 0.3715394
0.2918163 0.2265939 0.08932534 0.91769826 0.13283339 0.15297733 0.09018784 0.09138939
0.21952093 0.07283987 0.5569103 0.12255607 0.033960532 0.144322 0.13728827 0.08666534
0.19646373 0.061095618 0.21010627 0.603074 0.05671334 0.043001857 0.111923866 0.16941108
0.24897811 0.15432486 0.052217845 0.06331763 0.048705447 0.29761764 0.3349805 0.54214376
0.22830446 0.2908885 0.108914055 0.12153373 0.027144907 0.20816475 0.20468894 0.0533974
0.17325704 0.36370245 0.053782757 0.045988116 0.14792183 0.13485475 0.25712216 0.1543064
00000000: a534 d73c 7319 043f 4693 8b3d bf9d 2d3e
00000010: a1d7 b73d 111d 4e3e ca60 c83e 1fdd 8b3e
00000020: 0579 c13e 6ad9 ba3d 3050 a23e 5bc4 1e3e
00000030: 7c70 593e 9215 e53d d030 4d3e 16f7 993d
00000040: 35ee f73d 127c b33d b8a4 843e 7cb8 943d
00000050: 179e 923e 1dad 583d dc3d 1b3e da38 ca3e
00000060: 3ad0 9b3d 498f 953d b80a ff3e 53d9 1a3e
00000070: d681 473e 7193 c33d 11cf ad3d c200 e03d
00000080: 5b6e 223d b2f6 f63e 18f4 b83d e356 503e
00000090: 0bd0 ca3e 14f5 823e 3b96 6e3d 69c1 583e
000000a0: f71f d73d 9dec a33e d68b 3d3e 3ae6 683e
000000b0: 67bb 953e c6f2 cd3d be40 bf3d 9f3f c73c
000000c0: f472 033f 0acd 813e de74 023e 8bcc b33e
000000d0: 2507 e73e a60b 373e da09 163f ec06 823e
000000e0: 8640 9e3d 4138 c03e e0b5 7a3e 06a9 b13e
000000f0: 9001 5d3e 8246 3a3d 7a42 3f3f d82b 4b3e
00000100: 156c 383e a86a 533f c453 1d3e ee48 5c3d
00000110: e8e2 fc3d b6e1 463e 1a4b 083e cf52 fe3d
00000120: d479 6c3e 3dd3 e73d d8b6 bc3d 4365 893e
00000130: 86b4 bd3e e0ac 0d3e 024d 993e 6a3a be3e
00000140: f268 953e 3b08 683e 34f0 b63d 46ee 6a3f
00000150: 7a05 083e 17a6 1c3e 67b4 b83d 5c2a bb3d
00000160: 18ca 603e 122d 953d ac91 0e3f adfe fa3d
00000170: 331a 0b3d 25c9 133e 4c95 0c3e 997d b13d
00000180: ca2d 493e 663f 7a3d 1926 573e 0f63 1a3f
00000190: 3f4c 683d b722 303d 5738 e53d 197a 2d3e
000001a0: 1ef4 7e3e 5607 1e3e 61e2 553d acac 813d
000001b0: 5d7f 473d 5761 983e 9082 ab3e efc9 0a3f
000001c0: a5c8 693e 56ef 943e 550e df3d ade6 f83d
000001d0: ff5e de3c 2429 553e fa99 513e 3bb7 5a3d
000001e0: 4b6a 313e 3537 ba3e 4f4b 5c3d 095e 3c3d
000001f0: d278 173e 5d17 0a3e 84a5 833e 7f02 1e3e
